DRL_py_beta/model/trained_model/best_model_train_0.0001_n_history4_neurons50_layers4_ep4500.pt (torch, 129741 bytes, 10 tensors)

layers.0.weight f4 [50, 68]
0	0x3da078de	0.078355536
1	0xbd4bf28f	-0.04979187
2	0x3bfdb0fb	0.007742045
3	0x3d08d49d	0.03340589
4	0xbd9707b6	-0.073745176
5	0xbcf670c9	-0.030083077
6	0x3e1d9a74	0.1539095
7	0x3ce0dc91	0.027448924
8	0xbd93f501	-0.07224465
9	0x3d371414	0.044696882
10	0x3dd860d1	0.10565341
11	0xbd8cd435	-0.06876413
12	0xbd851eb3	-0.06499996
13	0x3dca5d4a	0.09881075
14	0x3dbf3c0e	0.093376264
15	0xbdeab344	-0.114599735
16	0xba4f8718	-0.0007916554
17	0x3b422864	0.0029626125
18	0x3cae0ade	0.021245416
19	0xbcd909d6	-0.026493948
20	0xbddbe152	-0.10736336
21	0xbcf05e15	-0.029341737
22	0xbcf50099	-0.029907512
23	0x3cfe8eaa	0.031073887
24	0xbca52b75	-0.020162323
25	0x3d7b52c0	0.061358213
26	0x3dffdbee	0.1249312
27	0x3d844d30	0.06460035
28	0x3cc91757	0.024547262
29	0xbc9f089b	-0.019413283
30	0xbda8e2f4	-0.08246413
31	0x3d1d66c9	0.0384281
32	0xbdb78cea	-0.08962424
33	0xbc651d2b	-0.013984005
34	0xbddab425	-0.10678891
35	0x3de188db	0.11012431
36	0x3d8fd2c7	0.070226245
37	0x3caae983	0.0208633
38	0x3ce0b992	0.027432237
39	0x3d416c93	0.047222685
40	0x3de13bc2	0.10997726
41	0x3dde2fff	0.10848998
42	0xbc0b25a4	-0.008492861
43	0xbd763520	-0.060109258
44	0x3d9eb011	0.07748426
45	0xbceca12f	-0.028885452
46	0xbd9f4ec9	-0.07778699
47	0xbda8fc1d	-0.08251212
48	0x3dbc0398	0.09180373
49	0x3d23cb2a	0.039988674
50	0x3bf28d17	0.007402073
51	0xbc262bb2	-0.010142254
52	0x3da4e258	0.08050984
53	0xbe004793	-0.12527303
54	0xbe1cc2e4	-0.1530872
55	0xbe390187	-0.18066989
56	0x3db01780	0.08598232
57	0x3d1af723	0.037833344
58	0xbcec0baf	-0.028814165
59	0x3d771614	0.06032379
60	0xbdfc7724	-0.12327412
61	0xbdfc332e	-0.12314449
62	0x3b9334da	0.0044923844
63	0x3c80b549	0.015711443
64	0xbd970b7c	-0.07375237
65	0xbd6647ed	-0.056220938
66	0x3c7a72d3	0.015286165
67	0x3e10655c	0.14101166
68	0x3d77b159	0.060471866
69	0xbda59cd0	-0.0808655
70	0x3cd32ce7	0.025778247
71	0x3ca91bde	0.02064317
72	0xbe04dbd2	-0.1297448
73	0xbe83f40d	-0.25772133
74	0x3c97e6e0	0.018542707
75	0x3dc9416b	0.098269306
76	0xba3f538c	-0.0007298521
77	0x3ea2c9e5	0.31794658
78	0xbdf630a1	-0.12020994
79	0x3dd73862	0.10508801
80	0x3c950016	0.018188518
81	0x3d9af3a2	0.075660005
82	0x3dae1bf7	0.085014276
83	0x3d6e0983	0.05811454
84	0xbd11c0de	-0.035584323
85	0x3d049488	0.032368213
86	0x3a8c60d1	0.0010710006
87	0xbd97a611	-0.074047215
88	0x3dff6ef7	0.12472337
89	0xbd628c7d	-0.05530976
90	0xbe8a1446	-0.26968592
91	0xbd6dc153	-0.058045696
92	0xbdb5dc66	-0.08879928
93	0x3e0815e3	0.13289599
94	0x3db520de	0.088441595
95	0xbde896ff	-0.11356925
96	0x3cab4f81	0.020911934
97	0xbde316ed	-0.11088357
98	0xbc2761ed	-0.010216218
99	0x3d80b448	0.06284386
100	0xbdce549f	-0.10074734
101	0xb9850a6f	-0.0002537551
102	0x3dddd603	0.10831835
103	0xbd12dff1	-0.0358581
104	0xba3b424d	-0.00071433635
105	0xbd74d9c0	-0.059777975
106	0x3dadfbeb	0.08495315
107	0xbd8cc302	-0.06873132
108	0x3c953f3a	0.018218625
109	0x3e062c9e	0.13102958
110	0xbdb3b38e	-0.08774482
111	0x3e11a38d	0.14222546
112	0x3c9e20b6	0.019302707
113	0xbd3d6a85	-0.046244163
114	0x3d6cd5e3	0.057821166
115	0x3c02d325	0.007984911
116	0xbd8a0687	-0.06739526
117	0xbe191aa5	-0.1495157
118	0xbd01ea27	-0.031717446
119	0xbdd7d0f9	-0.10537905
120	0xbd835a1a	-0.0641367
121	0xbba82f3d	-0.0051325844
122	0x3dc5232e	0.096258506
123	0x3c312d8c	0.010814082
124	0xbe81acec	-0.2532724
125	0xbd8736e8	-0.066022694
126	0x3daf5ba9	0.08562405
127	0x3d45b62d	0.04826944
128	0x3dedb92b	0.116075836
129	0x3d7be9f3	0.06150241
130	0x3e42ed0f	0.19035743
131	0xbd74ca46	-0.059763215
132	0x3e1edcfc	0.15513986
133	0xbdec9ce2	-0.115533605
134	0xbe00ed58	-0.1259054
135	0x39bc6282	0.00035931548
136	0xbcdab3eb	-0.02669712
137	0x3c65f533	0.014035511
138	0x3d9d1a4f	0.076710336
139	0xbdf001e6	-0.11719112
140	0x3cb4580f	0.022014646
141	0x3d811915	0.06303612
142	0x3d4af182	0.049546726
143	0x3dcdd2ef	0.10049998
144	0x3d99163d	0.07474945
145	0x3dd15c8f	0.10222732
146	0xbd018826	-0.031623982
147	0xbdc97590	-0.098368764
148	0x3c208d3d	0.009799299
149	0xbd897cf5	-0.06713287
150	0x3e134bda	0.14384404
151	0x3db0288d	0.086014844
152	0xbc8ebba2	-0.017423455
153	0x3de2c931	0.110735305
154	0xbaff76ed	-0.0019490399
155	0xbcafdc8a	-0.021467466
156	0xbdcbe5a5	-0.099559106
157	0xbd8a9d98	-0.0676834
158	0x3e05637f	0.13026236
159	0xbd0130fe	-0.031540863
160	0xbde6fbf2	-0.112785235
161	0xbd8e1b24	-0.069387704
162	0x3c799f51	0.015235738
163	0x3c2d5d4d	0.010581327
164	0xbc43db04	-0.011954073
165	0xbde0ab49	-0.1097017
166	0xbd0792c5	-0.033098955
167	0xbc4c5de2	-0.012473555
168	0xbd8f2008	-0.06988531
169	0xbcd97a8a	-0.026547689
170	0xbbfc3f91	-0.0076980074
171	0x3d99d2af	0.07510888
172	0xbd82bc1d	-0.06383536
173	0xbd878fcf	-0.06619226
174	0xbded47f5	-0.1158599
175	0x3d8ff7b5	0.07029668
176	0x3e007fb8	0.12548721
177	0xbd6e4789	-0.05817369
178	0xbc4e4483	-0.012589577
179	0x3e827b90	0.25484896
180	0xbcd069e0	-0.02544111
181	0xbe2a92d3	-0.16657571
182	0xbe01743a	-0.12641993
183	0xbdb58c11	-0.08864606
184	0xbd1357d4	-0.03597243
185	0x3cb656f3	0.022258257
186	0xbd8df4d1	-0.06931461
187	0x3e3727e0	0.17886305
188	0xbd5abd7e	-0.05340337
189	0xbd0cc687	-0.034369018
190	0xbd829b60	-0.06377292
191	0x3d1373fd	0.035999287
192	0x3e44645e	0.19178912
193	0x3d39f061	0.04539526
194	0x3be6ebfe	0.0070471754
195	0xbd5e664f	-0.054296788
196	0x3eb83506	0.35977954
197	0xbe064c1e	-0.13114974
198	0xbe177537	-0.14790808
199	0xbe42561d	-0.18978162
200	0xbe49461b	-0.1965565
201	0x3d3efeac	0.046629593
202	0xbd60045b	-0.054691654
203	0xbd8cfc9a	-0.068841174
204	0x3e28a0c5	0.16467579
205	0x3d3e5abf	0.04647326
206	0xbd6c71d1	-0.05772573
207	0xbda0bd63	-0.07848623
208	0x3b9d2630	0.004795812
209	0x3ddb4c65	0.107079305
210	0x3d9297dc	0.07157871
211	0x3af7c252	0.0018902516
212	0x3cbdb37f	0.02315688
213	0x3e86e971	0.26349977
214	0xbd82b40e	-0.06381999
215	0x3e0d46a8	0.13796484
216	0x3dad720b	0.084690176
217	0xbcceac08	-0.025228515
218	0xbe6cd537	-0.2312821
219	0xbe3bcb69	-0.18339314
220	0x3b07d72d	0.002072762
221	0x3de69ec1	0.11260749
222	0xbdd94c29	-0.106102295
223	0xbcecac32	-0.028890703
224	0x3c10d8f9	0.008840793
225	0x3d298ed4	0.041395977
226	0x3e4a66ef	0.19765829
227	0x3e022222	0.12708333
228	0x3dde94f5	0.10868255
229	0x3cbb5517	0.022867722
230	0x3d3a4305	0.04547407
231	0xbe0623ad	-0.13099547
232	0x3d80d6a6	0.06290941
233	0x3e4303cd	0.19044419
234	0xbd39ace7	-0.04533091
235	0xbe2f2274	-0.17102987
236	0xbe3ff9f7	-0.18747698
237	0x3bf66e71	0.00752049
238	0x3e106959	0.14102687
239	0x3dc13814	0.09434524
240	0xbe35a36f	-0.17738126
241	0x3b5b2bf9	0.0033442958
242	0xbe113004	-0.14178473
243	0x3e1472dc	0.1449694
244	0xbb04865a	-0.0020221681
245	0x3bd45bba	0.006480661
246	0x3d4d8c1c	0.050182447
247	0x3e5c772b	0.21529834
248	0x3bf50b81	0.007478178
249	0x3e33a4fa	0.17543402
250	0x3e3b4ec7	0.1829177
251	0x3d9552b2	0.072911635
252	0xbdee8ae0	-0.11647582
253	0xbd1c2f41	-0.038131002
254	0x3da84ae8	0.08217412
255	0x3e34accd	0.17644043

layers.0.bias f4 [50]
0	0x3d25968d	0.04042678
1	0xbd807181	-0.06271649
2	0x3cbfdab5	0.023419717
3	0xbd84a39c	-0.064765185
4	0x3dece5a4	0.11567238
5	0xbc2d86cd	-0.010591221
6	0xbc8d9a41	-0.017285468
7	0x3c5750e7	0.013141847
8	0xbdd8e199	-0.10589904
9	0xbd52fbf8	-0.051509827
10	0x3c518078	0.012786977
11	0xbd9b8511	-0.0759374
12	0x3e20cc2a	0.15702882
13	0xbdab9803	-0.08378603
14	0xbd67e8ab	-0.056618374
15	0xbc84d987	-0.016217006
16	0xbd92b6ba	-0.071637586
17	0xbb7a16b6	-0.003816051
18	0xbd6f3051	-0.058395687
19	0xbbff8432	-0.0077977413
20	0xbd042cb1	-0.032269184
21	0x3e1e50d9	0.15460528
22	0x3d6e4dde	0.05817973
23	0x3e0ffcee	0.14061329
24	0x3b5d08d0	0.0033727176
25	0xbb5fccff	-0.0034149287
26	0x3d803c05	0.06261448
27	0xbd1f435b	-0.038882595
28	0xbe3e9a10	-0.18613458
29	0xbc99853b	-0.018740287
30	0x3d415f6b	0.04721014
31	0xbb8a7330	-0.004225157
32	0x3d30ab91	0.04313237
33	0xbd3039b4	-0.04302378
34	0xbc711248	-0.014713831
35	0xbbb79832	-0.00560286
36	0xbc9d2d23	-0.019186562
37	0xbdca141b	-0.09867116
38	0x3cf378ed	0.029720748
39	0x3d46b04e	0.04850798
40	0x3e15630e	0.14588568
41	0x3c4b55cf	0.012410595
42	0xbdefed99	-0.1171524
43	0xbddc5d6f	-0.107600085
44	0xbcb2151d	-0.021738583
45	0x3d668388	0.05627778
46	0xbd868056	-0.06567447
47	0xbd5ee10d	-0.054413844
48	0x3c36c22c	0.011154693
49	0xbddd9050	-0.10818541

layers.1.weight f4 [50, 50]
0	0xbd6f2018	-0.058380216
1	0x3e078a9b	0.13236468
2	0xbd81a8a9	-0.063309975
3	0x3da3b7aa	0.079940155
4	0x3dedb8ea	0.11607535
5	0x3d0b0b11	0.0339461
6	0x3de354cb	0.11100157
7	0xbdf1cbcd	-0.1180645
8	0x3db19038	0.08670086
9	0xbcb13494	-0.021631517
10	0xbdb8c6b9	-0.09022278
11	0xbd60be2d	-0.054868866
12	0xbe1be42c	-0.1522376
13	0x3e48b011	0.19598414
14	0xbb3f4ffc	-0.0029191962
15	0xbe0dff7e	-0.13866994
16	0x3e4f5b7d	0.20249744
17	0x3e30e881	0.17276193
18	0x3d6f83c7	0.058475282
19	0x3e42b809	0.19015516
20	0x3e75a9b8	0.23990524
21	0x3e479a23	0.19492392
22	0x3dd8c128	0.10583717
23	0x3de597f9	0.11210627
24	0x3cef31e2	0.02919859
25	0xbcbd4830	-0.02310571
26	0x3dd96ab9	0.10616059
27	0x3d9672a3	0.07346084
28	0x3ec0b29c	0.37636268
29	0x3d21c83a	0.03949759
30	0x3d05dc68	0.0326809
31	0xbea1543a	-0.31509572
32	0xbc80d2bb	-0.015725484
33	0x3dd92319	0.106023975
34	0x3c615bff	0.013754844
35	0x3d2f9126	0.042863034
36	0xbd596233	-0.053072166
37	0xbd780e19	-0.06056032
38	0xbb6be182	-0.0035992567
39	0x3bf3138a	0.0074181007
40	0x3df81f64	0.12115362
41	0xbd2a6e6a	-0.041609205
42	0x3e01e6dd	0.12685724
43	0x3d814ce5	0.063134946
44	0x3d32d5a4	0.043660775
45	0xbcca4dd5	-0.024695316
46	0xbcb9051e	-0.022585448
47	0xbdc72f05	-0.09725765
48	0xbd152fed	-0.03642266
49	0xbd8f9195	-0.070101894
50	0x3d854ee3	0.06509187
51	0x3ca020c1	0.019546868
52	0x3d787200	0.060655594
53	0xbdbb0cdb	-0.09133311
54	0x3e1df9de	0.15427348
55	0x3e2921ab	0.1651675
56	0x3d76017f	0.06006002
57	0x3e08f504	0.13374716
58	0x3c047110	0.008083597
59	0xbd54f481	-0.05199099
60	0x3d60fb41	0.054927114
61	0x3e15f3df	0.1464381
62	0x3bb2b19e	0.0054533025
63	0xbd38c8e3	-0.045113456
64	0x3dd44b7d	0.10365961
65	0xbd13a9b8	-0.03605053
66	0x3c37f513	0.011227864
67	0x3df62128	0.12018043
68	0xbb9d4a9f	-0.0048001553
69	0xba6cf2aa	-0.00090388453
70	0xbdfe01d3	-0.12402692
71	0x3e2e8ba4	0.17045456
72	0x3decf91c	0.11570951
73	0xbdb22106	-0.08697705
74	0x3cbf8467	0.023378564
75	0x3bef6ce6	0.007306683
76	0x3df717e5	0.120651044
77	0x3cce7388	0.025201574
78	0xbe9691a6	-0.29407996
79	0x3d94dae1	0.0726831
80	0x3da9dd2e	0.0829414
81	0xbd4f644a	-0.050632752
82	0xbcba60e8	-0.022751287
83	0xbe0b0664	-0.13576657
84	0x3d9c8ca6	0.07644014
85	0x3e1b4e0e	0.15166494
86	0x3e8f32a4	0.27968323
87	0xbe016a39	-0.12638177
88	0x3d297bdd	0.04137789
89	0xbd7431c5	-0.059617776
90	0xbd8ed063	-0.0697334
91	0x3d2b9324	0.04188837
92	0x3d696e9b	0.056990247
93	0x3d104685	0.035223503
94	0x3e0ec3f8	0.13941944
95	0xba2db186	-0.00066258793
96	0xbdfa8a16	-0.12233369
97	0xbc3a4bef	-0.011370643
98	0x3e166be9	0.14689602
99	0x3da2c315	0.07947365
100	0x3e270653	0.16311006
101	0x3d89baa4	0.06725052
102	0xbd912b71	-0.07088364
103	0x3e4ac9c5	0.19803531
104	0x3e14add3	0.14519434
105	0x3d4ab27e	0.04948663
106	0x3d858737	0.06519931
107	0xbdb5c279	-0.08874983
108	0x3e11bc62	0.14232019
109	0xbe08e479	-0.13368405
110	0x3e0f4916	0.13992724
111	0x3d9af7f1	0.07566822
112	0x3d05b3f4	0.03264232
113	0xbe3d17e1	-0.1846614
114	0x3e212be5	0.157394
115	0x3db8ae3d	0.09017608
116	0x3e38b8ca	0.18039241
117	0x3daa0886	0.08302407
118	0x3d431519	0.047627542
119	0xbb2519f1	-0.0025192464
120	0xbda8cd3e	-0.08242272
121	0x3db8d5b7	0.09025138
122	0x3d65dab3	0.05611677
123	0x3cc02b1f	0.023458062
124	0x3d450fc3	0.048110735
125	0x3d9fedd6	0.078090355
126	0xbe90d9b8	-0.28291106
127	0xbdb5d1ca	-0.08877905
128	0x3e1cb3c0	0.15302944
129	0x3dc89163	0.09793355
130	0x3da37cd4	0.079827935
131	0xbc88f445	-0.01671804
132	0x3c0b46d6	0.008500775
133	0xbc74ec93	-0.014948982
134	0x3d3e40dd	0.046448577
135	0x3e17b0d2	0.14813545
136	0xbdd54965	-0.104143895
137	0xbde171d6	-0.110080406
138	0x3c0e2bfd	0.00867748
139	0xbd31931c	-0.043353185
140	0xbd133576	-0.035939656
141	0x3dfa568b	0.12223538
142	0x3da3da7b	0.08000656
143	0x3d64d004	0.05586244
144	0x3e2237bf	0.15841578
145	0x3d179bf2	0.037013955
146	0x3e226144	0.15857416
147	0xbe002d30	-0.12517238
148	0x3d56be8b	0.05242781
149	0x3c41f7ea	0.0118388925
150	0x3d20a6be	0.039221518
151	0x3e35c825	0.1775213
152	0xbd0a8b86	-0.033824466
153	0x3e611520	0.21980715
154	0x3e297a6d	0.16550608
155	0xbdd64720	-0.10462785
156	0x3d29ce42	0.04145647
157	0xbde97791	-0.113997586
158	0x3a7f0ee5	0.00097296975
159	0x3cb32771	0.021869393
160	0xbe178535	-0.14796908
161	0x3d27c95a	0.04096351
162	0x3c8856b1	0.0166429
163	0x3e8e355c	0.27775085
164	0x3e67ad72	0.22624758
165	0x3d47f790	0.04882008
166	0x3e4d2ccf	0.20036624
167	0x3daa60ad	0.08319221
168	0x3e090275	0.13379844
169	0xbc63167e	-0.013860343
170	0x3d9ba1d4	0.07599226
171	0xbd975f4d	-0.07391224
172	0xbbde24f4	-0.0067793075
173	0xbccc4eb2	-0.024939869
174	0xbd8bd0d0	-0.06826937
175	0x3de3c530	0.11121595
176	0x3eceb445	0.4037191
177	0x3e991f48	0.29906678
178	0xbf060a78	-0.52359724
179	0x3d9ea21a	0.07745762
180	0xbded9f46	-0.116026446
181	0x3dacabad	0.08431182
182	0xbda7710a	-0.08175857
183	0x3df28455	0.118416466
184	0x3debd6fd	0.11515615
185	0xbd99023e	-0.07471131
186	0x3ec97d4a	0.393534
187	0xbdab3e55	-0.08361498
188	0x3d1fd79e	0.039023988
189	0xbe1065e1	-0.14101364
190	0x3d828114	0.06372276
191	0x3c25aa36	0.010111382
192	0x3e4168ed	0.18887682
193	0xbd55905a	-0.052139618
194	0x3d5db4e5	0.054127593
195	0xbc9626d9	-0.01832907
196	0xbeed1803	-0.46307382
197	0x3e4dde41	0.20104314
198	0xbdd54f73	-0.10415544
199	0x3e04b034	0.12957841
200	0x3d027b1f	0.0318557
201	0xbd09189f	-0.033470746
202	0x3cc67160	0.024223983
203	0xb9fb6fae	-0.00047957659
204	0xbc3dd066	-0.011585331
205	0x3cbe3c6d	0.023222173
206	0x3dfa8501	0.122324
207	0xbdf2e5ce	-0.11860238
208	0xbd8d2786	-0.06892304
209	0xbd908e64	-0.07058409
210	0xbe1fcc73	-0.15605335
211	0xbc06d39a	-0.008229161
212	0xbded04a8	-0.11573154
213	0xbd5ccc42	-0.053905733
214	0xbd06edbe	-0.032941572
215	0x3c018c71	0.007907019
216	0x3dc49209	0.095981665
217	0xbd57b7f1	-0.052665655
218	0xbd2b01b1	-0.04174966
219	0xbd0e0cd4	-0.034680203
220	0xbe1c96bf	-0.1529188
221	0xbbf50bc4	-0.007478209
222	0x3d221a19	0.03957567
223	0xbdd8e078	-0.10589689
224	0x3e042573	0.1290491
225	0x3dd86d59	0.105677314
226	0xbd339322	-0.04384149
227	0x3dc2b028	0.095062554
228	0x3de55823	0.11198451
229	0x3a0cf55e	0.0005377139
230	0xbdd524ff	-0.10407447
231	0x3e30b65c	0.17257065
232	0x3d5b1360	0.053485274
233	0xbdf2091a	-0.11818142
234	0xbde077f2	-0.10960378
235	0x3e0c41a5	0.13696916
236	0xbc18e447	-0.009331769
237	0xbd051538	-0.03249094
238	0x3dc44b38	0.09584659
239	0xbd2aac18	-0.041668028
240	0x3da5e3c4	0.081000835
241	0x3e150126	0.1455122
242	0x3cc97413	0.024591481
243	0x3dadd0f9	0.08487124
244	0xbd9655bf	-0.073405735
245	0xbdb6423f	-0.08899354
246	0xbca76599	-0.020434188
247	0xbd80dc30	-0.062919974
248	0xbc87dd6d	-0.016585076
249	0xbd7d6100	-0.061860085
250	0x3cd04dfe	0.025427815
251	0xbb220ad3	-0.002472569
252	0x3e3c5212	0.18390682
253	0x3cbcd0e1	0.02304882
254	0xbc89e50b	-0.016832849
255	0x3e0cf660	0.1376586

layers.1.bias f4 [50]
0	0xbe134382	-0.14381221
1	0x3dd47ac6	0.1037498
2	0x3e080bff	0.13285826
3	0xbe0faadf	-0.14030026
4	0x3db74894	0.0894939
5	0xbe05676f	-0.13027738
6	0x3d031c3c	0.03200935
7	0x3e296829	0.1654364
8	0xbdc6ea6e	-0.09712683
9	0xbe062b19	-0.13102378
10	0x3d3b84da	0.045780994
11	0xbdb52add	-0.08846066
12	0xbd473890	-0.048637927
13	0xbe03c774	-0.12869054
14	0xbaeb3719	-0.0017945498
15	0x3cd59992	0.026074205
16	0x3ccaabba	0.024740089
17	0xbdb96839	-0.09053082
18	0x3e134fee	0.1438596
19	0x3e362159	0.17786159
20	0xbe0001b7	-0.12500654
21	0x3dc97573	0.09836855
22	0xbd04e559	-0.032445285
23	0x3d0cd0a6	0.03437867
24	0x3d4e2582	0.05032874
25	0x3dfa0669	0.12208254
26	0xbd9d8f20	-0.076933146
27	0xbd92f2eb	-0.07175239
28	0xbd8d915f	-0.06912493
29	0xbdc5c818	-0.096573055
30	0xbd79c6bb	-0.06098054
31	0x3d80635d	0.06268952
32	0x3d9c5e58	0.07635182
33	0x3d8c0220	0.06836343
34	0x3dd3a04a	0.10333307
35	0x3dbf9226	0.093540475
36	0x3e0d0d23	0.13774543
37	0x3de9ce44	0.11416295
38	0x3c92fcab	0.017942747
39	0x3dbb58a8	0.09147769
40	0xbd91d873	-0.071213625
41	0xbbc94534	-0.006142283
42	0x3b592e6f	0.003313925
43	0xbe04ddbd	-0.12975211
44	0x3e27fb01	0.16404344
45	0xbc26b770	-0.010175571
46	0x3e2d18f1	0.16904046
47	0x3dbf8f21	0.093534715
48	0xbe493162	-0.19647744
49	0x3db0bf32	0.086302176

layers.2.weight f4 [50, 50]
0	0xbda229ee	-0.07918154
1	0xbd23ac16	-0.039959036
2	0x3d83d7ee	0.0643767
3	0x3e9c3280	0.30507278
4	0x3e047a46	0.12937269
5	0x3f1fe635	0.62460643
6	0x3ddffe77	0.10937207
7	0xbd98a30b	-0.07452973
8	0xbdb38a58	-0.08766621
9	0xbd862794	-0.06550518
10	0x3ded4aa6	0.11586504
11	0x3dd0a552	0.10187782
12	0x3e17bb51	0.1481755
13	0xbe1e0449	-0.15431322
14	0x3d704bbc	0.058665976
15	0x3ddc6396	0.10761182
16	0x3c8d9095	0.017280856
17	0x3dec3327	0.11533194
18	0xbde87bd2	-0.11351742
19	0xbd7ec8a9	-0.062203083
20	0xbcb7dd0c	-0.02244427
21	0x3c406e25	0.0117450105
22	0x3c2f841d	0.010712651
23	0xbbc5bfde	-0.0060348352
24	0xbe1f7815	-0.15573151
25	0x3df3aea8	0.118985474
26	0xbdb9132c	-0.0903686
27	0x3d0a03f2	0.03369517
28	0xbb305c13	-0.002691035
29	0x3e172ca8	0.14763129
30	0x3de91f49	0.1138292
31	0xbd6132ee	-0.05498021
32	0x3e29255a	0.16518155
33	0xbcabc50b	-0.02096798
34	0x3d5047ea	0.050849833
35	0xbc498401	-0.012299539
36	0xbe4e7e00	-0.20165253
37	0x3d791708	0.06081298
38	0x3dbff509	0.093729086
39	0xbcb33f0a	-0.021880645
40	0xbd2706fb	-0.04077814
41	0x3d513b6b	0.051082056
42	0xbda5dc3d	-0.08098648
43	0x3d8e159f	0.06937718
44	0x3f0dba65	0.5536254
45	0x3e057741	0.13033773
46	0xbcad9c4d	-0.021192694
47	0xbda69ad1	-0.08134998
48	0xbe22f737	-0.15914617
49	0x3d54a62d	0.05191629
50	0xbdd5e5c7	-0.10444217
51	0x3dfe9dce	0.124324426
52	0xbd50f5e3	-0.051015746
53	0x3dbedb74	0.09319201
54	0xbd15990c	-0.03652291
55	0x3dc1afec	0.094573826
56	0xbd8b9f35	-0.06817476
57	0xbdc9501e	-0.09829734
58	0xbdec6b6e	-0.11543928
59	0xbd93d9e8	-0.07219297
60	0xbd9e00bf	-0.07714986
61	0x3d8421ec	0.064517826
62	0xbdbf2dde	-0.0933492
63	0xbcc457aa	-0.023967583
64	0xbd527535	-0.05138131
65	0xbd5ab3b1	-0.053394023
66	0xbc8de92b	-0.017323097
67	0x3d9fcfde	0.078033194
68	0xbd6ee31f	-0.05832207
69	0xbdf2b0bf	-0.11850118
70	0x3dc52dc4	0.0962787
71	0xbda84d19	-0.0821783
72	0x3dc7deb5	0.09759275
73	0xbc6bd918	-0.014395021
74	0xbc88f608	-0.01671888
75	0x3e07d36e	0.13264248
76	0x3cd08e23	0.025458401
77	0xbe030244	-0.12793833
78	0xbe0ad09e	-0.13556144
79	0xbe077672	-0.13228777
80	0xbdd5bc6e	-0.10436331
81	0x3d516225	0.05111899
82	0x3d7097b1	0.058738414
83	0x3d9614e1	0.07328201
84	0xbe0540fa	-0.13013068
85	0x3dae0b05	0.084981956
86	0x3e006121	0.12537052
87	0x3d635e81	0.055510048
88	0xbd645f2b	-0.05575482
89	0xbdfb2882	-0.122635856
90	0x3e0f2ca9	0.1398188
91	0x3c6351d5	0.013874491
92	0x3cf9d16d	0.03049537
93	0x3baf59f8	0.0053513013
94	0x3dc274a3	0.09494903
95	0xbe0e54e5	-0.13899572
96	0x3d926b87	0.071494155
97	0xbdc4d784	-0.09611419
98	0x3e065253	0.13117342
99	0xbde209e4	-0.11037043
100	0xbd6949de	-0.05695521
101	0x3d934a87	0.07191949
102	0x3d977b2c	0.0739654
103	0x3dd1b1e0	0.10239005
104	0xbd6717c8	-0.056419164
105	0x3de13cd7	0.109979324
106	0xbdbdf20b	-0.09274682
107	0x3c9c3e24	0.0190726
108	0x3d4b9e1b	0.049711328
109	0x3dc86609	0.09785087
110	0xbdbfdd79	-0.093684144
111	0xbd64a7e5	-0.05582418
112	0xbda229d5	-0.07918135
113	0x3e1373ae	0.14399597
114	0x3b9a2736	0.0047043813
115	0x3d00b001	0.03141785
116	0x3daec1ac	0.08533034
117	0xbaf7fd1e	-0.0018920039
118	0x3d34426f	0.04400867
119	0xbcfff676	-0.031245451
120	0xbe682d1f	-0.22673462
121	0x3d37adaf	0.044843372
122	0x3bcae8c6	0.0061922995
123	0xbdac00df	-0.08398604
124	0xbe0113aa	-0.12605157
125	0x3d820be2	0.06349923
126	0xbc2f3a55	-0.01069506
127	0x3ce923d4	0.028459467
128	0x3c0b87f7	0.008516303
129	0x3b45de0e	0.003019217
130	0xbd685208	-0.056718856
131	0x3e2deb40	0.16984272
132	0xbdc4d41c	-0.09610769
133	0xbd0b3e0b	-0.033994716
134	0x3d42aad5	0.0475262
135	0xbc92e2da	-0.017930437
136	0x3e2a706f	0.16644453
137	0x3e0964d0	0.13417363
138	0x3e1e926e	0.15485546
139	0xbd167d0c	-0.036740348
140	0xbd7cc147	-0.06170776
141	0x3d84f284	0.06491569
142	0x3dd53b63	0.10411718
143	0xbdda9646	-0.10673194
144	0xbe4e313a	-0.20135966
145	0xbd334e0b	-0.0437756
146	0xbb3453f6	-0.0027515865
147	0xbd0d39f8	-0.03447911
148	0x3e38b76e	0.18038723
149	0xbaadda1b	-0.0013263853
150	0xbd0be46c	-0.034153387
151	0x3c15773c	0.009122666
152	0xbd63ec7c	-0.05564545
153	0xbd8731e4	-0.06601313
154	0x3dff212b	0.12457498
155	0xbd26ece3	-0.040753257
156	0x3da9e46b	0.082955204
157	0xbdc0d558	-0.09415692
158	0xbd7f53c0	-0.06233573
159	0x3d663db3	0.056211185
160	0x3cce6bc7	0.025197877
161	0xbdda675c	-0.106642455
162	0x3ddbca6c	0.10731968
163	0xbd1db209	-0.038499866
164	0xbac376db	-0.0014912741
165	0xbca972e0	-0.02068466
166	0x3dd9e32e	0.10639034
167	0x3d0c39ad	0.03423469
168	0x3d838797	0.06422346
169	0xbd0511df	-0.032487746
170	0x3e1062e6	0.14100227
171	0x3d5a9c76	0.05337187
172	0x3d8ef751	0.069807656
173	0xbce71d2f	-0.028212158
174	0xbdf3e082	-0.11908056
175	0x3dcde2ba	0.1005301
176	0xbe02a316	-0.12757525
177	0xbe0f2a73	-0.13981037
178	0x3c4d6bb4	0.012537885
179	0xbcdff028	-0.027336195
180	0xbdd0ab8b	-0.10188969
181	0x3ddb8cd3	0.107202195
182	0x3c4df052	0.012569504
183	0xbd8a0633	-0.06739464
184	0x3db6efb3	0.08932438
185	0x3d468b6a	0.0484728
186	0xbde5fcbb	-0.11229845
187	0xbccd328c	-0.025048517
188	0xbdfccac6	-0.123433635
189	0xbda49447	-0.08036094
190	0x3cd0da2f	0.025494663
191	0x3d19aca6	0.037518166
192	0xbd66db27	-0.056361344
193	0xbd50f11c	-0.05101119
194	0xbdfa4fdf	-0.122222655
195	0xbdb61122	-0.088899866
196	0xbc2ecea2	-0.010669382
197	0x3b60d2ef	0.0034305414
198	0x3da01771	0.07816971
199	0x3dbd1d13	0.09234061
200	0x3df641d0	0.120242715
201	0x3d781bae	0.060573272
202	0xbda929d6	-0.08259933
203	0x3cadf33f	0.021234153
204	0xbdd1edba	-0.10250421
205	0x3ecfafa2	0.40563685
206	0x3da26f93	0.07931437
207	0x3cb910d4	0.022591032
208	0x3d97b700	0.07407951
209	0x3e5e18b7	0.21689115
210	0x3dd19fbe	0.102355465
211	0xbcf0e582	-0.029406313
212	0x3e16e46c	0.14735574
213	0x3dd7d7fe	0.10539244
214	0xbdc15b82	-0.09441282
215	0x3e5460c6	0.20740041
216	0x3dd582e6	0.104253575
217	0x3e21d2d5	0.15803082
218	0x3e2f9de9	0.17150082
219	0xbd8b93b6	-0.06815283
220	0x3e17a351	0.14808394
221	0x3e12b974	0.14328557
222	0xbdb5a3f0	-0.08869159
223	0xbd84fa44	-0.06493047
224	0x3e0dde99	0.13854446
225	0x3dbe4a1c	0.09291479
226	0x3e1f9a99	0.15586318
227	0xbcc6ec00	-0.024282455
228	0x3e0de5ae	0.13857147
229	0xbdb946da	-0.09046717
230	0xbda6fdce	-0.08153878
231	0x3d5a9508	0.053364784
232	0xbd9c31b4	-0.076266676
233	0x3d345239	0.044023726
234	0x3d683df3	0.056699704
235	0x3e237cc9	0.1596557
236	0xbd032eff	-0.03202724
237	0x3dd93efd	0.10607717
238	0x3d2cf7d4	0.042228535
239	0x3e260aa4	0.16214997
240	0x3ac1436a	0.0014744822
241	0x3db5065b	0.08839103
242	0xbd95521b	-0.07291051
243	0xbdb45e40	-0.08807039
244	0xbd133b8d	-0.035945464
245	0x3e122e6f	0.14275526
246	0xbd5c5aef	-0.05379766
247	0x3e0d4a17	0.13797794
248	0x3ea140b4	0.31494677
249	0xbce1bb6f	-0.027555196
250	0x3d9abcbc	0.075555295
251	0x3e2766e3	0.16347842
252	0xbd18ea3c	-0.03733276
253	0x3e556c10	0.20842004
254	0xbd178586	-0.036992572
255	0xbebe20d9	-0.37134436

layers.2.bias f4 [50]
0	0x3def182d	0.11674533
1	0xbe04c62f	-0.12966226
2	0xbda5e541	-0.08100367
3	0xbb42a530	-0.002970051
4	0xbdde8de3	-0.108669065
5	0x3ddf76f4	0.109113604
6	0xbe410037	-0.18847738
7	0xbd06a339	-0.032870505
8	0x3a12ea1d	0.00056043436
9	0xbd1497f6	-0.036277734
10	0xbd6a28e6	-0.05716791
11	0x3e15f540	0.14644337
12	0xbdf9567f	-0.12174701
13	0xbd0618ab	-0.03273837
14	0xbe37a872	-0.1793535
15	0xbe0854b8	-0.13313568
16	0xbe0fa2e8	-0.14026988
17	0x3db3ba7f	0.08775806
18	0x3dfa85ce	0.122325525
19	0xbd1d717d	-0.03843831
20	0xbd71abf7	-0.05900189
21	0x3d695198	0.05696258
22	0x3d8d6d26	0.06905584
23	0xbe1b485e	-0.15164325
24	0xbd1e34bb	-0.038624506
25	0x3e324670	0.17409682
26	0x3df07d4e	0.1174265
27	0xbe22e4b6	-0.15907559
28	0x3d8deced	0.06929956
29	0xbde1484c	-0.11000118
30	0xbdc4198c	-0.09575185
31	0x3c2cac6a	0.010539154
32	0x3e3ea44d	0.18617363
33	0xbdbc5a80	-0.09196949
34	0x3dcc83eb	0.09986099
35	0xbe08fbaf	-0.1337726
36	0x3aeedd32	0.001822388
37	0x3e1f7c23	0.15574698
38	0xbe046ffb	-0.12933342
39	0xbd47a3f3	-0.04874034
40	0xbcd7dbcc	-0.026349925
41	0xbdd154de	-0.10221265
42	0x3da1cb30	0.07900083
43	0xbdd321be	-0.1030917
44	0xbdb836a2	-0.089947954
45	0x3e0ad769	0.13558735
46	0x3de9111c	0.113802165
47	0xbd97713e	-0.07394646
48	0x3d24624c	0.040132806
49	0xbd1ba3dc	-0.037998065

layers.3.weight f4 [50, 50]
0	0x3e134b96	0.14384302
1	0xbe0203c1	-0.12696745
2	0xbe6414a8	-0.22273505
3	0x3d8dc4be	0.06922291
4	0x3c74872e	0.0149248075
5	0xbc1c4848	-0.009538718
6	0x3db5ecec	0.0888308
7	0x3db5c5d4	0.08875623
8	0xbd84c9cc	-0.06483802
9	0x3d939e5c	0.07207939
10	0x3e0e6075	0.13903983
11	0xbd3301cc	-0.043702886
12	0xbdfa94b2	-0.12235393
13	0x3df54568	0.11976129
14	0x3e30fa3c	0.17282957
15	0xbe425945	-0.18979366
16	0xbe05fd35	-0.13084872
17	0xbc926b1d	-0.017873341
18	0xbdfdfc4d	-0.12401638
19	0xbd2c881d	-0.042121995
20	0x3e2111a6	0.15729389
21	0x3cd3e1c6	0.025864493
22	0x3dd20164	0.102541715
23	0x3d6fa646	0.05850818
24	0x3e1a54fc	0.15071481
25	0x3d48d345	0.049029607
26	0x3de66d2f	0.11251294
27	0x3e313711	0.17306162
28	0xbd237d1f	-0.039914247
29	0x3e4c9b73	0.19981174
30	0xbc63b471	-0.013898001
31	0x3e77c921	0.24197818
32	0xbda94da9	-0.082667656
33	0xbdc3f6ce	-0.09568559
34	0x3dd2be90	0.10290253
35	0xbe174967	-0.14774095
36	0x3d643d8f	0.05572277
37	0x3ecaa870	0.39581633
38	0x3db10f41	0.086454876
39	0xbdcdb906	-0.10045056
40	0xbe488fdb	-0.19586127
41	0xbd9fd41c	-0.078041285
42	0xbe03b6f8	-0.12862766
43	0x3d9b5913	0.07585349
44	0x3ca7f7a9	0.020503836
45	0x3b67b70a	0.0035356903
46	0x3d6eff72	0.05834908
47	0x3da951e7	0.08267575
48	0x3d0bd229	0.03413597
49	0x3dbc06c4	0.09180978
50	0xbd3cf85e	-0.0461353
51	0x3d5fc0a8	0.05462709
52	0x3d60e6d5	0.05490764
53	0x3aa00ffe	0.0012211797
54	0x3e19942e	0.14997932
55	0x3e4a7cc1	0.19774152
56	0x3e3c2553	0.18373613
57	0xbc7d18ba	-0.01544779
58	0xbdb28b76	-0.08718006
59	0x3e3da73c	0.18520826
60	0xbde6fb72	-0.11278428
61	0xbc2f1d2b	-0.0106881065
62	0xbda460cf	-0.08026277
63	0xbd24728f	-0.040148314
64	0x3d75d00a	0.060012855
65	0x3e0ccdb4	0.13750345
66	0xbd7d761e	-0.061880223
67	0xbdce71ae	-0.100802764
68	0x3d758a6b	0.05994646
69	0x3cfa793d	0.030575389
70	0x3d4afbd8	0.049556583
71	0xbdd89674	-0.10575572
72	0xbd9de4ba	-0.07709642
73	0x3e50a89b	0.20376818
74	0x3d8a05dd	0.067393996
75	0xbe15d712	-0.14632824
76	0xbea58fb2	-0.32336193
77	0x3dc26703	0.09492304
78	0xbe07f66b	-0.13277595
79	0xbd692f90	-0.056930125
80	0xbd40894f	-0.047005948
81	0xbe47f3db	-0.19526617
82	0xbe8b89a8	-0.2725346
83	0x3dcbd557	0.09952801
84	0xbe053863	-0.13009791
85	0x3e473fec	0.19457978
86	0xbdfe6a4c	-0.12422618
87	0xbdcb3974	-0.09923068
88	0x3e182ed7	0.14861618
89	0x3db7bc64	0.089714795
90	0xbdcdd58a	-0.10050495
91	0xbd9013b5	-0.07035009
92	0xbe2c97a2	-0.16854718
93	0xbd2a5191	-0.041581694
94	0x3d667bd7	0.056270447
95	0x3e251890	0.16122651
96	0x3e1f3e86	0.15551195
97	0xbd1a12b3	-0.03761549
98	0xbd9389a0	-0.07203984
99	0x3d00872a	0.031378902
100	0x3e3edf1c	0.18639797
101	0x3e01bafe	0.12668988
102	0x3e23db3f	0.16001604
103	0xba2f9383	-0.0006697701
104	0xbdc8aaba	-0.097981885
105	0xbd914677	-0.07093518
106	0x3d626181	0.05526877
107	0xbdd941ac	-0.10608229
108	0xbda4107b	-0.08010956
109	0xbcb580a0	-0.02215606
110	0x3dcc650c	0.09980211
111	0x3d5e3047	0.05424526
112	0x3dc8be35	0.09801904
113	0x3e07aa67	0.13248597
114	0x3ddeba81	0.108754165
115	0x3d953b8f	0.072867505
116	0xbd18727b	-0.037218552
117	0xbd7610e9	-0.06007472
118	0xbd664299	-0.056215856
119	0x3cede7d7	0.029041214
120	0x3e168f50	0.14703107
121	0xbd33e8bc	-0.043923125
122	0x3cb3bcab	0.02194055
123	0xba616046	-0.00085974147
124	0xbd19d769	-0.037558947
125	0xbd43b9cb	-0.047784608
126	0xbc01d9af	-0.007925435
127	0xbd9ef05d	-0.077606894
128	0xbc3a11d2	-0.011356788
129	0xbd6d08df	-0.05786979
130	0x3da924aa	0.08258946
131	0x3c60d092	0.013721602
132	0xbcd3f061	-0.025871458
133	0xbd2eec48	-0.042705804
134	0xbcbe46a4	-0.023227043
135	0x3da217a8	0.07914668
136	0x3da50cbc	0.080590695
137	0xbc44819f	-0.011993795
138	0x3ea651f8	0.32484412
139	0x3c4db306	0.01255489
140	0x3d990f95	0.07473675
141	0xbd5c44da	-0.0537766
142	0xbdf89c6d	-0.12139211
143	0xbe0ba906	-0.13638696
144	0xbd411f09	-0.047148738
145	0x3de706ff	0.11280631
146	0x3dadd73f	0.084883206
147	0x3d30874d	0.043097783
148	0x3daaffbf	0.08349561
149	0xbdc294e9	-0.095010586
150	0xbe05499a	-0.13016358
151	0x3c8c87a6	0.017154526
152	0xbda1f750	-0.07908499
153	0xbe03bd83	-0.12865262
154	0xbdd2ee02	-0.10299303
155	0x3d2f7ed3	0.04284556
156	0xbdba5603	-0.09098437
157	0xbce679a6	-0.028134178
158	0x3da25d90	0.07928002
159	0x3e064c18	0.13114965
160	0xbddcea62	-0.107868925
161	0xbd19d8c9	-0.037560258
162	0x3db2725f	0.08713221
163	0x3d001c31	0.031276885
164	0xbed3e19f	-0.41383073
165	0x3db83901	0.08995248
166	0xbda83459	-0.082131095
167	0x3dded2a3	0.108800195
168	0x3d6f3f79	0.05841014
169	0x3d7eae51	0.06217796
170	0x3dd90452	0.10596527
171	0x3d5508e7	0.052010443
172	0x3c45866c	0.012055974
173	0xbdd21836	-0.10258524
174	0x3e27daf3	0.16392116
175	0xbd2e4b4a	-0.04255227
176	0x3e01aaab	0.12662761
177	0x3df9d81b	0.12199422
178	0xbbab4e38	-0.0052278303
179	0xbceac2fe	-0.028657433
180	0x3b05f107	0.0020437853
181	0x3e49607d	0.19665714
182	0x3e1ba660	0.15200186
183	0x3dcc975b	0.09989806
184	0xbe009475	-0.12556632
185	0xbdcc81fc	-0.0998573
186	0xbe159c71	-0.14610459
187	0x3e52baae	0.20579025
188	0xbe8b1180	-0.2716179
189	0x3d27e7b7	0.040992465
190	0xbd605891	-0.054771964
191	0xbd190c35	-0.037365157
192	0xbbc3f07b	-0.0059795952
193	0xbdd57ce1	-0.104242094
194	0xbc859933	-0.016308403
195	0x3d4282aa	0.047487892
196	0x3dd8e021	0.10589624
197	0x3d6a104d	0.057144452
198	0x3d1f882f	0.038948234
199	0x3d9658d0	0.073411584
200	0x3e23c395	0.15992577
201	0x3c599ee5	0.013282512
202	0x3e3db55e	0.18526217
203	0xbdad45a2	-0.08460547
204	0x3d938b92	0.07204355
205	0x3c59d3a3	0.013295087
206	0x3e3413b3	0.1758564
207	0xbdce42d5	-0.10071341
208	0x3d697e88	0.057005435
209	0xbe393e08	-0.1809007
210	0xbd86e472	-0.06586541
211	0xbc101cba	-0.008795911
212	0xbd41e225	-0.04733481
213	0xbd3700b5	-0.04467841
214	0x3d495848	0.049156457
215	0xbd9d01fa	-0.076663926
216	0xbcec52d2	-0.028848086
217	0x3e1217e6	0.14266929
218	0xbcd45b61	-0.02592248
219	0xbdbe2ce2	-0.092859045
220	0x3bd050f7	0.006357308
221	0xbde4cec3	-0.11172249
222	0xbd5377a7	-0.05162778
223	0x3e43aa85	0.19108017
224	0xbde9d2c6	-0.11417155
225	0x3da21109	0.079134054
226	0x3e16e8ac	0.14737195
227	0x3e01cc46	0.1267558
228	0xbd71fc92	-0.05907876
229	0xbbffd8f8	-0.007807847
230	0x3dafc1ee	0.08581911
231	0xbdf9a33a	-0.12189336
232	0x3e15a628	0.14614165
233	0xbc2613e5	-0.010136579
234	0xbdea6c3a	-0.11446424
235	0xbabcf58f	-0.0014416444
236	0x3d17fd47	0.03710678
237	0xbd2f7a77	-0.0428414
238	0x3e55a370	0.20863128
239	0xbc6e42c0	-0.014542282
240	0x3de41aeb	0.11137947
241	0x3d834ce3	0.06411149
242	0xbdeb5f27	-0.11492758
243	0xbc14a75b	-0.009073104
244	0x3d0f4809	0.034980807
245	0x3e0a89ef	0.1352918
246	0x3db39652	0.08768906
247	0x3dc51205	0.096225776
248	0x3d8d2b42	0.068930164
249	0xbc625321	-0.013813765
250	0xbd29cb42	-0.041453607
251	0xbd70a372	-0.058749624
252	0x3d163f97	0.036681738
253	0xbcf27f62	-0.029601756
254	0x3e030e74	0.12798482
255	0xbdcc2bbd	-0.0996928

layers.3.bias f4 [50]
0	0xbdaeee5a	-0.08541556
1	0xbe76c176	-0.24097237
2	0x3db4ef62	0.08834721
3	0xbd014123	-0.03155626
4	0x3dd4765b	0.10374137
5	0xbd2b1b00	-0.041773796
6	0xbdbaabc5	-0.09114794
7	0xbd840cfc	-0.06447789
8	0xbd268727	-0.040656235
9	0x3c6c5187	0.0144237345
10	0x3ca4e324	0.02012784
11	0xbe0d00e8	-0.13769877
12	0xbe1c459c	-0.15260929
13	0x3dff30d1	0.12460483
14	0x3d4f2de0	0.05058086
15	0xbb8873f1	-0.004164212
16	0x3dfe0f4a	0.1240526
17	0x3b26403e	0.0025367881
18	0x3cfdcd85	0.030981788
19	0xbdce268c	-0.10065946
20	0xbd9c2772	-0.07624711
21	0x3d88be24	0.066768914
22	0xbc427cd0	-0.011870578
23	0x3c77e51f	0.01513031
24	0x3b8ed995	0.004359434
25	0x3d92f8ad	0.071763374
26	0x3e07aed1	0.13250281
27	0x3de3f435	0.11130563
28	0xbd708572	-0.058721013
29	0xbd549c7b	-0.051907044
30	0xbd05240d	-0.032505084
31	0xbcc58a1b	-0.024113705
32	0xbcb33313	-0.02187494
33	0x3a05a956	0.00050987804
34	0x3e106e8a	0.14104667
35	0xbdbdb5b4	-0.09263173
36	0x3e26c7b6	0.16287121
37	0x3dae5af7	0.08513444
38	0x3e29f9dd	0.16599222
39	0x3e0ac901	0.1355324
40	0x3d9c6fd7	0.07638519
41	0xbdeca274	-0.11554423
42	0x3deeb9c1	0.116565235
43	0xbdb8b1d1	-0.09018291
44	0x3db1896d	0.0866879
45	0x3e458ed7	0.1929277
46	0x3d76d172	0.060258336
47	0xbbd12497	-0.0063825357
48	0xbd52716a	-0.05137769
49	0xbe38052d	-0.17970724

layers.4.weight f4 [402, 50]
0	0xbd76a92d	-0.060219932
1	0xbd9cacc9	-0.07650144
2	0x3ca4431c	0.020051531
3	0xbdf57923	-0.119859956
4	0x3cda8740	0.02667582
5	0xbcf06b85	-0.029348144
6	0xbdc1b43a	-0.094582036
7	0xbdbe389e	-0.092881426
8	0x3da34f58	0.07974118
9	0xbd866571	-0.06562317
10	0xba5e0151	-0.0008468824
11	0x3dede61a	0.11616154
12	0x3de20bb2	0.11037387
13	0xbdd71b87	-0.10503297
14	0x3e8b7bdc	0.27242935
15	0xbc019961	-0.007910104
16	0xbe16251b	-0.14662592
17	0x3d9a9f96	0.0754997
18	0x3e02559d	0.12727971
19	0x3d807fa2	0.06274344
20	0xbe2a01da	-0.16602269
21	0x3da2f8df	0.07957625
22	0x3ddbb37f	0.107275955
23	0x3db9d91a	0.09074612
24	0xbe2a95cb	-0.16658704
25	0xbd4e7918	-0.050408453
26	0x3cd45b48	0.025922433
27	0x3c784c95	0.015154977
28	0xbd53c505	-0.051701564
29	0xbdfecc60	-0.12441325
30	0xbc76f2b9	-0.015072518
31	0x3de385f4	0.11109534
32	0x3e010642	0.12600043
33	0x3c99ea12	0.018788371
34	0xbd9ea192	-0.07745661
35	0x3d278daf	0.040906604
36	0x3dcab007	0.09896856
37	0xbd7250fa	-0.059159257
38	0xba1baa4d	-0.00059381576
39	0x3c9bab04	0.019002445
40	0xbbaeca86	-0.0053342013
41	0xbdf06000	-0.117370605
42	0xbd4a490f	-0.04938608
43	0xbdbc05c3	-0.091807865
44	0xbd5d44b2	-0.05402059
45	0xbc78a87e	-0.01517689
46	0x3c853d10	0.016264468
47	0x3e3826bc	0.17983526
48	0xbc77b4e1	-0.0151188085
49	0x3c2d8ef4	0.010593165
50	0xbd271b9b	-0.04079781
51	0xbd9e275f	-0.07722353
52	0x3dd11c9a	0.102105334
53	0xbe0074f5	-0.12544616
54	0xbc3307c5	-0.010927145
55	0x3dd7cf12	0.105375424
56	0xbe0ba5c9	-0.13637461
57	0xbd387db5	-0.04504176
58	0x3d888f5c	0.06667969
59	0x3dfdde7d	0.12395952
60	0xbcf390e6	-0.029732179
61	0x3bab695a	0.0052310647
62	0xbd9b80b2	-0.07592906
63	0x3b24205d	0.0025043704
64	0x3e3950d7	0.18097244
65	0x3dba8863	0.09108045
66	0xbcc055bf	-0.023478387
67	0xbd5d7a7b	-0.054071885
68	0x3d3cea86	0.046122096
69	0xbdcc287e	-0.09968661
70	0xbddc768b	-0.10764798
71	0x3d9eb7df	0.077499144
72	0xbc16aea1	-0.009196908
73	0xbe17f2f1	-0.14838769
74	0xbc80de1a	-0.015730906
75	0x3caf5206	0.021401417
76	0x3d859197	0.0652191
77	0x3c106f51	0.008815602
78	0xbcdfe4e6	-0.027330827
79	0x3d8ec636	0.069713995
80	0x3da07eb0	0.07836664
81	0xbdd1ba98	-0.10240668
82	0x3e05955c	0.13045257
83	0x3cf8f1b9	0.0303887
84	0x3e190783	0.14944272
85	0x3df0b28b	0.11752804
86	0xbd44de69	-0.04806367
87	0x3c91a10a	0.017776985
88	0x3c88af71	0.01668522
89	0xbdc05ee0	-0.09393096
90	0xbd9f6e7e	-0.077847466
91	0xbe18c4e5	-0.1491886
92	0x3c4e3f3a	0.012588317
93	0xbd31493b	-0.04328273
94	0x3d7253a6	0.059161805
95	0xbe0ec4dc	-0.13942283
96	0x3e0e12bc	0.13874334
97	0x3d38b691	0.045095984
98	0x3d1a149d	0.037617315
99	0xbd8cd210	-0.06876004
100	0x3b98c4e3	0.0046621426
101	0xbd2431f8	-0.040086716
102	0xbd3f1300	-0.04664898
103	0xbdda7c58	-0.10668248
104	0xbd19f0c1	-0.037583116
105	0xbcce253a	-0.025164235
106	0xbda37892	-0.07981981
107	0x3c844db1	0.016150327
108	0x3d4d9f6f	0.050200876
109	0xbd90559c	-0.07047579
110	0xbe0054e9	-0.1253239
111	0xbb729389	-0.0037014207
112	0xbcd81546	-0.026377331
113	0xbe015246	-0.12629041
114	0x3e4e5652	0.20150116
115	0xbe0a3e41	-0.1350031
116	0x3de02aac	0.10945639
117	0xbc57c4cd	-0.01316948
118	0xbde95d5f	-0.11394762
119	0xbddeac3d	-0.108726956
120	0xbe0048fa	-0.12527838
121	0x3e0d9bb6	0.1382893
122	0x3e0ba627	0.13637601
123	0x3d0c1f32	0.034209438
124	0x3d8bbad0	0.06822741
125	0x3dac309a	0.084077075
126	0x3c302e42	0.010753216
127	0x3d97f4eb	0.07419761
128	0xbc1a828b	-0.009430538
129	0xbb1378c1	-0.0022502395
130	0x3d50c2e2	0.050967105
131	0xbb781bdd	-0.0037858405
132	0xbd79a012	-0.06094367
133	0x3d5f5e0c	0.05453305
134	0x3dd00909	0.10157973
135	0x3db0052d	0.08594737
136	0x3ddde705	0.10835079
137	0x3da6f707	0.081525855
138	0x3cf97d33	0.030455207
139	0xbdb283dd	-0.08716557
140	0x3d1b5496	0.037922464
141	0x3d87b627	0.0662654
142	0xbdfc24a5	-0.12311677
143	0xbdb0efe2	-0.08639504
144	0xbe0f837b	-0.14015
145	0xbe00e1a5	-0.12586077
146	0x3e2186a2	0.15774015
147	0x3dd98489	0.10620982
148	0x3d9184ac	0.07105383
149	0xbd99bfd7	-0.07507294
150	0xbb8c224c	-0.0042765494
151	0xbcd19b10	-0.025586635
152	0x3d1facb1	0.03898305
153	0xbe14a466	-0.14515838
154	0x3e2ef30d	0.17084904
155	0x3d9e195c	0.07719681
156	0xbe1204cd	-0.14259644
157	0xbd95aa34	-0.07307854
158	0xbcca3327	-0.024682594
159	0xbd7044c4	-0.05865933
160	0xbe143687	-0.14473926
161	0xbc376973	-0.011194575
162	0xbc66b60e	-0.014081491
163	0xbdca2d1e	-0.09871887
164	0x3e2d2bf5	0.169113
165	0x3cabc703	0.02096892
166	0xbcfa0e12	-0.030524287
167	0x3d3aab41	0.045573477
168	0xbdd792db	-0.10526057
169	0x3de5a6cc	0.112134546
170	0xbe07807f	-0.13232611
171	0x3da796a8	0.08183032
172	0x3d14e99a	0.036355592
173	0xbdf972ed	-0.121801235
174	0xbe0e20d2	-0.13879707
175	0xbda51300	-0.080602646
176	0xbd56a90e	-0.052407317
177	0x3d3aa6ec	0.045569345
178	0xbc902e57	-0.017600222
179	0xbdb77ec0	-0.089597225
180	0x3d881279	0.066441484
181	0xbcc72c84	-0.024313219
182	0x3dd42742	0.1035905
183	0xbb96dec2	-0.0046041915
184	0x3e21bb3d	0.15794082
185	0x3d18c2f7	0.037295308
186	0xbc1cce60	-0.009570688
187	0x3cda544b	0.026651522
188	0x3dcd869f	0.100354426
189	0x3da2c021	0.07946802
190	0x3d551a5b	0.052027088
191	0x3dcaee19	0.09908695
192	0x3d5a08be	0.053230993
193	0x3deac8d2	0.11464085
194	0xbda5d7e8	-0.080978215
195	0xbd999db9	-0.07500786
196	0x3d864d4d	0.06557713
197	0x3df43873	0.11924829
198	0xbd2470ff	-0.040146824
199	0x3c8c212f	0.017105667
200	0x3d900c24	0.07033566
201	0xbd49a944	-0.04923369
202	0x3df64b6a	0.12026103
203	0xbdb78ea5	-0.08962754
204	0x3cbb3a79	0.02285503
205	0x3defeb51	0.11714805
206	0xbe0f9de3	-0.14025073
207	0xbda3e902	-0.08003427
208	0xbd80767c	-0.06272599
209	0x3d5dc314	0.05414112
210	0xbd24c71a	-0.04022894
211	0xbe01c78f	-0.12673782
212	0x3d79979d	0.060935605
213	0x3de2bc9b	0.1107113
214	0x3dede2e5	0.11615542
215	0x3dd4925b	0.103794776
216	0xbdd560d6	-0.104188606
217	0x3c9eff4b	0.019408843
218	0xbce8668b	-0.028369209
219	0x3d0e03a6	0.03467145
220	0xbb15a545	-0.0022834104
221	0x3c7cce1f	0.0154300025
222	0x3ceb58a5	0.028728792
223	0xbe014c63	-0.12626795
224	0xbd2bae89	-0.041914497
225	0x3d065ea0	0.032805085
226	0xbdf2f5b7	-0.11863273
227	0xbdf8c4b5	-0.12146894
228	0xbcbb7dba	-0.0228871
229	0xbdb9599a	-0.09050293
230	0xbd9aaf56	-0.07552974
231	0x3db6a73d	0.08918617
232	0xbd8d82b1	-0.06909693
233	0x397a7812	0.00023886588
234	0x3c947499	0.018122004
235	0x3dbad256	0.0912215
236	0x3d185511	0.0371905
237	0xbe0b9b90	-0.13633561
238	0xbd399f4f	-0.045317944
239	0xbdc375a4	-0.095439225
240	0x3bf6d8de	0.007533177
241	0x3d8ed552	0.06974281
242	0xbcd8f2fa	-0.026483048
243	0xbb2da5c5	-0.0026496511
244	0xbe1c5554	-0.15266925
245	0x3d19cab1	0.037546817
246	0x3dbca8e2	0.09211899
247	0xbbc97f2d	-0.0061491937
248	0xbc06ef02	-0.008235695
249	0xbe0c53fd	-0.13703914
250	0xbd9c52c4	-0.07632974
251	0xbd080d90	-0.03321606
252	0x3cd09d07	0.025465501
253	0x3c989b2e	0.018628683
254	0x3d5367cb	0.051612657
255	0xbd3ed4ee	-0.046589784

layers.4.bias f4 [402]
0	0x3d84c0b6	0.06482069
1	0xbd9af571	-0.075663455
2	0xbd97c746	-0.07411055
3	0xbde1dde1	-0.11028648
4	0x3d90b4b6	0.07065718
5	0xbdeb0a8f	-0.11476623
6	0xbd50d837	-0.05098745
7	0x3dd3adbf	0.10335874
8	0x3d8ec532	0.06971206
9	0xbca83cb2	-0.020536754
10	0x3d6f5818	0.058433622
11	0x3c71f4a1	0.014767797
12	0x3cb7c184	0.022431143
13	0xbc909e52	-0.017653618
14	0x3d0e97f1	0.03481287
15	0x3dd38fc7	0.10330158
16	0xbdfc83b3	-0.12329807
17	0xbe17087d	-0.14749332
18	0xbe050d13	-0.12993269
19	0xbd83c9b6	-0.06434958
20	0xbda275bf	-0.079326145
21	0xbc613ca3	-0.013747367
22	0x3d768a9d	0.060190786
23	0x3dbde832	0.09272803
24	0x3d330f58	0.043715805
25	0x3dcb6d7c	0.09932992
26	0x3da94371	0.082648166
27	0xbe17e579	-0.1483363
28	0x3d61e738	0.055152148
29	0x3dd16cdc	0.102258414
30	0x3c98b1b1	0.018639417
31	0xbdfb737d	-0.12277887
32	0xbda0f30b	-0.07858857
33	0x3cb2ec3e	0.021841165
34	0x3db66bc4	0.089072734
35	0x3d638df0	0.055555284
36	0xbe00bbbd	-0.12571616
37	0xbda2ae6e	-0.07943426
38	0x3e185efb	0.14879982
39	0xbd035332	-0.032061763
40	0xbc9c350c	-0.019068263
41	0xbdd8ab68	-0.10579568
42	0x3ddbc416	0.1073076
43	0x3d24f325	0.040270943
44	0x3da78e9e	0.08181499
45	0x3de942ba	0.1138968
46	0x3d85ee74	0.06539622
47	0xbd000f83	-0.031264793
48	0x3e0fd1a5	0.14044817
49	0xbdc3bc31	-0.09557379
50	0xbd630187	-0.05542138
51	0x3dfbe1fb	0.12298962
52	0x3d3403e9	0.04394904
53	0x3dc00407	0.09375768
54	0xbd686c14	-0.056743696
55	0x3da57933	0.080797575
56	0x3e25bfe6	0.16186485
57	0x3d8d779d	0.0690758
58	0x3d86fe49	0.0659147
59	0x3d9bc830	0.07606542
60	0xbc903224	-0.017602034
61	0x3e2a5362	0.1663337
62	0xbda5eae8	-0.081014454
63	0x3df462ce	0.11932908
64	0xbd306413	-0.04306419
65	0x3c6eb88f	0.014570369
66	0x3cc19800	0.02363205
67	0x3dfcfcfd	0.12352941
68	0x3e089b85	0.13340576
69	0x3dc60d28	0.09670478
70	0xbcf89075	-0.03034232
71	0x3de38f40	0.11111307
72	0x3dd5c8f0	0.104387164
73	0x3e04e299	0.12977065
74	0x3da26b5a	0.07930632
75	0x3d32248c	0.043491885
76	0x3d8e926c	0.069615215
77	0x3e0cb976	0.13742623
78	0xbd5071c7	-0.050889757
79	0xbd22d590	-0.03975445
80	0xbcbc7483	-0.023004776
81	0x3e02a362	0.12757638
82	0x3debb910	0.11509907
83	0x3dd568cf	0.10420381
84	0x3d1cdfcc	0.038299367
85	0xbda0cdbd	-0.078517415
86	0xbae14428	-0.001718645
87	0xbc8bc77c	-0.017062895
88	0x3e09e763	0.13467173
89	0x3d8f9305	0.070104636
90	0xbd89feed	-0.06738076
91	0xbceddca2	-0.02903587
92	0x3d61f209	0.055162463
93	0xbdad0630	-0.08448446
94	0x3e0374d6	0.12837538
95	0x3d81c40b	0.0633622
96	0xbd470148	-0.048585206
97	0x3da0ebaf	0.07857453
98	0x3e12ba63	0.14328913
99	0xbde0417b	-0.109499894
100	0x3c09167e	0.008367179
101	0xbdc1f7dc	-0.094711035
102	0xbdf7f07c	-0.12106416
103	0xbbe8d587	-0.0071055326
104	0x3db6c25c	0.0892379
105	0xbda0ec57	-0.07857578
106	0x3d9b3a59	0.07579488
107	0xbca68f57	-0.020332022
108	0x3d431db9	0.047635768
109	0xbd7bbd15	-0.06145962
110	0xbe0456de	-0.12923762
111	0xbdee0fc5	-0.116241015
112	0xbd3fae91	-0.04679734
113	0x3dc43610	0.09580624
114	0xbdd13925	-0.102159776
115	0x3dab779c	0.08372423
116	0xbc5ea0d9	-0.013588154
117	0xbe186915	-0.14883836
118	0xbd28eae0	-0.04123962
119	0x3cfa4456	0.030550163
120	0x3d4220e5	0.047394652
121	0xbe251384	-0.16120726
122	0xbd8695e5	-0.06571559
123	0xbc94fc7d	-0.018186802
124	0x3cbeb129	0.023277836
125	0xbc947971	-0.018124314
126	0xbdd1046d	-0.10205922
127	0xbd73a4b1	-0.059483234
128	0xbdd05bc0	-0.1017375
129	0xbd99204d	-0.07476864
130	0xbd255843	-0.040367376
131	0xbd9503ac	-0.07276091
132	0xbdf0b91e	-0.11754058
133	0x3bbf170d	0.0058316053
134	0x3dc2b3bc	0.09506938
135	0xbda9c1b1	-0.08288897
136	0x3e0090ff	0.12555312
137	0x3d3ddc79	0.046352837
138	0x3ddce15e	0.10785173
139	0x3d050102	0.032471664
140	0xbcba1db4	-0.022719242
141	0x3c6d2044	0.014473025
142	0x3ba3a449	0.0049939496
143	0xbda875fa	-0.08225627
144	0x3d2da156	0.04239019
145	0x3d83c66c	0.0643433
146	0x3c1c637d	0.009545204
147	0xbd91a10f	-0.071107976
148	0xbd352c26	-0.044231556
149	0xbda800d9	-0.08203287
150	0x3dea13f6	0.114295885
151	0xbd66441a	-0.05621729
152	0x3dc3a8c2	0.095536724
153	0x3d8e8f56	0.06960933
154	0x3d013829	0.0315477
155	0x3d8c7ae6	0.068593785
156	0x3db8afd0	0.090179086
157	0x3dc8b3cd	0.09799919
158	0xbda1b0ac	-0.078950256
159	0x3e241f5c	0.16027588
160	0x3e087153	0.1332448
161	0xbb52b241	-0.0032149705
162	0x3db2e054	0.087341934
163	0x3d9bac04	0.07601169
164	0xbd1eb2db	-0.03874479
165	0x3ddf6d50	0.109095216
166	0x3e119e49	0.14220537
167	0xbc63e3c5	-0.013909285
168	0xbb0691fc	-0.002053379
169	0x3e27c7ce	0.16384813
170	0x3cdb8f7a	0.026801813
171	0xbd848755	-0.06471125
172	0xbcd85185	-0.026406059
173	0x3e122da4	0.14275223
174	0x3e24d7eb	0.16097991
175	0x3cb67b4f	0.022275595
176	0x3c884586	0.016634714
177	0x3dca25ce	0.09870492
178	0xbd8585df	-0.065196745
179	0x3e3098f5	0.17245848
180	0xbd88f6d7	-0.06687706
181	0xbb225e34	-0.0024775388
182	0x3cf3b87e	0.029751059
183	0x3de12974	0.10994235
184	0xbd2feb99	-0.042949293
185	0x3c595370	0.013264522
186	0x3d21d9ac	0.03951423
187	0x3ce9099f	0.02844697
188	0x3de8303b	0.11337324
189	0x3df81057	0.121124916
190	0x3dc1a752	0.09455742
191	0xbbed355a	-0.007239026
192	0x3e293ad6	0.1652635
193	0x3d405d58	0.04696402
194	0x3d0be04c	0.034149453
195	0x3e0c5663	0.13704829
196	0x3e39e541	0.1815386
197	0x3c4545ef	0.012040599
198	0xbc8281f1	-0.015931102
199	0xbaf09122	-0.00183538
200	0x3d2fcd92	0.042920657
201	0x3dfda984	0.12385848
202	0x3dfe5d65	0.12420157
203	0x3dec46f7	0.11536973
204	0xbd6c4067	-0.057678606
205	0x3dcd2747	0.10017257
206	0xbcf6e463	-0.0301382
207	0xbc0fcbb1	-0.008776591
208	0x3d58ce17	0.052930918
209	0x3d4b77e4	0.049674883
210	0x3deeab64	0.11653784
211	0x3df3522d	0.11880908
212	0x3cd7ce4c	0.026343487
213	0xbde21c7e	-0.11040591
214	0xbcae32ba	-0.021264423
215	0x3db1503e	0.08657883
216	0xbd91bdb6	-0.071162626
217	0x3c838a57	0.016057177
218	0x3d80d682	0.06290914
219	0x3e1d8af7	0.15385042
220	0xbc857aea	-0.016293962
221	0x3cd6a44b	0.026201388
222	0x3d0858f0	0.033287942
223	0x3db69ae3	0.08916261
224	0x3d2c963f	0.042135473
225	0x3dce3c23	0.10070064
226	0xbcc9a2d0	-0.024613768
227	0x3dd2976f	0.1028279
228	0x3c3a55a5	0.011372958
229	0xbd235da2	-0.039884217
230	0x3e0db269	0.1383759
231	0x3df8ea0c	0.12154016
232	0xbc2903c8	-0.010315843
233	0x3dc597c8	0.096480906
234	0xbd9114b1	-0.07084025
235	0x3de80ac2	0.11330177
236	0x3c9bd543	0.01902259
237	0xbd7ffa65	-0.062494654
238	0x3dd89991	0.105761655
239	0xbcd31b36	-0.025769811
240	0x3da78080	0.08178806
241	0xbd025b6b	-0.031825464
242	0x3d5681b2	0.05236978
243	0x3dc15e1f	0.0944178
244	0x3d832009	0.064025946
245	0x3c9ec2b4	0.019379951
246	0x3dcac988	0.0990172
247	0x3d768865	0.06018867
248	0x3c9d5924	0.019207545
249	0x3d8d3122	0.06894137
250	0x3dbc01fa	0.091800645
251	0x3dffe1d8	0.12494248
252	0xbde53be8	-0.11193067
253	0x3dbaeee0	0.09127593
254	0xbc8ed26b	-0.01743432
255	0xbcb0dbb1	-0.021589132
