DRL_py_beta/model/trained_model/best_model_train_0.0001_n_history30_neurons128_layers5.pt (torch, 737491 bytes, 12 tensors)

_model.layers.0.weight f4 [128, 510]
000000 00 a8 13 3d 98 d0 56 bc 8a f3 c4 bd 8d d3 44 3d
       0.03604889 -0.013111256 -0.09616764 0.048053313
000010 cb 35 e6 bc 0b d1 61 bd 1c 72 9d bc 24 ed 92 bd
       -0.028101822 -0.055131 -0.01921945 -0.07174137
000020 8f b7 86 bd 62 25 0c bd e8 36 27 be 88 f2 c7 bc
       -0.0657798 -0.03421534 -0.16329539 -0.02440764
000030 38 e7 f5 3d 93 41 c0 3d 0e c1 67 3d 0b 60 14 bc
       0.12006992 0.09387507 0.056580596 -0.009056102
000040 a7 25 e9 bb bf 59 ce 3b 2e c7 3c bd cf d4 97 bd
       -0.007115084 0.0062973197 -0.04608839 -0.07413637
000050 5a 2a 24 3d be 9b 81 bd 88 49 79 bd fc 68 0e bd
       0.040079452 -0.063285336 -0.06086114 -0.03476809
000060 95 0c d1 bc 58 7c 82 bb 4a a5 2c 3e 45 ea b7 bd
       -0.025518695 -0.003982108 0.16859928 -0.0898023
000070 2b c5 31 3d 57 82 0c 3e 8f 13 91 3d 4c 83 94 3d
       0.043400925 0.13721596 0.07083809 0.072516054
000080 f2 ad 48 bc fc 12 90 bc 47 c3 4f 3a a8 74 37 3d
       -0.012248503 -0.017587177 0.0007925522 0.044788986
000090 01 2d bd bd a3 28 46 b9 2e 45 c7 bd 10 ba 0c 3e
       -0.092370994 -0.0001889789 -0.09729992 0.13742852
0000a0 8f 4b 09 3d 3e 0d a0 3c 4d 14 b8 3a 27 be 48 be
       0.033519324 0.019537564 0.0014044136 -0.19603787
0000b0 15 20 ad bd ac b0 d4 3d 53 9c d5 3d 2b 8a 89 3d
       -0.08453385 0.1038526 0.10430207 0.067158066
0000c0 6a ee 8d 3d ac 8c 61 bc 60 8e 85 bc 2a 44 16 bd
       0.069302395 -0.013766449 -0.016303241 -0.0366861
0000d0 6a 60 3b 3b d6 9c 82 bd b6 34 3d bd c3 5c 1f bd
       0.0028591403 -0.0637757 -0.046192847 -0.038906824
0000e0 fc 6e 66 3e ff 63 3c 3d c7 1c cc bc 8e e4 03 bb
       0.22503275 0.0459938 -0.024916066 -0.0020125243
0000f0 8a 82 3d be 83 34 92 bd a2 dd 02 3e 0f b0 a0 3d
       -0.18506828 -0.07138922 0.12779859 0.078460805
000100 6f 1e 19 3d bd bf 37 3d dc 3b af 3b 88 86 29 bc
       0.03738254 0.04486059 0.005347712 -0.010347016
000110 67 f2 08 bc df ac f3 3c 4d ef 64 bd 51 e7 41 bc
       -0.0083585745 0.029745517 -0.055892278 -0.011834935
000120 bf aa 9f bd f4 d2 60 3e 62 96 bc 3d 4a 19 02 bd
       -0.07796239 0.21955472 0.09208371 -0.0317624
000130 ef c5 d2 bc 69 01 df bd 02 b8 99 bd bc 54 0a 3e
       -0.025729148 -0.10888941 -0.075058 0.13508886
000140 b5 37 cc 3d 10 ce 98 3a c3 73 ac 3d bc 37 5b 3c
       0.09971563 0.0011658091 0.08420517 0.013379987
000150 ef 79 4c bb 15 e7 bc 3c f4 ad 0d 3c 30 9e 98 3c
       -0.0031200608 0.023059407 0.008647431 0.018630117
000160 19 ae 56 bd e0 4e 9d bd c0 b6 5d 3e 6a 03 a1 3d
       -0.052412126 -0.0768106 0.21651745 0.07861979
000170 7b ba 13 3d 0a f1 8c bd 7f 15 18 be 90 e1 c8 bc
       0.036066514 -0.06881912 -0.1485195 -0.02452162
000180 5e f1 e8 3d 72 d0 25 3d f9 66 40 bd 76 2f 0b 3c
       0.11374162 0.040481992 -0.046973202 0.008495202
000190 20 55 0f 3d 96 b3 e9 3b fe 7f e7 3c aa e3 4b 3c
       0.03499329 0.007132004 0.028259274 0.012444416
0001a0 da de 71 bc 63 55 09 be af fd 9e bd d1 15 35 3e
       -0.014762605 -0.13411479 -0.0776323 0.17684104
0001b0 ec 9d 09 3d 7b e4 3f bd b1 f2 f2 3b e5 10 b9 bd
       0.03359787 -0.046848755 0.007414185 -0.090364255
0001c0 35 aa e1 bc bb 91 cd 3d 4e 21 1d 3d 14 ea de bd
       -0.027546981 0.100375615 0.03836184 -0.108844906
0001d0 05 68 87 bb f4 7b 83 3d 75 10 69 3c dd f9 94 3d
       -0.004132273 0.064201266 0.014225115 0.0727422
0001e0 12 4e 6f 3d c8 43 09 bd 42 6d ca bd 6c 83 87 bd
       0.058424063 -0.033511907 -0.098841205 -0.066168636
0001f0 db 72 15 3e a5 0b f5 3c 30 ab a4 bc 13 ed 3a bc
       0.14594595 0.02991278 -0.02010116 -0.011409062
000200 ef cf f9 bb 77 5c 82 bd 86 bf 12 3e e8 13 bd 3b
       -0.0076236646 -0.063652925 0.14330873 0.0057701953
000210 45 02 41 bd 06 04 44 3d e5 1e 64 3d e3 bc aa 3c
       -0.047121305 0.0478554 0.055693526 0.020842021
000220 08 67 95 3c f8 1c e2 3c 93 79 ac bc 2f 4d 11 be
       0.018237606 0.027601704 -0.021054065 -0.141896
000230 15 87 cd bd 7f 16 7d 3d 0f 8a b4 3c 32 58 5b bd
       -0.100355305 0.061789032 0.022038488 -0.053550906
000240 f2 5d b0 bb fd 32 e5 bc 4c 8f 4d bc 3f 42 ec 3d
       -0.005382293 -0.027978415 -0.012546372 0.11536073
000250 23 a5 a8 bc 46 de ae bd c5 37 69 3d 7b fc e9 3c
       -0.020586556 -0.08538489 0.05693795 0.028562775
000260 ea 4b e6 3c ea 86 91 3d 86 4d ed 3c b6 ad 68 bd
       0.02811237 0.07105811 0.02896763 -0.05680629
000270 d3 5f 9c bd 0e b7 8a bd af 69 b0 3c bd b9 8d 3c
       -0.076354645 -0.06773196 0.021534769 0.017300481
000280 96 01 89 bd b3 a9 06 bb ea cc 82 3d ca ed d8 bc
       -0.066897556 -0.0020547926 0.063867405 -0.026480574
000290 ff 45 9a 3d 97 83 80 3d 42 e6 3d bd e7 f0 ef 3c
       0.07532882 0.06275099 -0.04636217 0.029289676
0002a0 24 c6 15 bd b8 51 0d 3d b4 83 20 3d 45 0b f9 bc
       -0.036565915 0.03450176 0.039188102 -0.030400882
0002b0 7d b1 fb bc aa a3 18 be c0 37 bf bd 0f d1 14 bd
       -0.030724281 -0.14906183 -0.09336805 -0.036332186
0002c0 81 91 b5 bc 40 8e 90 bc 73 c7 51 bd a6 89 3e 3d
       -0.022164108 -0.017645955 -0.0512156 0.04651799
0002d0 2c 2d c7 bc 08 3e 79 3d 08 8d e3 bc 73 a5 ad bd
       -0.024313532 0.060850173 -0.02777721 -0.084788226
0002e0 f3 bf 5e 3d ba 7d 2c bd 7c 65 2c 3d f2 de 9e 3d
       0.054382276 -0.04211209 0.04208897 0.07757367
0002f0 99 43 9f 3c 14 a4 e7 bd 7b fa 60 bd 9f 21 72 bd
       0.019441413 -0.11310592 -0.054926377 -0.059114095
000300 7e 99 c7 bd 68 6c 40 bc e6 39 a5 bd 01 bf b8 bc
       -0.09746073 -0.011744596 -0.08067684 -0.022552015
000310 3d 2f 88 3d 8e a1 4e bc 13 e9 4d 3d a8 7d 08 b9
       0.06649635 -0.01261176 0.050271105 -0.00013016781
000320 92 c3 2d be 8a 88 d6 bc 4d 49 94 bd ef 79 3c 3d
       -0.16969135 -0.026188154 -0.072405435 0.046014722
000330 e0 b0 e3 3d db 2f 21 bd 86 77 91 bd 3c 00 03 bd
       0.111177206 -0.03935228 -0.071028754 -0.031982645
000340 66 62 d3 3b d5 cc 6a bd b9 36 a1 bd 70 a5 f8 bc
       0.006450939 -0.05732425 -0.07871766 -0.030352324
000350 a8 69 9e bc d1 73 55 3e 32 a7 ef bc 04 36 58 3c
       -0.01933749 0.20844962 -0.02925453 0.013196472
000360 3c bb 74 bd 03 10 23 be 51 50 5b 3c 09 5e 9b bd
       -0.059748873 -0.15924077 0.013385848 -0.07586295
000370 ed 5f 3e 3d 7c d8 bd 3d f8 e9 1a bc 17 fe 17 bd
       0.0464782 0.09269807 -0.009455197 -0.037107553
000380 8c 21 ba 3d 58 80 01 3d d3 3f 9f bd d3 e7 ad bd
       0.0908843 0.03161654 -0.077758454 -0.084914826
000390 e2 9c 86 bd 87 ea 4b bc 52 bd 80 3e 85 66 b8 bc
       -0.06572892 -0.012446052 0.2514444 -0.022509823
0003a0 59 20 1b 3d 8a 5c 0e bd 1b cf 28 be dd 1f ba 3b
       0.037872646 -0.03475622 -0.16485254 0.005680068
0003b0 a3 33 bc bd 25 66 34 3d 28 b6 aa 3d 28 32 fd b9
       -0.091895364 0.044042725 0.08335525 -0.0004829329
0003c0 1f f2 4c bd e7 76 20 3e 8f 16 91 3d ca b1 9c bd
       -0.050035592 0.15670358 0.07084381 -0.07651098
0003d0 b5 b7 11 bd 79 ba 87 bd 99 ef 15 bc c1 d7 8e 3e
       -0.035575587 -0.06627364 -0.009151363 0.27898982
0003e0 2f 01 28 bb 88 05 82 3c 9f aa 9a bd 75 be fa bd
       -0.002563547 0.015871778 -0.07552075 -0.12243358
0003f0 74 34 8f 3c 53 f0 eb bd 65 d5 13 3d 1c 06 34 3e
       0.017481066 -0.115204476 0.03609218 0.17580456

_model.layers.0.bias f4 [128]
000000 d8 66 5d bd 34 3c 03 3d 25 b2 a0 bb d3 21 1e 3d
       -0.054053158 0.032039836 -0.004904049 0.038606476
000010 a1 e3 11 be 34 b1 c0 bd 31 15 8d 3d c9 5d 4d bb
       -0.1424699 -0.09408799 0.068888076 -0.0031336418
000020 3b eb 8a bc 1b ea e1 bb 14 a7 da bc ac 30 d4 3c
       -0.01695787 -0.0068943626 -0.026690997 0.025902115
000030 48 a8 8b bd f5 7c 52 3c 8b 94 a6 bd eb 6c 19 be
       -0.068192065 0.012847175 -0.08133801 -0.14982955
000040 fa 67 94 3c b1 a3 10 bd 4e af 44 3d d1 ff 03 3c
       0.018115986 -0.03531236 0.048018746 0.008056597
000050 a6 8f 31 3b 04 b9 fd 3d 33 47 a4 bd 89 f5 9b bc
       0.0027093678 0.123888046 -0.08021393 -0.019037979
000060 9d 24 8a bd 63 68 b1 3c 37 38 0b bd af c5 d9 3c
       -0.06745265 0.02165622 -0.033989158 0.02658352
000070 24 f8 9c bc 44 c3 1d bd e8 b1 17 be fe 4f 10 bd
       -0.019161291 -0.038516298 -0.1481396 -0.035232536
000080 0c cd 6a bc c4 aa 2c 3d 1f fb b9 3c 89 c7 8e bd
       -0.014331114 0.042155042 0.022702752 -0.06971652
000090 ec 48 be bd 04 32 0b bd e1 a4 ab bd 19 90 20 3d
       -0.092912525 -0.033983245 -0.083810575 0.039199922
0000a0 e1 1b ed bb ec 43 8b 3c 18 3c c5 bd fa b2 23 be
       -0.0072359894 0.017000161 -0.096306026 -0.15986243
0000b0 0a 01 17 3c ca d0 aa bd 4a 28 10 be 40 b3 b3 3d
       0.009216556 -0.083406046 -0.14077869 0.087744236
0000c0 05 5b 03 bd 62 f9 7a bc 39 47 3a bc cf 04 7f bc
       -0.032069225 -0.015318247 -0.01136952 -0.015565111
0000d0 5b c8 9c 3c 77 3a 6c bd 67 0b 25 bd 56 e9 02 bc
       0.019138506 -0.057672944 -0.040294077 -0.007990202
0000e0 43 14 19 3e 00 6d 5f bc 19 61 9c bd c3 80 4b 3d
       0.14949135 -0.0136368275 -0.076357074 0.049683344
0000f0 6a 6c 2f bd 09 1c 23 3a d0 e3 2f 3d 6b 0a 82 bd
       -0.042828 0.0006222134 0.04294187 -0.06349643
000100 e6 57 25 bc 1d 01 92 3d b7 26 c5 3d 66 8a 2f bc
       -0.010091757 0.071291186 0.09626525 -0.010714149
000110 49 53 3f 3c da 89 5b 3c 73 97 a0 3a 3e 92 5b bc
       0.011677572 0.013399566 0.0012252167 -0.013401566
000120 96 78 f0 bd 51 4d d1 3c 55 1b b9 bd 0d f1 40 3e
       -0.1174175 0.025549563 -0.09038416 0.18841954
000130 b3 b4 e8 bb 90 06 1c bd 72 48 be 3b 6e 8c 28 be
       -0.007101619 -0.038092196 0.005806976 -0.1645982
000140 8e 72 24 be 0c f2 2e bd 2d 07 b4 bd e0 63 10 bd
       -0.16059324 -0.042711303 -0.08790431 -0.0352515
000150 77 09 28 3d 26 a4 18 be f9 f9 c2 3c b2 5e b2 3b
       0.04102465 -0.14906368 0.023800837 0.0054434175
000160 8b f0 16 be 42 36 5c bd 88 c6 fc 3d 6b a2 14 3c
       -0.14740197 -0.05376268 0.12342554 0.009071927
000170 e1 27 56 3e 08 16 a8 bb 4b 72 88 3d ce 2b 1f be
       0.2091365 -0.0051295795 0.06662425 -0.15544054
000180 ba 20 89 bc 48 0c c7 bc 99 22 6e 3c 41 cf c1 bb
       -0.016739238 -0.024297848 0.014534616 -0.005914599
000190 9f 50 0e 3d c2 01 d8 bd d8 dc 85 bd 95 6f 17 3d
       0.034744855 -0.1054721 -0.06536263 0.036971647
0001a0 37 8d f5 ba d1 f4 cc 3c 73 44 c4 bc bf 88 81 bd
       -0.0018734102 0.025019081 -0.02395842 -0.0632491
0001b0 65 68 8b bd 98 71 0a bd 0d e3 9b 3c 5e d8 b6 bd
       -0.06807021 -0.033799738 0.019029165 -0.089279875
0001c0 d9 22 af bd 3e d3 c5 bd 1e e8 3f ba 7d ae 7b bd
       -0.085515685 -0.09659432 -0.000732066 -0.061445702
0001d0 5f 59 ed 3c ba cc 95 bc f8 05 93 3c 54 a7 00 be
       0.02897328 -0.018286098 0.017947182 -0.1256383
0001e0 f3 2d b1 bd be 11 4a 3a 92 a6 2b bd 70 01 c8 bc
       -0.08651342 0.0007708332 -0.0419069 -0.024414748
0001f0 b5 f1 bf bd b4 6e eb 3c c1 ab 78 bd 9b e3 d2 bc
       -0.09372274 0.02873931 -0.060710672 -0.025743296

_model.layers.1.weight f4 [128, 128]
000000 11 f4 52 3d 92 b7 78 3d a9 8e 55 bd 5c 01 25 bd
       0.05150229 0.06072194 -0.052138004 -0.0402845
000010 6b a9 59 3e 03 ee b9 3d 38 14 07 bc 90 87 5b bd
       0.21256034 0.090786 -0.008244567 -0.05359608
000020 fd bd 1c 3c 4e fc a4 bc 92 b6 86 3d e0 bc 04 3b
       0.009566781 -0.02013984 0.06577791 0.002025418
000030 12 f8 fb bd 18 d2 83 3c ea 40 f2 3d 37 27 2b bd
       -0.12303175 0.016091391 0.118287876 -0.041785445
000040 91 df 9d bd 18 46 8c 3c 67 28 a2 be 3b aa d4 3b
       -0.077086575 0.017123267 -0.3167145 0.0064900196
000050 34 c5 a0 3d 74 3c 1f 3a 26 c4 18 bd 72 86 4e bd
       0.078501135 0.0006074377 -0.037296437 -0.050421186
000060 97 67 d4 3d a3 bc b7 bb 5a ef 4d 3d 6f ae 00 3c
       0.10371321 -0.005607204 0.05027709 0.007854088
000070 8a 13 96 bd 0a 67 e3 3b ff 73 36 3e f6 d5 1b bd
       -0.073279455 0.0069397734 0.17817686 -0.038045846
000080 97 51 53 3c 9b 18 8d bd 69 f1 e7 3b 39 d2 bc 3c
       0.0128978705 -0.06889459 0.007078339 0.02304946
000090 82 ed bd 3d 67 26 26 be 8d 1f f6 3c 63 9a ba be
       0.09273817 -0.16225587 0.030044341 -0.36445913
0000a0 6b cc 31 3d fe 3f a3 bb 92 0e c3 3b fa c1 a7 bd
       0.04340784 -0.0049819937 0.0059526647 -0.08191295
0000b0 bf c1 96 3c b6 5e 2f 3c 6e d3 80 3e db d0 27 bc
       0.018402932 0.010703733 0.25161308 -0.010242666
0000c0 a6 93 3b 3d df 8d 7d bc 9b c5 9a 3c a7 b9 38 3c
       0.045795105 -0.015475719 0.018893054 0.011274732
0000d0 0b bd 93 3d be 2c 3e bc 81 fe 9f bc 6c 06 86 3d
       0.072137915 -0.011607347 -0.019530537 0.065441936
0000e0 fb b6 2f be 89 df 5d 3d 1e 71 76 3e 1f ff 18 bd
       -0.17159645 0.054168258 0.24066588 -0.037352677
0000f0 2f ef ae 3d bd 3f f6 bc 62 10 99 bb 5c f6 9c bd
       0.085417144 -0.03005969 -0.0046711424 -0.07664177
000100 7c 5e 1c 39 36 af ad bc 40 26 1f 3e 4a 65 d5 ba
       0.00014912518 -0.021201711 0.15541935 -0.0016280797
000110 96 c4 67 3a 33 3c d5 3b 86 ac 8f bd 91 94 f3 3c
       0.0008841244 0.0065074204 -0.07015328 0.029733928
000120 02 f1 25 bd da 42 64 3d 37 0e 2a bd 84 4f 40 3e
       -0.040513046 0.055727817 -0.041517463 0.18780333
000130 a2 8b c8 bc d7 e1 bf 3d 60 06 80 bd 1b 52 1d 3d
       -0.024480645 0.093692474 -0.06251216 0.03840838
000140 50 e3 04 bc fd ce 75 3c 86 b0 05 bf 10 1f 88 3d
       -0.008110836 0.015002963 -0.5222248 0.0664655
000150 78 4d d7 3c 4a ff 0e 3e a6 b2 b3 bd 88 1c 3f bc
       0.026282057 0.13964573 -0.08774309 -0.011664517
000160 b1 9b a3 3e 33 b6 33 3e ca eb 05 3d de ed a6 3d
       0.3195472 0.17549972 0.03269557 0.08150838
000170 13 b8 36 be 95 26 96 bd fb 4d 40 bd 48 9d 6c 3d
       -0.17843656 -0.07331578 -0.046949368 0.057767183
000180 a8 52 9b 3d 4c 2c 15 3b 48 2e 2f bd bc aa 06 3d
       0.07584125 0.0022761999 -0.042768747 0.03287767
000190 a1 59 60 be e6 3d 4a be 92 25 87 3d 6d 09 00 3b
       -0.2190919 -0.19750175 0.06598963 0.0019536868
0001a0 9a d0 ad 3d c7 7d a3 bd 14 ed 62 3c ff 20 a0 bb
       0.08487053 -0.079829745 0.013850469 -0.004886746
0001b0 56 d0 96 bb 8a f5 6e bd 6d ae 3a bd ea cd aa be
       -0.0046024723 -0.058339633 -0.0455765 -0.33360225
0001c0 2d 80 3c bd 4c a5 db 3b ff 0e 44 bd b2 52 eb bd
       -0.046020675 0.0067030545 -0.047865864 -0.11490382
0001d0 4f 09 2a 3c a9 dc 2d bd 5d df 39 3d c6 79 2e bd
       0.010378196 -0.042446766 0.04537903 -0.0425966
0001e0 8c 7c 23 bd d1 aa 34 ba 97 42 a5 bd 9a 20 80 bd
       -0.0399137 -0.00068919087 -0.08069342 -0.06256218
0001f0 7f e8 28 be 62 99 ac 3d 9b ac 20 bc 4c 82 85 be
       -0.1649494 0.08427693 -0.009806777 -0.2607597
000200 fd 37 84 bd ab c8 8f bd c0 31 fd 3c d4 72 01 3c
       -0.064559914 -0.07020696 0.030907512 0.007900912
000210 44 14 19 bc cf af b5 bd 5c fd 66 3d 9a f4 ca bc
       -0.009343211 -0.088714235 0.056393966 -0.024774838
000220 74 40 36 3b 12 a5 30 3c 7a ac 10 bd ba 9c 5a bd
       0.0027809413 0.010781543 -0.035320736 -0.053372122
000230 79 c3 98 3d ab b4 da 3c e7 88 85 3d 22 da a1 bc
       0.074591585 0.026697477 0.06520253 -0.019757334
000240 0f c2 97 3c bc f3 3c 3c 1a be a1 3c 7e b1 7c bd
       0.018525152 0.01153272 0.019743968 -0.061692707
000250 be 6c 7a 3d 2c ee 4e 3d 62 df 35 bd 9d 22 1a 3d
       0.06113886 0.050520107 -0.044402488 0.037630666
000260 99 c9 1f 3d d8 8b 99 3d 3a a9 ea bb e3 45 57 bd
       0.039010618 0.07497376 -0.0071612867 -0.052556884
000270 38 0f 9c bd 43 e8 7f bd 67 fe a4 bd 99 ca dc 3c
       -0.0762009 -0.06247736 -0.08056336 0.026952075
000280 e0 ba e9 bc b2 ed b2 bd fb 54 11 bd af 8d 62 bd
       -0.028531492 -0.08736743 -0.035481434 -0.0553109
000290 f0 09 9a 3d bf 3c 78 3b 26 15 8f b9 b3 64 a7 bd
       0.07521427 0.0037878004 -0.00027290842 -0.08173504
0002a0 5b 14 de 3c b8 03 9f 3c 0b 1d af bd 47 8d 2b 3d
       0.027109316 0.019410953 -0.085504614 0.04188278
0002b0 c2 68 af bd 7e eb 66 bd 2b 32 d7 3c c8 44 4d bd
       -0.08564903 -0.056376927 0.02626904 -0.050114423
0002c0 7b ce 43 3c 5a e6 26 bd fc 1e bb bb a4 7f ac bd
       0.011951084 -0.040747024 -0.0057104807 -0.08422783
0002d0 3e 46 d3 bb 3f 04 05 3d ef a3 33 bc 33 62 3a 3d
       -0.0064475825 0.032474753 -0.010964378 0.045503806
0002e0 4b 0f 88 bd c7 18 49 3c 94 02 9f bc c5 4b aa bd
       -0.06643542 0.012273974 -0.019410409 -0.08315233
0002f0 f2 2c a4 3c 25 bf 88 3d 76 3c 66 3d 89 de 03 3d
       0.020040963 0.06677083 0.056210004 0.032194648
000300 8d 4c 22 3d 90 d6 62 3d 2b a8 80 3c 67 c0 a4 bc
       0.039623786 0.055380404 0.015705189 -0.020111276
000310 ab 3c 13 bc c2 09 76 3c 23 32 98 bb de 54 af bd
       -0.008986632 0.015016975 -0.0046446486 -0.08561109
000320 e4 68 cf bc 1d a1 d6 bc 1c 00 73 bd e4 82 8d 3d
       -0.02531857 -0.026199872 -0.059326276 0.06909731
000330 8f 73 bb 3c 95 98 22 3d e9 f9 7a 3d 48 e7 be 3c
       0.022882251 0.039696295 0.06127349 0.023303643
000340 45 ba 87 3d c8 c9 4d 3d 0a 6c 29 bd 1b 0e 10 3c
       0.06627325 0.05024126 -0.0413628 0.0087924255
000350 90 32 19 bd cc 9a 49 3c 97 f9 b3 3d 9a 6a 9a 3d
       -0.037401736 0.012304973 0.0878784 0.07539864
000360 7b 0c 87 3a dd fd 91 bd 80 d1 fc 3c 3b e4 5d bb
       0.0010303402 -0.07128499 0.030861616 -0.003385796
000370 25 2a cd 3c 8c b0 88 bd c2 f1 35 3d cd ec 49 bd
       0.02504451 -0.06674299 0.04442001 -0.049298096
000380 ca 30 4c 3d 79 5f 12 bd c9 af 3d 3d 6a 3a cb 3c
       0.049851216 -0.03573558 0.04631022 0.024808127
000390 03 67 2e 3d c6 30 eb ba 13 73 a0 bd 85 d7 22 bd
       0.04257871 -0.0017943613 -0.07834449 -0.039756317
0003a0 f2 24 38 3d 6b 2e 15 3d 61 05 ad bd c7 19 a0 bd
       0.04495711 0.03642122 -0.084482916 -0.07817417
0003b0 d3 c9 62 3c 33 df 55 bd 5f 71 99 bd 65 db 9c bd
       0.013842064 -0.052214812 -0.07492327 -0.07659034
0003c0 c0 3b b5 bd 51 1a ed bb c2 c0 b1 3d 71 e0 84 3d
       -0.08849287 -0.007235803 0.08679344 0.06488121
0003d0 2a c5 4e bd 4c c6 16 bd a0 4b 90 3d f7 eb a8 bd
       -0.050481 -0.036810204 0.07045674 -0.08248132
0003e0 f6 7c 84 3d a3 d3 50 bd 1a 4d 90 bd c1 42 6c bd
       0.06469147 -0.050983083 -0.07045956 -0.05768085
0003f0 67 cc 10 3d 74 fb c4 bc ac f2 ce 3c a6 e9 e8 3c
       0.035351183 -0.024045683 0.0252622 0.028431725

_model.layers.1.bias f4 [128]
000000 95 f8 36 be 14 a8 93 bd b2 af 90 bc d9 29 90 bd
       -0.17868264 -0.07209793 -0.017661903 -0.07039232
000010 4e cc 32 bd 0e 22 f0 3d c4 93 a5 3d 9d 67 38 be
       -0.04365187 0.117252454 0.08084825 -0.18008275
000020 f8 44 3a bd 5f 29 50 bd f3 f0 13 3d a8 8e d5 3d
       -0.04547593 -0.050820705 0.03611846 0.104276
000030 a4 47 b0 bd 3b 79 b4 3a ca c0 a4 bd a0 22 95 3c
       -0.08607414 0.001376904 -0.08044584 0.018204987
000040 51 2e b0 3d a9 14 82 bd 28 43 a8 bd e5 6b 66 3c
       0.08602584 -0.06351597 -0.08215934 0.01406381
000050 6f 30 5f be 0f 8f a2 bd be ce ce 3c d2 ec 7d be
       -0.2179582 -0.079374425 0.025245067 -0.24797371
000060 fc e8 6b 3d c2 24 60 be 5e d2 ab 3b 44 04 4b be
       0.057595238 -0.21889022 0.0052435836 -0.19825846
000070 7f 92 9d bd 57 c6 8e bd 82 e8 e4 bd 3d 75 33 3e
       -0.076939575 -0.06971424 -0.1117716 0.17525192
000080 f2 b8 11 3d 2b 87 44 3d f0 19 42 3c 87 ce 89 bd
       0.03557677 0.04798047 0.011847004 -0.06728845
000090 c6 1d 12 be 3e 1a 1c 3d 7c f9 74 bd d6 28 15 be
       -0.1426917 0.038110964 -0.05980824 -0.14566359
0000a0 ff 30 71 bd 2d ca 0a be 67 26 33 bd 52 f7 d6 bd
       -0.058884617 -0.13553686 -0.043737795 -0.10496391
0000b0 6f 52 36 be 37 30 dd bc 29 b9 6d 3d 28 00 b5 bd
       -0.17804883 -0.02700053 0.05803791 -0.088379204
0000c0 86 81 35 bd 4c 26 af bd ff d1 6c 3e fc 1e b1 bd
       -0.044312976 -0.085522264 0.23126982 -0.08648488
0000d0 70 67 64 3d 18 63 bb 3d 87 e7 38 bd 7b 37 3e be
       0.05576271 0.0914976 -0.045142677 -0.18575852
0000e0 e6 ed 6d 3d ca 2e f1 bc d9 82 95 3d f4 e5 c0 3b
       0.058088206 -0.029441256 0.07300348 0.0058867875
0000f0 f7 96 d1 3d a0 2b 6f be 0f bf 6d be cb 26 ba bd
       0.102338724 -0.23356485 -0.23217414 -0.090894304
000100 d3 05 9c bc a8 a3 cb bd e0 88 7a 3d 03 f0 eb bb
       -0.019045746 -0.09943324 0.06116569 -0.0072002425
000110 02 de be bb 9a 69 9a bc 7a 06 da bc 52 75 4b be
       -0.0058248052 -0.018849183 -0.026614416 -0.19868973
000120 3c 23 0a 3c ca 3a 76 bd 89 61 13 3e 35 e6 b9 3d
       0.008431252 -0.06011466 0.14392675 0.09077112
000130 b6 af 96 bd d5 61 91 bd 68 b6 84 be 50 63 24 3d
       -0.07357733 -0.07098738 -0.25920415 0.040133774
000140 28 7e bc 3d 4e 39 4a 3d 26 5e 5c 3d 56 58 4a be
       0.0920375 0.049371056 0.053800724 -0.1976026
000150 37 20 73 bc 45 92 91 3b 7b 9f 3a be a8 b8 69 3d
       -0.014839224 0.0044424855 -0.182249 0.057060868
000160 31 20 89 bd 07 d3 dc 3c 6d 22 a5 3d 01 e2 02 bd
       -0.06695593 0.026956094 0.08063207 -0.031953815
000170 de ed 01 bc 73 99 74 3d dd 42 8e bd 00 33 10 be
       -0.007930247 0.059716653 -0.06946347 -0.14081955
000180 11 7d 9f 3c e1 43 82 bc 38 ce 31 bd d3 6b fc 3d
       0.019468816 -0.015901508 -0.043409556 0.12325253
000190 a8 1d 70 3b b5 a5 fb 3d 11 7b 2c 3d 9a 3e a8 bd
       0.003663877 0.122874655 0.042109553 -0.08215065
0001a0 a4 83 d5 3d ea 40 c2 bd e3 a4 2c 3d 77 e9 a3 bd
       0.10425499 -0.094850376 0.042149436 -0.08003514
0001b0 d9 f0 bb bd ea 26 50 3d 09 8d b6 bd 36 50 9c bd
       -0.091767974 0.05081836 -0.08913619 -0.076324865
0001c0 12 0a 2f bd 6d 29 d9 3c 24 7a a3 3d e1 e2 58 bd
       -0.042734213 0.026509011 0.07982281 -0.052950744
0001d0 dd 6d 57 3e 5e 6b 47 be 51 05 49 bc 4a 65 e3 3c
       0.21038003 -0.19474551 -0.012269334 0.02775826
0001e0 02 84 bd bb 11 29 04 3e 1c ca f3 3d 52 c8 ef 3c
       -0.005783559 0.1290629 0.11903784 0.029270325
0001f0 d0 7a 83 bd 7f 3d 3f be 5a 8e 29 3d 92 29 0e be
       -0.06419909 -0.18675803 0.041395523 -0.13883045

_model.layers.2.weight f4 [128, 128]
000000 37 65 20 bd 41 a8 a9 bd 24 11 c7 3c 23 f4 2e 3e
       -0.039159026 -0.08284045 0.024300165 0.17085318
000010 a3 13 d1 3d 47 0e 98 3d 46 69 52 bb 14 c2 46 bd
       0.102088235 0.07424598 -0.0032106205 -0.04852493
000020 61 3f 28 3d 2a 66 90 3b e6 58 46 3c 1d ee 32 3d
       0.041076068 0.00440671 0.012106156 0.043684114
000030 63 c1 35 3c 77 51 99 3b 3d ea bb 3c 42 90 64 3d
       0.01109347 0.004678901 0.022938842 0.055801637
000040 52 37 c5 bd 70 e5 06 be 2d 1e 31 3c 21 c5 85 bc
       -0.09629692 -0.13173461 0.010810417 -0.01632935
000050 05 9e 5b 3c 58 60 a6 3c b7 be 91 3e 57 04 89 3d
       0.013404374 0.020309612 0.28465816 0.06690281
000060 ba b3 27 bd cb bc 52 bd 32 db 04 be 8f 6a 41 3c
       -0.040942885 -0.05144958 -0.12974241 0.011805191
000070 ad 1e 76 3c b0 c6 69 3b 01 95 6b 3c 55 50 2f bd
       0.015021962 0.0035671405 0.014378787 -0.04280122
000080 6e d0 68 3c 28 84 c4 3c 46 ba 26 bd 09 2c f9 3b
       0.01420985 0.023988798 -0.040704988 0.0076041264
000090 50 48 bf 3c bb 0d 72 3d 7f 3f 8a bc b2 6d 74 3c
       0.023349911 0.059095126 -0.01687598 0.0149187315
0000a0 da 5b 49 be de c1 b9 3b 1e cc de 3b f6 bd 53 3c
       -0.19663945 0.0056688627 0.006799235 0.012923708
0000b0 76 8f 25 bc b1 e7 46 3d 4b 91 74 bc b7 48 22 3e
       -0.0101050045 0.048560802 -0.014927219 0.15848051
0000c0 39 43 c4 3c b2 c4 84 3d af da c3 bc 90 33 85 bc
       0.023957836 0.06482829 -0.023907987 -0.016259938
0000d0 c7 51 90 3d eb a1 81 bd f9 c7 a2 3b fa bd cb bb
       0.07046848 -0.063297115 0.0049676863 -0.0062177153
0000e0 96 99 83 3c ed d4 aa 3e 43 44 93 bc 1e 68 2d 3d
       0.016064446 0.33365574 -0.017976886 0.042335622
0000f0 f6 0a 81 3b 5b c0 ab bd 90 9e a5 3b dd a4 c3 bc
       0.003938074 -0.08386298 0.0050543025 -0.023882324
000100 65 39 99 bd 65 72 ae bd e5 d8 39 3e df 63 d9 3b
       -0.0748165 -0.08517913 0.18149145 0.00663422
000110 00 66 80 bd 87 47 a3 3d 95 89 b0 bb 88 63 57 3c
       -0.06269455 0.07972627 -0.005387495 0.013146289
000120 61 59 2d 3c 84 f4 28 3e 1f da e8 3d 20 ab 00 3c
       0.010580392 0.16499525 0.11369728 0.007853299
000130 62 1f c1 bc b8 50 86 bd b5 1a a1 3d eb f8 97 bc
       -0.023574535 -0.06558365 0.07866422 -0.01855131
000140 fb b4 c1 b9 6d 7c a9 3c 75 ad 80 3d cd 13 cf 3c
       -0.0003694667 0.020689214 0.06283084 0.025277996
000150 81 b5 58 3d c9 e3 03 bc d1 e0 ca 3b 15 fb 8e 3d
       0.05290747 -0.008049914 0.006191351 0.06981484
000160 87 a8 36 3c 55 de 3a 3e c0 c2 9b 3b a8 26 68 bd
       0.0111485785 0.18248875 0.0047534406 -0.05667749
000170 08 8c b1 bb 2b 0e c1 ba d8 a9 9e bc 6b 70 50 3b
       -0.0054183044 -0.0014728954 -0.019368097 0.0031805288
000180 94 0c 9f 3c 07 4a b3 be 0e 52 ce bc 7f 02 ef bd
       0.019415177 -0.35017416 -0.025185611 -0.11670398
000190 84 54 5e bd a3 6a 86 bd 06 b0 0b 3c 08 5e 28 3c
       -0.05427982 -0.06563308 0.008525854 0.010276325
0001a0 94 29 44 bc c8 51 b4 bb 8a 61 97 3d 30 d3 75 3d
       -0.011972804 -0.005502913 0.07391651 0.060015857
0001b0 26 58 c2 3d 01 0f c1 bd 38 9e cc bd 49 88 dd bc
       0.09489469 -0.0942669 -0.09991115 -0.027042525
0001c0 07 d2 12 3c 66 aa 74 bd 29 1b 79 be 15 55 9b 3d
       0.008961207 -0.059732817 -0.24326767 0.075845875
0001d0 91 94 98 bc 86 f8 31 3c d9 bc c4 bc a5 74 67 3d
       -0.01862553 0.010862475 -0.02401583 0.056507725
0001e0 cb a3 25 3c 35 6a 4d bd 32 cd ac 3c 75 1e 82 bd
       0.010109852 -0.050150115 0.021093938 -0.063534655
0001f0 96 07 bc 3b d5 c0 e1 bc 3a 48 61 bd cb fe 7d bc
       0.005738209 -0.02755777 -0.05500052 -0.015502642
000200 70 ff 84 bd f7 41 8e 3c 8b e5 8b 3b 4d ef 82 bc
       -0.06494033 0.017365439 0.004269307 -0.015983248
000210 16 7e 0b 3e 92 c3 9d 3c e2 ff 05 3d 3d 14 87 bd
       0.13622317 0.019258294 0.032714732 -0.06595657
000220 bb 74 cd bd 94 3b 92 3d 25 d0 14 bc bd ef a1 bd
       -0.1003203 0.0714027 -0.009082829 -0.079070546
000230 1f 0b 54 3d e4 01 e7 bb d0 d9 9d 3d 55 25 9b 3d
       0.05176842 -0.007049786 0.0770756 0.0757548
000240 af 3f 63 bd 0b 4e da 3d 27 f3 13 bc 49 a8 7d 3d
       -0.055480655 0.10659417 -0.00903014 0.061928067
000250 80 6f eb 3d 1a 28 bb 3d 4a 13 95 bd be 20 74 be
       0.11495876 0.09138508 -0.0727907 -0.23840615
000260 11 fc 87 3d 04 2c 21 be 16 63 13 3e f7 e6 c8 3c
       0.06639875 -0.15739447 0.14393267 0.024524195
000270 1d fc 18 3d 14 3c 99 3d 0f 1b 1f bc 55 43 a8 bd
       0.03734981 0.07482162 -0.009711041 -0.082159676
000280 88 48 d8 bd c1 d3 37 3e 42 01 6a bc fb 6a 88 3d
       -0.10560709 0.17951871 -0.014282526 0.0666103
000290 7b fa bc 3c 72 42 eb bd dc 69 c7 3c 94 07 43 3c
       0.023068657 -0.11487283 0.02434247 0.011903662
0002a0 1e 6c 83 3c 73 c1 85 3d 31 c3 67 bd cf d6 bb bd
       0.016042765 0.06531038 -0.056582633 -0.09171831
0002b0 ce b4 54 3c bc 6c b3 bd 11 a2 4e 3c 53 d2 fc bd
       0.01298256 -0.08760974 0.012611882 -0.12344804
0002c0 8c da 95 bd 99 ab 31 3d ed df c2 bc 8c 87 45 bc
       -0.07317075 0.04337654 -0.023788417 -0.012056243
0002d0 46 28 66 3d 59 8b f4 3d 8b 45 3c 3b eb 60 49 3d
       0.05619075 0.11940641 0.0028727974 0.049164694
0002e0 a5 ef 11 bd f2 04 8b bc ca 45 6b 3b b1 6c a9 bc
       -0.035628933 -0.016970132 0.0035899752 -0.02068171
0002f0 a2 8f 8e 3d 3c 5c 7c 3c b0 2d 5c 3b 47 84 87 3c
       0.069609895 0.01540285 0.0033596568 0.016542567
000300 13 e0 fb 3c 8b 03 e2 bc b2 22 a0 bc 0a bb 82 3d
       0.030746495 -0.02758958 -0.019547794 0.06383331
000310 12 23 74 bd c6 bc be 3c f4 41 f2 3b 8d fa b9 3c
       -0.05960376 0.023283374 0.007393116 0.02270248
000320 ea c0 31 bd 60 bd 23 bc 95 2d 38 3d 48 9c bb 3d
       -0.043396868 -0.009993881 0.044965345 0.09160668
000330 18 ad 5f 3d bd 13 70 bd 44 25 e4 3d bd fe 49 bd
       0.054608434 -0.058612574 0.1113992 -0.049315203
000340 06 54 22 3c 2a 31 83 bc f4 17 5b bd 01 4f ec 3d
       0.009907728 -0.016014654 -0.05348964 0.11538506
000350 14 a0 63 bd f9 04 8f ba 18 9e 8b bc c7 2e 08 bd
       -0.055572584 -0.0010911516 -0.017043158 -0.033247735
000360 7e c3 5d 3d a2 7f 0d 3d d4 da e2 bd c3 12 2b 3d
       0.054141514 0.03454555 -0.110768944 0.04176594
000370 ca b2 ec 3d 52 96 9a 3c 83 e9 8f ba f8 2b 92 bc
       0.11557539 0.018870506 -0.0010979626 -0.017843232
000380 bf 0b 8f bc 79 93 51 bc fd 28 cb bc 01 a0 41 bd
       -0.017461656 -0.012791508 -0.024799818 -0.047271732
000390 e3 a4 0a bb ed da a4 bc f9 79 7c bd 9a dd da 3d
       -0.002115541 -0.020123923 -0.06163976 0.106867984
0003a0 6e 71 83 3c e1 23 0a 3e 2b 1d 67 bd 97 a3 9f bd
       0.016045298 0.13490249 -0.0564243 -0.07794874
0003b0 c5 fc 92 bd 44 05 9b 3d c8 e3 07 be 4d e8 b4 3c
       -0.07177118 0.07569364 -0.13270485 0.022083426
0003c0 d4 c7 09 bd cc d1 16 be e4 0f 97 bc 21 d2 06 3d
       -0.033637837 -0.14728469 -0.018440194 0.03291524
0003d0 c8 79 b7 3c 9f de dd 3c 85 cc 2a bc 3f d7 3a 3e
       0.022396937 0.027083693 -0.010424738 0.18246172
0003e0 01 a4 63 bd d1 a6 05 bd fa 8f 37 be fa 83 d4 3d
       -0.05557633 -0.03262979 -0.17926016 0.10376735
0003f0 e5 bd a0 3d c0 e8 61 3c e5 96 78 bd a7 00 fe 3d
       0.078487195 0.013788402 -0.06069078 0.12402468

_model.layers.2.bias f4 [128]
000000 43 c3 b3 bd f7 87 be 3d 9a 4e b6 bc 40 a7 96 bd
       -0.087774776 0.09303277 -0.022254277 -0.07356119
000010 58 94 8d bd d3 4e 9b bd 45 78 39 3d 49 9e 6e 3e
       -0.0691306 -0.07583394 0.045280714 0.23302568
000020 a5 06 0c be 1e c7 f5 3d 38 d1 a7 3c c7 40 ec 3c
       -0.1367441 0.12000869 0.020485505 0.028839482
000030 8d 29 b9 bd 6b 69 16 3d bb ab 9e 3d 9e 8d 11 bd
       -0.09041128 0.03672163 0.07747599 -0.035535447
000040 c4 5d ae 3a c2 a6 25 3c a1 38 4e be 49 f5 52 3c
       0.0013303091 0.010110559 -0.2013879 0.012875863
000050 6f 59 cb bc fd d9 b1 bd 5d 28 9a 3c 59 f5 6d bc
       -0.024822919 -0.08684156 0.018818075 -0.0145238275
000060 59 25 b3 3c fe 36 ca 3c 76 b9 0a bd fe 2e 81 bd
       0.021868395 0.024684425 -0.033868276 -0.06307791
000070 40 2d 7b 3b 7b 3e 30 bd 6e 94 ec bd da b7 95 3d
       0.0038326532 -0.043028336 -0.11551748 0.073104575
000080 81 42 f2 3d 29 b1 b1 bc 11 bd 3b bc 44 07 aa bd
       0.11829091 -0.021690922 -0.011458651 -0.08302167
000090 a1 17 c7 3d 65 eb 4f 3c 80 2a ca 3c 90 5b 43 bc
       0.09721304 0.0126904 0.024678469 -0.011923686
0000a0 9d dd 70 3d 62 35 0c bd 7d 2a 4b be af 88 b4 bc
       0.058805097 -0.034230597 -0.19840427 -0.022037832
0000b0 1f ea 86 bc 11 a7 42 bd 16 45 e6 3d 4e 05 15 be
       -0.01646906 -0.04752261 0.11243646 -0.14552805
0000c0 86 5b 49 3d 1c c8 d2 bc 76 c5 aa bc c5 50 8a bd
       0.04915955 -0.025730185 -0.02084611 -0.06753687
0000d0 ed a6 a7 3c 05 ce fd 3a a3 da 9d 3d a9 1a 92 bd
       0.020465339 0.0019363767 0.07707717 -0.07133991
0000e0 73 91 dd bc 2f a7 4b bd a7 e7 71 be b4 d3 ea bd
       -0.027046895 -0.049719986 -0.23623525 -0.114661604
0000f0 96 9c d7 be 82 16 6c bd e5 2f 40 b9 3f e9 31 bc
       -0.42111653 -0.057638653 -0.00018328389 -0.010858833
000100 d7 57 3a 3d b6 8b be bc 61 ad 13 bd 4d 6c 0e 3e
       0.045493927 -0.023259979 -0.03605402 0.13908501
000110 fc 6b b3 bc 54 a3 84 bc c3 86 c3 bd 56 39 13 be
       -0.021902077 -0.016191162 -0.09547188 -0.1437734
000120 37 83 3b bd 02 c6 2b 3e f3 96 50 bc e7 67 8a 3d
       -0.045779433 0.16774753 -0.012731302 0.06758099
000130 f3 aa 13 3c 90 05 ba bd a9 c0 4c 3d 5d 9a 36 bd
       0.009012925 -0.09083092 0.049988423 -0.044580806
000140 58 13 c7 3c 08 71 a9 3d bc 5d b1 be b2 7f df 3c
       0.024301216 0.08273512 -0.34641826 0.02728257
000150 81 30 63 bc 87 f5 1f 3c 88 4a 0d bd 53 bc 5f bd
       -0.013866545 0.009763128 -0.034494907 -0.05462296
000160 77 cf 82 bd 80 5a 5e 3b 30 e2 1b bd 74 24 de bd
       -0.06387227 0.0033928454 -0.038057506 -0.10846797
000170 8a 3b 07 3d 78 6c 1a bd 46 7f 01 3b 2d 37 cb 3b
       0.033015765 -0.0377011 0.0019759699 0.006201646
000180 31 cb f6 3d 73 a9 1e bd a1 97 98 3d 61 d8 05 3e
       0.120504744 -0.038735818 0.07450796 0.13070823
000190 74 44 71 3d 01 ab 9d 3d a7 6b 14 3d 27 7c 62 3e
       0.058903173 0.07698632 0.036235478 0.22117673
0001a0 b1 f2 da bd f5 41 3c bc 7f d9 59 3c 6d bd 54 bc
       -0.10690821 -0.011490335 0.013296484 -0.012984616
0001b0 7a ba 33 bd 8b f7 0d 3d c5 ff 3e bd 91 bd a2 3c
       -0.04387901 0.034659903 -0.04663064 0.019865783
0001c0 26 1d d1 bd 37 55 79 3d 9b 84 9d 3d f9 40 0b bd
       -0.10210638 0.060872283 0.07691308 -0.03399751
0001d0 5b 55 2b 3e df 3b 93 3d cc d6 7c bd fb 7e c5 3c
       0.1673178 0.07189154 -0.061728284 0.0241084
0001e0 c8 3b 13 bd f7 32 d5 bd bb e3 36 be 9e 0e a5 ba
       -0.035945684 -0.104101114 -0.1786031 -0.0012592857
0001f0 01 0f 1a 3d 09 af aa 3b 6d 48 ba 3b b9 a6 8b 3c
       0.037611965 0.005208854 0.0056849034 0.017047273

_model.layers.3.weight f4 [128, 128]
000000 f4 7b 81 3b ff b1 4d 3d 9b 6e 2e 3d de 61 83 38
       0.003951544 0.05021858 0.04258595 6.264796e-05
000010 5a 22 34 bd 21 09 ad 3d 1f 02 3e bc ce 6e a9 bd
       -0.043978073 0.08449007 -0.011597185 -0.082730874
000020 8e 64 32 bd 29 fb 94 3d 45 47 b2 bc 3d d5 90 3d
       -0.043552928 0.072744675 -0.0217625 0.07071922
000030 6f 2a 0a 3d 2e f5 45 bd 80 48 63 3d 4f 0e 26 3c
       0.033731874 -0.048329525 0.055489063 0.010135247
000040 ae 6a 9f 3d 20 d2 12 3c 6e 83 70 3d 5c 68 d3 bd
       0.077840194 0.0089612305 0.05871909 -0.10322639
000050 8b d8 83 3e 5e b2 59 bd 85 90 50 bd 20 fd 09 3d
       0.25751147 -0.05314862 -0.050919075 0.033688664
000060 49 68 10 3c fd d9 e3 3d 97 08 b1 3d 68 5d a1 b7
       0.008813926 0.11125562 0.086442165 -1.9236191e-05
000070 90 88 50 bd dc 6c 27 3c 7e c2 08 be 83 75 59 bd
       -0.050911486 0.010218825 -0.13355443 -0.053090584
000080 9f dd 01 3d ca 06 0c be 22 be 4c 3d 19 93 a8 3d
       0.031705495 -0.13674465 0.049986012 0.08231182
000090 3a d5 39 3d a8 30 80 3c 6b f6 22 3e a2 ba 8c bd
       0.045369364 0.015648201 0.15914313 -0.06871535
0000a0 21 5b b3 3d e0 c3 b2 3d 84 95 c2 3d 16 96 b6 3d
       0.08757616 0.087287664 0.09501174 0.08915345
0000b0 59 34 ce 3a f4 29 b1 bd 80 fb 9e 3d d1 6b 1a be
       0.0015732154 -0.0865058 0.077628136 -0.15080191
0000c0 41 53 20 3d e2 d3 13 3d 73 0f 23 bd 07 90 ff bc
       0.039141897 0.03609074 -0.039809655 -0.031196607
0000d0 8b 7d 85 3c 2e 81 e3 3d 50 d5 1b 3d 7f ec 2c 3c
       0.016295215 0.111086234 0.038045228 0.010554432
0000e0 67 f7 1e be cb d4 4b 3c 71 1f 72 bd a7 3d 84 3c
       -0.15524064 0.0124408705 -0.059112016 0.01614268
0000f0 ec d4 19 3d 67 7d ab 3c 05 6b 8e 3d e4 16 e5 bd
       0.037556574 0.02093382 0.06954006 -0.11186007
000100 5b 97 4b 3d 7e 5c b1 bd 63 bb a2 3b f8 0c 65 3c
       0.04970489 -0.086602196 0.004966186 0.013980143
000110 13 04 63 bd cc d3 bb 3c 66 7c b8 bd a5 14 25 3d
       -0.055423807 0.022928141 -0.09008102 0.04030289
000120 db 4b 35 3e a2 07 7d bd 71 7c 77 bd 2e 5c 6d bc
       0.17704718 -0.061774857 -0.06042141 -0.014487309
000130 3c 47 18 3c 9e 71 38 bc a8 b0 72 39 3e 0d 4c 3d
       0.009294327 -0.011257557 0.00023144728 0.049817316
000140 f3 05 84 3d e8 49 b2 3d 49 0f dc bd 91 88 d9 bc
       0.06446447 0.08705503 -0.10745103 -0.026554378
000150 34 46 17 bd 89 df 3c bc ce 3a 8b bc c8 c9 12 bd
       -0.036932185 -0.011527904 -0.016995814 -0.035836965
000160 e0 6f 6f 3c 41 7d e5 bc cd 75 3e 3d b8 9e b2 b9
       0.014614075 -0.028013827 0.046499062 -0.0003406906
000170 76 3d 20 3d 28 21 d3 bd ac 6e e1 3c e3 ee 41 bd
       0.039121114 -0.103090584 0.027518593 -0.04734696
000180 9e 3b 81 3d 4c ce 00 bd 14 d4 af 3b a4 c1 e8 3c
       0.06310199 -0.03144674 0.005365858 0.028412648
000190 dc 6b 72 bd 93 f9 94 bc b0 1b ce bc 92 a6 b8 3c
       -0.059184894 -0.018185413 -0.025159687 0.022540364
0001a0 73 ec 9d 3e 08 5f 0d 3d 6d 2f 24 3d 2e 42 8b 3d
       0.3084446 0.034514457 0.04008429 0.06799732
0001b0 87 2c be 3c 7a fc 83 3d ed 0d e8 3d 46 2c c6 bc
       0.023214592 0.064446405 0.11330781 -0.024191033
0001c0 37 fe c3 bc cb e6 62 bc 70 0e 18 3d 28 80 e4 3d
       -0.02392493 -0.013848971 0.037123144 0.11157256
0001d0 d9 51 f9 bb 64 e3 64 bc 33 1c a0 3d d2 26 e8 bd
       -0.007608634 -0.01397023 0.078178786 -0.113355294
0001e0 0d f3 a6 3d 92 1c 51 bd 5b 69 27 bd 9d 64 5a 3e
       0.08151827 -0.051052637 -0.04087196 0.21327443
0001f0 72 6c 88 bd 62 df 15 bd 8d 55 94 bd 94 3b fb 3c
       -0.06661309 -0.036589988 -0.0724288 0.030668058
000200 aa fa 3e bd a7 61 47 bd 89 ce 8e 3d e0 ab 68 bc
       -0.04662577 -0.048677113 0.06972987 -0.014201134
000210 6d ec 94 3c 6a 91 a4 bb c9 15 3e 3c 20 72 b3 bd
       0.018179143 -0.0050222175 0.011601874 -0.08762002
000220 e3 b5 92 bd 17 e8 30 bd f9 ed a8 bd 93 1d 03 3d
       -0.071635984 -0.043190088 -0.08248515 0.032010626
000230 35 93 7d bc 03 92 c0 3b 85 d1 7f 3c e2 98 fb 3a
       -0.015476991 0.005876781 0.015613918 0.0019195343
000240 cc 17 94 3d 55 3f c1 bb b6 da b2 3d a2 ac 0b bd
       0.072311014 -0.0058974423 0.08733122 -0.034100182
000250 c8 9b 9f 3c fc 44 46 3d ba d0 01 bc 62 92 c2 bd
       0.019483462 0.048405632 -0.007923299 -0.095005766
000260 d1 9d aa bd 90 ea 9f bd 32 eb c5 bd a5 7e 40 3d
       -0.08330882 -0.07808411 -0.096640006 0.046995778
000270 69 62 d0 3c ed ed f1 3b da 19 7e bc 49 05 e6 bc
       0.02543755 0.0073830993 -0.015509093 -0.028078692
000280 2e 8e 91 3d 50 03 a6 3d 88 e4 39 bd 76 7e 4f 3d
       0.07107197 0.081061006 -0.04538396 0.050657712
000290 ac a8 59 3b f6 cb 99 3c 7d bb a6 bc 06 19 35 3d
       0.0033212109 0.018774014 -0.020353073 0.044213317
0002a0 3d 42 65 bd 3b a3 7b 3d 29 de 80 bd 2c 7c b0 bb
       -0.055971373 0.061434966 -0.06292374 -0.005385896
0002b0 90 d6 80 bd 9b f4 69 3c b9 c6 2d bd 45 2e 3e bb
       -0.062909245 0.01427951 -0.042425845 -0.0029019278
0002c0 9e e6 3b 3b 05 be 93 3d 24 df ca bc 02 29 21 3d
       0.0028671394 0.07213978 -0.024764605 0.03934575
0002d0 2f 06 8d bd e5 31 6a bc 4f c8 68 3d cb df 56 3d
       -0.06885945 -0.014294122 0.056831654 0.05245952
0002e0 ff 0c 69 bd 6d eb 8b bd 88 36 14 3d 94 ae 81 bd
       -0.05689716 -0.06832013 0.036184818 -0.06332126
0002f0 bc 4c ae 3c b1 40 9c 3d ba ec 58 bd da 87 84 bb
       0.021276824 0.076295264 -0.052960135 -0.004044515
000300 f3 24 93 3c 15 8c b8 bd 01 7b ce bd 5b f9 da bc
       0.017961955 -0.090110935 -0.10082055 -0.02673023
000310 c2 56 03 bc a2 60 30 bd fe 9b 55 3c 8b be 9a bd
       -0.00801629 -0.043060906 0.01303768 -0.075558744
000320 4d 2e 20 bd 7d 50 2a 3d 8d 3a 85 bd 98 60 08 3d
       -0.039106656 0.041580666 -0.06505308 0.033295244
000330 24 9b 81 bd ff fd 87 bc 5d 7b 0b 3c c2 fe 66 bc
       -0.06328419 -0.016600607 0.008513299 -0.014098825
000340 01 2c c3 bd 23 68 50 bb 5e bd fb 3c 22 8b 7e 3d
       -0.095298775 -0.0031800352 0.030729946 0.062144406
000350 b5 ce 50 3c 93 f7 81 3d e3 00 9c bd 81 c6 3c 3b
       0.012744595 0.06346049 -0.07617357 0.002880484
000360 53 40 fa 3c 9c 92 64 3d 49 5a 83 3d b6 fa 32 bc
       0.03054825 0.05580388 0.06413705 -0.010924032
000370 d9 cf e7 3b 0f a4 95 bc 61 8e 95 bd b6 2f 5c bd
       0.007074338 -0.018266706 -0.07302547 -0.05375644
000380 d8 b8 88 3d b0 fe e0 3c e3 02 91 bd 7f 3e eb 3c
       0.06675881 0.027465194 -0.07080629 0.028716324
000390 19 45 80 3d 69 35 0b 3d 9f cf 98 3d 8b 12 42 3d
       0.06263179 0.033986483 0.074614756 0.047380965
0003a0 a8 61 70 bd 93 12 bf 3c 7d 92 17 bd cf fc 87 3d
       -0.058686882 0.023324287 -0.037004936 0.06640016
0003b0 7f 2f a3 3c c4 06 2e bc e7 4c b8 bd 1b 52 c5 3c
       0.019920109 -0.01062173 -0.08999043 0.024087003
0003c0 87 d7 a6 3c a3 43 84 3d 52 8b 62 bc 4c 0b cc bd
       0.020366443 0.06458213 -0.013827162 -0.09963092
0003d0 aa 98 cb 3c 46 65 7f bd 9b 48 bf bd 7b 8f 78 bd
       0.02485307 -0.06235244 -0.0934002 -0.06068371
0003e0 4d 91 7e 3d f4 66 8f bd b2 b5 39 3d 02 73 3f bd
       0.06215029 -0.070020586 0.045339294 -0.04674054
0003f0 59 b7 f1 3c 43 b6 0b bd 7f e2 a3 bc 9f 91 bf bd
       0.029506372 -0.034109365 -0.020005463 -0.09353947

_model.layers.3.bias f4 [128]
000000 21 6f 9f 3d 7e 2c bd bc ba dc dc 3b c0 5b 0b bc
       0.07784868 -0.023092505 0.00674018 -0.008505762
000010 2d 6f 0d 3d 4c 30 56 bc b7 31 89 3c 37 c2 09 bb
       0.034529854 -0.013073038 0.016747339 -0.0021020302
000020 ff 76 5b bd 28 a8 d3 3b 6e 3e 25 3c 6c a0 57 3c
       -0.05358028 0.006459255 0.010085685 0.013160806
000030 57 6c d0 bc 3c 6d e7 3c 9e 05 63 3d 4a 97 e3 ba
       -0.025442285 0.02825033 0.05542528 -0.0017363813
000040 c2 fe 72 bd 39 89 39 bb 8f 13 84 3b 69 e8 ce bb
       -0.059324987 -0.002831055 0.004030652 -0.0063143265
000050 23 c6 50 3d 80 84 af bd d6 16 82 bc ae 98 6e bd
       0.050970208 -0.08570194 -0.01588003 -0.058251075
000060 8d 3f ad 3c 6e e1 9b bd 6d d9 c5 bc 94 86 3d 3d
       0.021148467 -0.07611357 -0.024151528 0.04627092
000070 06 69 b4 3c 4c 8a b3 be d8 1b 91 3d c6 d9 ee bc
       0.022022735 -0.3506645 0.07085389 -0.029156577
000080 a7 ae 79 bd da e3 04 bc cf 16 b8 3a 92 0e 78 bd
       -0.060957577 -0.008110965 0.0014044883 -0.06056077
000090 54 62 5d bd 17 a4 04 bb 55 9d 99 bc ff ad ed 3c
       -0.05404885 -0.0020239407 -0.01875178 0.029013632
0000a0 dc de ee bd fc a6 11 bd 9a 2a 5d bd 9a 61 42 3d
       -0.11663601 -0.03555964 -0.053995706 0.04745636
0000b0 88 3f 39 3c 81 e4 47 bc 66 8a 30 bc 5a bd ac bc
       0.011306651 -0.012200476 -0.010775184 -0.021086384
0000c0 75 c9 bf 3c 64 e6 40 bd 37 a2 ca bc 16 2a 94 bd
       0.023411492 -0.047094718 -0.024735553 -0.0723459
0000d0 91 99 f9 3c 40 38 94 3b 3e b8 ce bd e9 74 2c bc
       0.030468734 0.004523307 -0.10093735 -0.01052592
0000e0 c8 76 03 3c 7a f7 42 3b 1f f5 9b 3d 52 71 a6 bd
       0.008023925 0.0029749558 0.076151125 -0.08127083
0000f0 4f a9 d1 bc 45 9f 27 bc ac 43 8e 3c 0c 94 95 bd
       -0.025593428 -0.010230844 0.017366253 -0.07303628
000100 f7 0d 9e bd d7 1d a7 3d bd 4e 9a bc 01 10 2b 3c
       -0.07717507 0.081599884 -0.018836373 0.010440827
000110 99 30 b5 3c 25 58 84 bd 6a f7 be bd e1 26 6e 3d
       0.0221179 -0.06462125 -0.09324534 0.058142547
000120 44 52 40 bd c7 82 b8 bd 6e f4 d3 bc c4 fa a3 3b
       -0.046953455 -0.09009319 -0.02587339 0.005004259
000130 6d 61 8c bc f2 8f 93 bd e8 01 14 3d 5d 8e dd be
       -0.0171363 -0.0720519 0.03613463 -0.43272677
000140 aa 93 e0 3d 7f da 16 3d 29 e6 ba bd be db 16 bc
       0.10965665 0.036829468 -0.09125931 -0.009207664
000150 fc 7e 94 bd 04 e8 19 be 5d d2 bf bd 25 4f 85 bd
       -0.07250783 -0.15029913 -0.093662955 -0.06509236
000160 f7 93 2b 3d 85 de bf bb 5d 9b e1 3c 66 d0 22 bd
       0.041889157 -0.005855384 0.027539903 -0.039749525
000170 75 48 9c ba d7 96 13 3d 2a 60 75 3a a2 5e 74 3d
       -0.0011923449 0.036032524 0.0009360338 0.05966056
000180 22 b1 60 bd 38 1d 4c 3d c0 a5 84 bd fe 76 53 3c
       -0.054856427 0.049832553 -0.06476927 0.012906788
000190 6f 76 66 3c fb c1 94 3d ae d2 8d bd c9 52 83 3c
       0.014066323 0.07263561 -0.069249496 0.016030686
0001a0 6b fe 49 bd 4d b6 69 bd b5 15 a9 bd 1c 7b bb bc
       -0.049314898 -0.05705862 -0.082560934 -0.022885852
0001b0 bc 52 0b 3d c2 8e b6 3c f9 7d 9f bd e9 2d e5 3c
       0.03401445 0.02228487 -0.07787699 0.027975993
0001c0 70 b9 a5 bd de 4e 9d 3b 81 99 5e bd 3d cd 62 bd
       -0.0809201 0.0048006615 -0.05434561 -0.05537151
0001d0 4a 35 9e bd 74 5c 4d bb 1d ce 99 3d cf 9a 58 3d
       -0.07725008 -0.0031335624 0.07510016 0.052882012
0001e0 e8 80 a7 3c 23 80 bb 3b 6f 2b 81 bd 1f d8 ce bd
       0.02044721 0.005722062 -0.063071124 -0.100998156
0001f0 0f 56 09 3b d8 50 14 bc 5d 75 a1 bc d2 86 86 3d
       0.0020955836 -0.009052478 -0.019709283 0.06568684

_model.layers.4.weight f4 [128, 128]
000000 3c a4 a1 bb d8 53 90 3d b4 94 99 bc 85 0b 95 bd
       -0.0049329083 0.07047242 -0.018747665 -0.07277588
000010 33 a8 29 3d 3a b9 aa 3d 97 8a 47 bd 2d b2 d5 bc
       0.041420173 0.083361104 -0.048716154 -0.026085937
000020 d3 6a e6 3c 8c 60 92 bc 77 88 ac bd 33 f1 87 bd
       0.02812711 -0.017868303 -0.08424466 -0.06637802
000030 67 03 4a bd bf ea a2 3c 93 33 57 3d 56 77 9a ba
       -0.04931965 0.019887326 0.05253942 -0.0011784832
000040 fc a7 79 3b 70 04 3e 3d 7d 54 a5 3c b3 a2 33 3d
       0.0038094511 0.04639095 0.020181889 0.043856334
000050 bf 54 1b 3d f1 ea 5e bd a0 ed a5 bd cf 5a 48 3d
       0.037922617 -0.054423276 -0.08101964 0.048914727
000060 0b 0b a0 bd cd c2 a1 bc f9 3a 40 bd c4 08 ae bb
       -0.07814606 -0.019746209 -0.04693124 -0.0053111035
000070 b9 4b 86 bd ec 05 a9 3c 1e 70 96 bd 90 f1 d7 3c
       -0.06557412 0.020632707 -0.073456034 0.026360303
000080 b7 d6 b1 bc 77 4c 81 bd 66 52 39 bb 75 a9 34 3d
       -0.02170883 -0.06313413 -0.0028277873 0.04410692
000090 85 50 99 3d 72 9a 9f 3d 42 16 f7 3c 90 37 65 3d
       0.07486061 0.0779313 0.03016198 0.05596119
0000a0 23 55 a1 bd be 2a b4 bd ab 38 8e bd ff 6b ab 3c
       -0.07877567 -0.08797215 -0.06944402 0.02092552
0000b0 e0 34 12 bd 5f 43 b3 3d 3f 9a ff bc 73 cc 27 3d
       -0.035694957 0.087530844 -0.03120148 0.040966462
0000c0 77 ae 9e bd 83 02 8d bd 67 76 82 bd d0 16 01 3b
       -0.0774812 -0.06885245 -0.0637024 0.0019697435
0000d0 09 dc 9e 3d e1 7f 6e bd 37 58 16 3c 21 8e 00 bd
       0.07756812 -0.058227424 0.0091763055 -0.031385545
0000e0 68 0c 47 3c 7e 59 af bd ce 89 9e 3c 39 2e 98 bd
       0.012148954 -0.08561991 0.01935282 -0.07430691
0000f0 b7 78 fe 3c d3 87 8e bd 41 8c 8d bd c5 09 97 bd
       0.03106342 -0.069595 -0.06911517 -0.0737491
000100 ce a8 b2 bd c5 b9 6c 3d c5 1b 87 3d 17 f0 a2 3d
       -0.08723603 0.05779435 0.065970935 0.0795595
000110 2c 80 af 3d c5 2e f2 bc 89 bf d3 bc 96 09 03 bd
       0.08569369 -0.029563317 -0.025848167 -0.031991564
000120 4e 66 71 39 46 bc 25 bd 44 c6 06 bc 53 51 36 3c
       0.00023021662 -0.040462755 -0.008225981 0.011127788
000130 9f f7 a5 3d 3b 30 95 bc 2e e9 15 bd 97 fd 5a 3d
       0.081038706 -0.018211475 -0.03659933 0.0534645
000140 9a 94 96 bc 68 96 ac 3d f0 fb 8e 3d aa ca 37 bc
       -0.018381406 0.08427125 0.06981647 -0.0112177525
000150 a7 5b cb bc 28 c7 34 3d 1e 53 a3 bd 7b f6 e6 bc
       -0.024823977 0.044135243 -0.07974838 -0.028193703
000160 7c 68 83 bd 4d 22 85 bc 7d a6 37 3d 80 c2 a2 3d
       -0.06416413 -0.016251707 0.04483651 0.07947254
000170 79 cc cb bc 53 25 86 3c 57 4d cc bc 53 3a 1c 3c
       -0.024877774 0.01637522 -0.024939222 0.00953539
000180 b3 a7 72 bc 5e 3a 55 3d 77 ab 3b 3d e1 d1 1d bd
       -0.01481049 0.052057616 0.04581782 -0.038530234
000190 49 35 5f 3d 5b d1 40 3d e3 63 62 3c ac fe 1f bd
       0.054494176 0.047074657 0.01381776 -0.039061233
0001a0 cf 84 6b 3c fb c1 24 3d 61 be 06 3c fd 9d fc 3a
       0.014374926 0.040224057 0.008224101 0.0019273158
0001b0 86 66 24 3d 53 11 c2 bc 54 a2 47 bd b9 dc 68 bd
       0.040136836 -0.023689901 -0.048738793 -0.056851123
0001c0 9d f3 13 3c 9a 15 14 3d 0d e7 87 bd 05 ac b3 bd
       0.00903025 0.036153413 -0.06635866 -0.087730445
0001d0 b5 1d 5c 3d c4 00 1f bd 5a 0f a2 bd a8 c1 58 bc
       0.05373927 -0.03881909 -0.07913084 -0.013229765
0001e0 d1 0e 56 3d ec 46 c8 bc 45 e1 aa 3d 79 4f 8f 3d
       0.052260224 -0.02444788 0.08343748 0.0699758
0001f0 19 b1 13 3c 8c 8c c3 3c cd 23 0f 3d 38 d7 32 bd
       0.009014391 0.023870729 0.03494625 -0.04366228
000200 d7 37 2e 3d b1 05 af 3d 57 6a 40 3d b6 55 03 be
       0.04253372 0.085460074 0.046976414 -0.12825665
000210 0f 3e 4a 3c 9c fa c2 3c 99 07 35 3d 40 98 83 3d
       0.0123438975 0.02380114 0.0441967 0.06425524
000220 af 5a a7 bd cc 8c 56 3d 94 63 1b 3d 64 3e 0c 3d
       -0.081715934 0.052380368 0.037936762 0.034239188
000230 45 5f f0 bd e7 c7 0b bb a0 10 e8 3d 0b e5 49 3d
       -0.11736921 -0.0021328868 0.11331296 0.049290698
000240 18 c9 e4 3d 43 76 7b bd 83 2f c9 3d 81 25 19 3d
       0.11171168 -0.06139208 0.09823515 0.037389282
000250 55 65 01 3d 7a a3 98 bd cd 9f 12 3e 1e 39 5d 3c
       0.03159078 -0.07453056 0.14318772 0.013502387
000260 b7 bd 92 3d 5c 5a 14 3b a2 bc 90 3d 6e c9 dd 3c
       0.071650915 0.0022636866 0.07067229 0.027073588
000270 16 87 4d 3c 61 7d 65 3b 42 21 a7 3c e5 f0 a9 3c
       0.012544414 0.0035017359 0.0204016 0.02074475
000280 f7 69 9a 3b e8 88 41 3d 5e 3a f6 bd 5d 93 b0 bc
       0.004712339 0.047249705 -0.120228514 -0.021554643
000290 8e 9c 0c 3c 13 51 a6 bc 93 f9 a0 3c e1 56 e8 3c
       0.008582247 -0.020302331 0.019650256 0.02836174
0002a0 69 1b 59 bd 27 9d 9f 3d 51 0a 8a 3d 85 af 72 3d
       -0.053004656 0.07793646 0.06740249 0.05924942
0002b0 f8 5a 36 3d 65 9c a5 bc 76 24 19 be 38 24 a3 bd
       0.04452035 -0.020216176 -0.14955315 -0.079658926
0002c0 e4 ca 36 3b dd 99 9e 3b 2d 4e a8 3d 76 26 06 3d
       0.0027891928 0.0048401193 0.08218036 0.032751523
0002d0 a9 e3 5b bd dc a4 20 3c 9b 59 8f 3d a0 5c 23 3d
       -0.05368391 0.009804931 0.06999513 0.039883256
0002e0 1c af a1 3d 64 c7 62 3c 47 61 8a 3c 45 80 a1 3d
       0.078947276 0.013841484 0.016892089 0.078857936
0002f0 13 b2 d1 3c 88 f0 17 bb 20 ea 74 bd 12 af a2 bd
       0.025597608 -0.002318414 -0.05979359 -0.07943548
000300 2a 08 e2 bc 89 49 47 3b e5 d0 31 3d 0e 7c 28 3d
       -0.027591784 0.003040882 0.043412108 0.041133933
000310 12 ed 4b bd 07 c5 2c bc ab 3c a2 bb 28 c2 28 3d
       -0.049786635 -0.010545022 -0.00495108 0.041200787
000320 9f ac 8c bd bd dc 1b 3d b1 b7 14 3e 64 ab f1 bc
       -0.06868862 0.03805231 0.14523198 -0.02950067
000330 63 d2 2f bd 02 90 e7 3c eb 76 a4 3d 52 93 f4 bc
       -0.04292525 0.02826691 0.08030494 -0.029855404
000340 3a 09 6c bc 57 3d d7 bc f0 ac 44 3c 5c f6 b0 3d
       -0.014406497 -0.026274366 0.012004122 0.08640739
000350 54 35 de 3c 80 46 8f 3d c7 18 a0 3d 14 c0 61 3d
       0.027125038 0.06995869 0.07817226 0.05511482
000360 29 f6 e1 3c 87 a9 b8 3c be 44 b2 3c 6e 4b a7 bd
       0.027583199 0.022541774 0.021761294 -0.08168684
000370 53 a9 7c bd 29 28 72 3d af 35 12 3e 63 5b 8c 3a
       -0.061684918 0.05912033 0.14278291 0.0010708388
000380 b4 66 7f 3d 8b 05 94 3b 29 d5 03 3a 07 8c ff bc
       0.062353805 0.0045172623 0.0005029017 -0.0311947
000390 fa 6c d2 3d 1f 13 2e 3d 4c fa 4e 3d f7 48 15 3d
       0.10274692 0.042498704 0.05053167 0.036446538
0003a0 2c c8 55 3e 1e d2 49 bd 96 e2 c8 bd 73 6c 49 3d
       0.20877141 -0.04927265 -0.09808843 0.04917569
0003b0 c3 f1 a8 bb 5c 6d dd 3d 9c 01 88 3d b7 e4 16 bc
       -0.0051557734 0.10811874 0.06640932 -0.009209803
0003c0 2e b1 7a 3d 82 51 3a bc af 40 4f 3c ea 26 88 3c
       0.061204128 -0.011371972 0.012649699 0.016620118
0003d0 a9 b4 10 3d 33 1c 24 bd 7e 4d 03 3d 8d 26 cd 3b
       0.03532854 -0.040065955 0.032056324 0.006260699
0003e0 73 39 0b 3e df 6c a7 bc 11 16 af 3d 35 27 99 3c
       0.13596134 -0.020437656 0.08549131 0.018695453
0003f0 88 b1 9f bd 22 6c 0e 3d 1d c4 aa 3c 14 00 6d 3b
       -0.07797533 0.034771092 0.020845467 0.0036163377
