DRL_py_beta/model/trained_model/best_model_train_0.0001_n_history30_neurons50_layers5.pt (torch, 229075 bytes, 12 tensors)

_model.layers.0.weight f4 [50, 510]
000000 2d bb 81 3d ca ed 8b bc 4e e8 fa bc 9d 17 cd 3c
       0.06334529 -0.01708116 -0.03062835 0.025035674
000010 9f d0 98 3d 4b cb 81 3c 1e fa d6 bb 73 f2 d0 3c
       0.07461666 0.015844008 -0.006560578 0.025506234
000020 24 61 88 bc 07 e2 52 3e dd de 02 3c d0 58 99 3d
       -0.016647883 0.20594035 0.007987705 0.07487643
000030 0a a8 0f bd 66 09 b1 3c 66 c9 91 bc 10 0e ab 3c
       -0.035072364 0.021610927 -0.01779623 0.020880729
000040 af 76 b7 3a 43 5a 87 3b 86 99 20 3d a0 8d 23 3c
       0.0013997162 0.004130633 0.03920891 0.0099824965
000050 30 a7 88 3d 0e 8e 2b 3c da 27 ae 3c 25 e1 ea 3c
       0.066725135 0.01047088 0.021259237 0.02867181
000060 bc c3 29 3d 19 cb 09 bc 5d f0 1f 3e 22 99 16 3b
       0.041446432 -0.008410239 0.15619035 0.0022979458
000070 74 60 a3 3d 64 25 8b bc 8b a8 9a b9 00 86 2e bb
       0.07977381 -0.016985603 -0.00029498743 -0.0026630163
000080 71 d6 8f ba fb b5 06 bb 16 4a 1f 3d 03 b5 9f bc
       -0.0010973943 -0.0020555246 0.038889013 -0.019495493
000090 84 c7 cd 3b 66 e9 8d bc b8 b6 56 3d be 82 4e 3d
       0.0062798876 -0.017323207 0.052420348 0.050417654
0000a0 c0 a6 4d 3b b8 5c 97 bb 8a b5 0f 3d df 23 7f 3d
       0.0031379908 -0.0046192072 0.03508524 0.06229007
0000b0 ec 4b b0 bc ba fc 95 3d 15 3b 76 3c d3 42 76 bd
       -0.021520577 0.073235944 0.015028735 -0.060122322
0000c0 4a 9c 3c 3c 42 ed 98 3c 7e a1 d7 3a 50 df 7a 3c
       0.011511872 0.01866782 0.0016451327 0.015312031
0000d0 71 ad 0b 3d 2e 80 52 3b 30 68 01 3c cc 8c 98 3c
       0.034100953 0.0032119858 0.007898375 0.018621825
0000e0 c8 d3 18 3d 07 eb 14 bc 9b 21 b3 bc 9f 5a 28 bc
       0.037311345 -0.009089238 -0.02186661 -0.010275512
0000f0 27 e4 8d bc b1 e2 7c 3d c7 08 9f 3d 82 81 d3 ba
       -0.017320706 0.061739627 0.07765346 -0.0016136619
000100 c6 28 46 bd 91 1c 3e bd ee b4 84 bc c2 f4 0d bc
       -0.04837873 -0.04641396 -0.016199555 -0.008664312
000110 1a 61 b4 bc 54 62 a2 3b 77 d0 2d bc 4d 79 92 3c
       -0.022018958 0.0049555693 -0.010608784 0.017880106
000120 e5 b5 ac 3b 09 46 3d bd 68 23 f2 3c 7d 2e 12 3d
       0.005270707 -0.04620937 0.029557899 0.035688866
000130 89 5f 05 3d 7c 2e 0e bd 67 36 54 3d 0e 0c f0 3c
       0.032561813 -0.0347123 0.051809695 0.029302623
000140 94 e2 ba bc 41 ba ce ba 36 c3 3f bd 8f 9b c7 bc
       -0.022813119 -0.0015772061 -0.046817027 -0.024366168
000150 3d 32 ea bc c2 f9 f8 3c d1 06 0e 3d 9e cc fb bc
       -0.028588409 0.030392531 0.03467447 -0.030737218
000160 7c a8 e5 3a 4c 11 5c bc 8c 3c af bb 3f 9c 46 bd
       0.0017521526 -0.013431858 -0.005347794 -0.04848885
000170 f6 fd 11 bd 08 e0 0a bd 71 1e 63 3b 10 c1 05 bd
       -0.035642587 -0.03390506 0.0034655596 -0.032654822
000180 8d bb a7 3c e4 96 4d 3b 36 d1 46 bd 25 63 83 bc
       0.020475173 0.0031370455 -0.048539363 -0.016038487
000190 5e 3c 25 bd c2 af 92 bc 39 3a eb 3b e4 45 e8 3c
       -0.040340774 -0.017906073 0.0071785715 0.028353639
0001a0 e6 01 9e 3c 51 a2 e8 3b d1 b3 d7 bc d8 3e 99 bd
       0.019288015 0.0070994277 -0.02633086 -0.074826896
0001b0 b3 bd 14 bd 46 23 b5 3c e3 56 38 bc ad 5b 1b bd
       -0.036313724 0.022111546 -0.011251184 -0.037929226
0001c0 74 43 cb 3c e7 db 5a 3d 92 50 1b bd c2 75 d6 3a
       0.024812438 0.05343237 -0.037918635 0.0016361999
0001d0 c8 69 c2 bc 30 5a 7d 3c e5 ce 29 bc 6f b8 ea 3c
       -0.023732081 0.015463397 -0.010364269 0.028652398
0001e0 a4 72 af bb b6 4e 3c 3d 1e a9 08 3d 49 a6 d3 bc
       -0.0053542424 0.045973502 0.033364408 -0.025836127
0001f0 b8 a6 31 bd 61 c3 a3 3c 2b d2 09 bd 41 96 04 3d
       -0.043371886 0.019990625 -0.033647697 0.032369856
000200 e6 23 f4 bc b1 1b 23 bc 06 eb d2 b8 c2 a6 7c 3c
       -0.029802274 -0.009955333 -0.00010057357 0.015420618
000210 7a c2 a5 3b e8 da 1c bc 26 2a 6c bc 5f 62 92 bc
       0.005058584 -0.009573676 -0.014414346 -0.017869173
000220 46 e6 db bc aa be 3c 3d 2b f9 ae 3c a9 c8 64 3c
       -0.026843201 0.04608027 0.021359047 0.013963857
000230 b1 73 ec bc 23 3c 36 bd b8 22 e8 3b df 89 c6 3c
       -0.02886376 -0.044490945 0.007084217 0.024235664
000240 ce cc 50 3c a0 4a 50 bd 9b 9a a9 bb 4b 04 84 3d
       0.012744142 -0.050852418 -0.005175901 0.06446131
000250 93 c6 e2 3c 64 6b 89 bd 01 6a 95 bc ac 45 a2 bc
       0.027682578 -0.06709936 -0.018239023 -0.019808613
000260 2c c8 eb bc 7c 39 2c bd fe 31 25 bd 03 5c 7d bc
       -0.028781973 -0.04204701 -0.04033088 -0.015463832
000270 64 b2 57 3c e2 78 cc 3c de 51 a3 bd 77 9b 34 bd
       0.01316509 0.024959985 -0.07974599 -0.044093575
000280 e0 79 1a bd f9 b0 f4 3c 7d d2 83 bc 4a 49 35 3d
       -0.037713885 0.029869543 -0.01609158 0.044259347
000290 41 c2 85 3d d9 b7 46 3c 5a d9 0b bd 9a 08 d5 bc
       0.065311916 0.012128794 -0.03414283 -0.026005078
0002a0 75 ac 0f bd 9b 71 01 bd 0b 5b 35 bd 09 e2 66 3b
       -0.035076577 -0.031602483 -0.04427628 0.0035229942
0002b0 a9 46 d8 bc 4c aa 4e 38 72 72 b3 3b 3b 61 83 bd
       -0.02640088 4.927283e-05 0.0054762894 -0.064150296
0002c0 80 28 01 3c a4 55 9d bc 20 4f 2b bc 38 58 ee bc
       0.007883191 -0.019205876 -0.010455877 -0.0290948
0002d0 da 0f cb 3c 58 84 df 3c 02 c8 5e bc 07 89 ca bb
       0.024787832 0.027284786 -0.01359749 -0.0061808857
0002e0 d3 e4 cb 3c fe c1 5f bd 0c be 11 bd d2 c1 cb bc
       0.024889385 -0.054628365 -0.035581633 -0.024872694
0002f0 58 2d 8e bc 3d 89 24 3d 4b 26 2c 3d bd 8f 26 bc
       -0.017355606 0.040169943 0.042028707 -0.010166106
000300 e5 e7 9e bd 20 6d c0 bc 43 20 02 3d d0 ac d3 3b
       -0.07759074 -0.023489535 0.03176905 0.00645981
000310 26 33 84 3c 16 4f d9 bb 63 de 80 3a 87 c7 68 bb
       0.01613767 -0.006631742 0.0009831901 -0.0035519318
000320 80 92 c0 3c d5 9c 16 3d 1c 5e 0f bd fd e4 fb bc
       0.023507357 0.03677066 -0.03500186 -0.030748839
000330 3c be 1d bc 18 b0 7d 3c db 25 74 3d f7 76 15 bb
       -0.009627875 0.015483879 0.059606414 -0.0022806504
000340 7c 8c 10 3b 72 d3 fc 3a af 2d 25 bc c6 d0 2b bd
       0.0022056391 0.001928909 -0.010081693 -0.04194715
000350 ec 8e df 3c ef 05 2e 3c 40 4c b1 bc 26 65 5d 3c
       0.02728983 0.010621532 -0.021642804 0.013512885
000360 8d 43 59 3d e2 a9 8a 3c c9 c9 b5 bc de 72 31 bd
       0.053042937 0.01692671 -0.022190945 -0.043322437
000370 38 86 ef bc 14 5b c8 bb 97 dd ff 3b a2 a6 28 3d
       -0.029238805 -0.006114373 0.007808398 0.04117454
000380 a9 f2 44 bc f0 78 6d bb 0e d0 15 bd 03 e1 d8 3b
       -0.012020745 -0.0036235414 -0.03657537 0.0066186204
000390 63 f1 03 3c bd 03 db bc 77 60 19 bd c4 d7 5c 3b
       0.008053157 -0.026735181 -0.03744551 0.0033697942
0003a0 03 17 1d 3d 1e 26 39 3d 75 2a 12 bd 14 76 db 3b
       0.038352024 0.045202367 -0.03568502 0.0066974256
0003b0 a6 a3 8a bc e6 ce 22 bd 8a 2f 96 3c 67 a6 a8 3c
       -0.016923737 -0.039748095 0.018333215 0.02058716
0003c0 b7 53 23 3d c7 69 f1 3c 84 d2 db bb 09 1c df 3b
       0.03987476 0.029469384 -0.006708445 0.006808762
0003d0 8b 4e e1 bc 52 d8 bf 3c eb df cb bb 21 de 0c 3d
       -0.027503273 0.02341858 -0.0062217615 0.034391526
0003e0 c4 c9 da bb 28 7a ea bc 35 7d a9 3b 08 c3 a0 bc
       -0.0066768844 -0.028622702 0.0051723965 -0.019624248
0003f0 dc 19 41 3d c4 5a 09 bd 02 32 41 bc dc 02 e5 bb
       0.047143802 -0.033533826 -0.011791708 -0.0069888663

_model.layers.0.bias f4 [50]
000000 b8 67 d3 bc 09 23 bc 3a f4 9f b2 3c f2 67 92 3c
       -0.025806293 0.0014353703 0.021804787 0.01787183
000010 fd 51 25 3d a2 34 99 3c f4 ed 04 3d a9 be 07 3b
       0.040361393 0.018701855 0.032453492 0.0020713008
000020 6c 30 00 bb d5 39 80 bc c5 8b 25 3d 62 56 11 3c
       -0.0019560112 -0.015652576 0.040416498 0.008870693
000030 29 c3 9c bc 00 a3 f2 bc f0 83 2b bd d4 57 19 3d
       -0.019136028 -0.02961874 -0.041873872 0.037437275
000040 ce 75 9e bc 2a 3a a3 3c aa 21 82 3b 3d 10 a7 bb
       -0.019343283 0.019925196 0.003971298 -0.0050983713
000050 ad d0 be 3b 2b 70 02 bd 3f 98 a4 bc 89 73 dd 3c
       0.005823216 -0.031845253 -0.020092128 0.02703263
000060 d6 2a 03 3d 89 05 d7 b9 dd bb 45 3d f4 54 14 bd
       0.032023273 -0.0004101212 0.048274864 -0.03621383
000070 8a 24 ce 3c c6 8b 02 bd e0 68 0e bd 73 03 18 3c
       0.025163908 -0.03187158 -0.034767985 0.009278166
000080 33 c5 1f bd 86 7a b5 bc ae ac c3 ba 2e 60 06 3d
       -0.039006423 -0.02215315 -0.0014928782 0.032806568
000090 ea 0f c4 3c d1 4b 58 3b 62 a5 ff 3a b7 ee 53 3c
       0.02393337 0.0033004174 0.0019504244 0.012935332
0000a0 67 01 ea 3b 3b 11 c4 ba 4e d3 53 3d 44 26 00 3d
       0.0071412805 -0.0014958748 0.051715188 0.031286493
0000b0 ff cb 25 bd 62 17 7a 39 be 52 5c 3d db e7 9e 3c
       -0.04047775 0.00023850569 0.053789847 0.019397667
0000c0 20 c1 0e bd 0d 1d a7 3c
       -0.034852147 0.020399595

_model.layers.1.weight f4 [50, 50]
000000 e9 b4 9e bd 22 f6 d1 3d 0e db 66 3d e4 90 05 3e
       -0.077493496 0.10252024 0.05636125 0.13043553
000010 e6 7a 6d bc c7 e4 69 3d a6 53 fc 3d ce 47 d7 bd
       -0.014494633 0.057102945 0.12320642 -0.105117425
000020 d8 b7 9e bd 9c 4b 10 be 4d 64 84 3c b5 8a 43 3c
       -0.07749909 -0.14091343 0.016161108 0.011934926
000030 44 cf b0 3d b4 3b 11 bb 81 41 a3 3d e3 c4 57 3d
       0.08633283 -0.002216083 0.07971478 0.052678
000040 19 05 ee 3d c9 ca d1 bc 65 20 0e 3c 3d a1 d2 bd
       0.11622066 -0.02560939 0.008674716 -0.1028466
000050 2d 5a fa 3d 1e 79 9a bd ee 86 13 3c 1a 19 8f 3d
       0.12224231 -0.075426325 0.009004338 0.069872096
000060 b6 2e 86 bd 65 06 c2 3d 31 59 09 3e a1 29 46 bd
       -0.06551878 0.09473876 0.1341293 -0.048379544
000070 3d a2 58 3d 7d 78 92 bd e3 bd ea bd ca 99 f9 bd
       0.052889097 -0.071518876 -0.11461999 -0.12187536
000080 62 51 a9 3d 70 c7 b3 3d 86 29 79 3d 55 ca e0 bc
       0.08267476 0.08778274 0.060830615 -0.02744023
000090 e2 83 86 3d 67 cc 9c bd 04 11 1f 3d 4e 8b f3 3b
       0.065681234 -0.07656174 0.038834587 0.007432378
0000a0 d8 a4 8b 3d dd 50 85 3c 8e e7 d5 bd 9e 77 f5 bd
       0.06818551 0.01627391 -0.10444556 -0.11985706
0000b0 4b a2 e0 3d 96 41 bf bc c9 4b 00 be 19 5e 0f be
       0.10968455 -0.023346703 -0.1252891 -0.14000739
0000c0 df 28 ab bd a6 e5 84 bd d6 a9 20 3d 7c 82 f3 3c
       -0.08357405 -0.064891145 0.03922447 0.029725306
0000d0 93 29 76 3d c0 1b c3 bd e7 3f e9 3d 2c c6 b8 3c
       0.060098242 -0.09526777 0.113891415 0.022555433
0000e0 fd c0 0e be c3 41 ff bd 21 0b 20 3d d7 56 d9 bd
       -0.13940807 -0.12463715 0.039073113 -0.106122665
0000f0 c8 c9 81 bd 6f 97 ea bc e8 53 4a bb 89 15 61 bd
       -0.06337315 -0.028636662 -0.0030872766 -0.05495218
000100 47 01 0c be b9 30 d7 3c df 3e db 3d 6c be 9d 3c
       -0.13672362 0.02626835 0.10705351 0.01925584
000110 b3 2c 55 3c c2 59 80 3d 3d 25 a7 3c df 07 aa 3d
       0.013011145 0.0626712 0.020403499 0.083022825
000120 14 54 2e 3d f2 11 d5 bd 50 cf 9b 3d aa 36 a5 bd
       0.042560652 -0.104038134 0.07607901 -0.08067067
000130 c4 a3 fe ba 90 8c d3 3d 42 a0 0e 3e b3 80 c4 3d
       -0.0019427468 0.103295445 0.13928321 0.0959486
000140 8e ef 29 be b0 11 b4 bd 20 37 b4 3b b9 08 9a 3d
       -0.16595289 -0.08792436 0.0054997355 0.07521195
000150 c4 0b 94 bd 6e bc 58 3d 97 6d fa bd b3 54 f7 bc
       -0.072288066 0.052914076 -0.12227934 -0.030191755
000160 d5 86 09 3e 04 93 59 3c 8a 25 f3 3d 1c fe 97 bd
       0.1343034 0.01327968 0.118723944 -0.074215144
000170 54 8b 8d 3d da c2 d4 bd e7 73 0a be 0b 63 9a 3d
       0.0691134 -0.103887275 -0.13520776 0.07538422
000180 c5 7e de 3d ee 4a bc 3c 9a dc 81 3c 1c e0 06 3d
       0.10864023 0.022984948 0.015852261 0.03292857
000190 11 82 fc bc 70 d1 68 3c 43 bb f5 bd 63 af be 3d
       -0.03082374 0.01421009 -0.11998608 0.09310796
0001a0 fb 1b ce bd f4 86 47 be 23 1c 5d 3c 3a d7 3e 3b
       -0.100639306 -0.19485074 0.013495478 0.0029119984
0001b0 23 d5 ab 3d c7 de 19 3e ab 46 01 bd 3c 18 37 3c
       0.08390262 0.15026389 -0.031561535 0.0111752115
0001c0 99 14 b4 3d 75 bb 99 bd 3e 0a 03 3e fa 17 85 bc
       0.08792991 -0.07506458 0.12796876 -0.016246784
0001d0 ac dd 24 bd c6 dc ae bd 86 15 f7 bd bb e2 bc 3d
       -0.040250465 -0.08538203 -0.12064652 0.09222933
0001e0 2b 07 e3 bc a3 f2 9c 3d cf c6 ad bd bd 7c d4 bd
       -0.027713379 0.07663467 -0.08485185 -0.103753544
0001f0 78 b5 12 3d 8a 6e 13 3e a9 91 20 3e 8e ea be bd
       0.035817593 0.14397636 0.15680565 -0.093220815
000200 36 d7 17 3e 25 67 0b 3d 8c 70 2d 3e 0e 06 8f bd
       0.1482819 0.034033913 0.16937464 -0.06983577
000210 f0 60 62 3d a6 49 cb 3d 11 58 7f 3d ad 64 d5 bd
       0.055268228 0.09926157 0.062339846 -0.10419593
000220 9c f7 91 3d b0 bb 14 3e d1 46 1d 3c dd 44 c1 3d
       0.07127306 0.14524722 0.0095994035 0.09436963
000230 5c b9 36 3b e8 d2 48 bd b5 c5 30 3a b8 d4 09 3e
       0.002788148 -0.04902926 0.0006743328 0.13460052
000240 0b 1e b6 3d 26 23 34 bc 7b c2 15 3e 86 dc 9d 3d
       0.08892449 -0.010994708 0.1462497 0.07708077
000250 5f 80 c8 bd 6d 40 2c bd 1a 17 9e 3d 63 02 58 3c
       -0.0979011 -0.04205363 0.0771925 0.013184163
000260 14 eb bc 3d 57 65 1d 3e 36 98 f4 3d f8 d5 74 be
       0.09224525 0.1537069 0.119430944 -0.23909748
000270 fe e2 9e bc dc 74 1e 3e 08 76 0a 3e 93 1e 9e 3d
       -0.019395348 0.15474266 0.13521588 0.07720675
000280 64 bf db bd ed aa 08 3d 14 2e 28 be 08 3c 5c b9
       -0.10729864 0.033366133 -0.16423827 -0.00021003198
000290 8e 49 fa 3d aa 75 96 bd 09 5b 78 3c 28 af 6c be
       0.12221061 -0.073466614 0.015158423 -0.23113692
0002a0 e3 01 9d 3b 0b 02 7d 3d d1 a5 9f bd 53 7a ac bd
       0.0047914847 0.061769526 -0.07795299 -0.08421769
0002b0 cc 7f fb 3d 9d dc a3 3d 74 e1 8f 3e 53 7d 14 bc
       0.12280235 0.08001063 0.28101695 -0.009063083
0002c0 56 ac 0d 3e 3a e1 db 3d 05 e0 e1 bd d7 db f6 bd
       0.13835272 0.10736318 -0.110290565 -0.1205365
0002d0 c7 9e 87 bb 7b 40 d3 3d 19 a3 fc 3d 8f 18 fb bc
       -0.004138801 0.10315033 0.12335796 -0.030651359
0002e0 2d 16 db 3d 37 0b 08 3e 0c 26 7c bd cc 34 83 bd
       0.10697589 0.13285528 -0.06155972 -0.064065546
0002f0 64 07 be bc e4 f1 11 bd 85 67 11 bd 46 f4 da 3d
       -0.023196883 -0.035631076 -0.035499115 0.10691123
000300 70 a6 82 3e ea 38 d7 3d e8 66 bc 3a 1a 6f 75 bd
       0.25517607 0.10508902 0.001437393 -0.059920408
000310 cc 59 d1 3d da 96 15 3d 98 2e b3 bd 7f 0b f8 bd
       0.102222055 0.036520816 -0.087491214 -0.12111568
000320 e7 b4 d4 3d 00 fa cc 3c e4 5a 0a be 37 7e 0f 3e
       0.10386067 0.025021553 -0.13511235 0.14012991
000330 ab 78 74 3d 08 a6 d6 bd b8 b6 f4 3d 22 bd 3d bd
       0.05968539 -0.10480887 0.11948913 -0.04632295
000340 fb de 12 bd 8f aa 1b 3e 3e 06 d2 bd e5 ad a9 3d
       -0.035857182 0.15201782 -0.10255097 0.08285121
000350 54 24 89 3d 0e 9f ea bd 13 c4 9c bc eb 5f e8 bd
       0.06696382 -0.114561185 -0.019136464 -0.1134642
000360 fc 7e ff 3d 45 55 0d be 24 e3 0d 3e 65 21 03 3e
       0.12475392 -0.13802059 0.13856179 0.12805708
000370 a9 85 3f 3d d6 da 81 bd 63 ef a3 bd 47 1f 14 3e
       0.046758328 -0.06340568 -0.08004644 0.14465056
000380 04 30 ef bd 31 90 41 3d 4b a8 c0 3d d2 ff 05 3d
       -0.1167908 0.047256652 0.09407099 0.032714672
000390 59 3d b3 3d dc 6f 45 bd 0c 27 e2 3c 4d 76 25 3d
       0.087519355 -0.04820238 0.02760651 0.040396024
0003a0 f9 97 39 bd 8e 1c 09 3e c5 da e4 bb 83 8a c5 bd
       -0.045310948 0.13389799 -0.006984087 -0.0964556
0003b0 d7 bd 07 3e 42 04 24 3d 60 14 f6 bc b9 80 c2 3d
       0.13256012 0.040043123 -0.030039012 0.09497208
0003c0 38 f8 52 3d bf 15 07 3e 06 03 6a be dc 6d 31 bd
       0.05150625 0.13191889 -0.22852716 -0.04331766
0003d0 04 93 02 3e 5b f6 41 bd 85 2e 72 3d d9 71 62 bd
       0.12751395 -0.047354084 0.059126396 -0.055284355
0003e0 67 56 c1 bd 84 72 09 3e b6 f3 09 ba 58 84 09 3e
       -0.09440308 0.1342259 -0.0005262451 0.13429391
0003f0 f9 e4 cd 3d d5 12 0c 3b 12 6c 02 bd d9 5a 44 3b
       0.10053439 0.002137353 -0.031841345 0.0029961376

_model.layers.1.bias f4 [50]
000000 ca 75 97 bd 8b 0b 74 3d 92 6d 1d bd 7c f9 a0 bd
       -0.07395513 0.05958132 -0.038434573 -0.07860085
000010 5b 59 ad bd ef 95 b6 3d 2b fc d8 bd 91 c8 05 bd
       -0.08464309 0.08915316 -0.10594972 -0.03266198
000020 02 df dc 3d 70 90 4a bd 24 b5 a7 3d 48 f4 d3 bd
       0.10784723 -0.049454153 0.08188847 -0.10349327
000030 e0 a2 56 ba f1 09 0b be f6 dd 27 bd 5a d3 5a bd
       -0.00081877224 -0.13578011 -0.040983163 -0.053424217
000040 ef 48 15 bc a7 1f 62 3c 03 1a c2 3d 35 bc f6 3c
       -0.009111627 0.013801492 0.094776176 0.030119041
000050 01 43 88 3b bb c1 4b bd 64 32 de bd b8 fc 9c 3c
       0.004158378 -0.049745303 -0.10849455 0.019163474
000060 81 5d cf 3d d9 92 de 3d 52 26 cc bd f3 95 a4 bb
       0.10125256 0.10867853 -0.099682465 -0.005022758
000070 68 bc d7 3d 14 db 82 bc 68 20 4f 3d f2 8d cf 3d
       0.105339825 -0.015973605 0.050568014 0.10134496
000080 1f ed 8d bd 16 27 05 be da 57 0f be c5 c0 31 bd
       -0.06929993 -0.13003191 -0.13998356 -0.04339673
000090 89 04 7a bd 3d b0 36 bd 87 a4 f0 bd 9f 27 a1 3d
       -0.06103948 -0.044601668 -0.11750131 0.07868885
0000a0 67 15 8a bd be 73 d4 3d a6 7e ff bc cf 4b 23 bb
       -0.067423634 0.103736386 -0.03118832 -0.0024917012
0000b0 48 91 8f bc d9 39 95 bd c5 d2 81 3b 77 4c 20 bd
       -0.01752533 -0.07286424 0.0039618933 -0.039135423
0000c0 58 bd f7 bc fe c5 ae bd
       -0.030241653 -0.08533858

_model.layers.2.weight f4 [50, 50]
000000 2c fc 8b 3a 68 e3 b6 bc db 36 0c 3c b4 bc e6 3c
       0.0010680011 -0.022325233 0.008558 0.028166153
000010 03 09 27 3e 12 b3 05 3e 95 a3 9b 3a 5a c4 a4 3d
       0.16312031 0.13056591 0.0011874313 0.080452636
000020 38 e7 7a 3d d5 3a ec bd ff 31 47 bd 34 ce 79 bc
       0.061255664 -0.11534659 -0.048631664 -0.015246917
000030 d9 21 cf 3d cb 2d 14 bb 96 90 4f 3d e0 e0 1a be
       0.10113878 -0.0022610303 0.050674997 -0.15124846
000040 4f 5e cd 3d 50 d1 78 3c 8c 95 99 bc e4 f1 9d 3d
       0.100277536 0.015186623 -0.018748067 0.077121526
000050 7e 6a 9c bd cb 29 10 3e bc f7 02 be 60 93 0e 3d
       -0.07637499 0.14078443 -0.12789816 0.034808517
000060 47 e3 3e 3e 68 6c 5f 3d 68 d2 59 3d fd 18 ad 3d
       0.18641387 0.054546744 0.053179175 0.08452032
000070 2a 83 0d 3e 7a 0a 9f 3d 83 75 13 3e 29 66 cd 3d
       0.13819566 0.0776567 0.14400296 0.10029251
000080 d0 b7 a6 3d ab 5a df bd b5 7e b0 3d 19 d9 95 bd
       0.08140528 -0.109059654 0.086179174 -0.07316799
000090 17 c5 79 3d 24 c4 10 3e a1 a5 7f 3d db 34 db bd
       0.060978975 0.14137322 0.062413815 -0.10703441
0000a0 d5 a8 cc 3c 39 c7 2e 3d 2d 04 82 3d 03 bd ac 3d
       0.02498285 0.042670462 0.06348453 0.084344886
0000b0 ec f6 1c bd 9b 60 50 bd 2d da f0 bd b0 11 17 bd
       -0.03832142 -0.05087338 -0.11760364 -0.036882102
0000c0 07 69 dc bd 77 14 fa 3c cd cc fd 3d bf 31 6d 3d
       -0.1076222 0.030527337 0.12392578 0.05790877
0000d0 5a c9 f8 bd 86 b2 f3 bb c9 bd f3 3d 44 5a 25 3e
       -0.1214778 -0.007437053 0.11901433 0.16147715
0000e0 8d 07 83 3d 6b e7 b7 3d 4a 12 64 3c be b8 82 3d
       0.063979246 0.08979686 0.013920376 0.06382893
0000f0 72 58 10 3d 12 51 bb 3c 30 0e 76 bd 66 12 77 bd
       0.035240598 0.022865806 -0.060072124 -0.06032028
000100 b5 13 db bb 14 70 52 be 9f ca 78 bd d2 c2 bf bc
       -0.006685699 -0.20550567 -0.06074011 -0.023408327
000110 d1 17 b3 3d 24 04 91 3d c0 58 99 bc 0f 5d 4b 3d
       0.08744777 0.07080868 -0.018719077 0.049649294
000120 b0 03 6b bd 9d f8 1f be ce f4 c1 bc c6 11 5d bc
       -0.057376564 -0.15622182 -0.023676302 -0.013493007
000130 16 78 21 3d 5e 81 4d 3d b9 29 b9 bd 88 28 db bd
       0.039421163 0.050172202 -0.09041161 -0.1070109
000140 b4 d3 a8 3d 98 c0 20 bd f2 17 cd bd 71 48 ea bd
       0.08243504 -0.03924617 -0.10014333 -0.11439598
000150 3c bd eb bd 19 ba 11 3d 78 72 d0 3d 96 d0 07 be
       -0.11510703 0.035577867 0.10178083 -0.13263163
000160 08 f8 c7 bd f6 1a e8 3d 51 81 1d 3d 4f c4 0e be
       -0.09764105 0.113332674 0.038453404 -0.13942073
000170 40 a7 08 3e 73 87 99 bd f6 5b d3 3d 84 bb b0 bd
       0.13345051 -0.07496538 0.103202745 -0.08629516
000180 f5 0e b0 3d 68 25 a1 3d 55 8d 19 be f3 1c a6 3c
       0.08596603 0.07868463 -0.1499532 0.020277476
000190 88 c5 83 3d b6 ea 85 3d a1 ec 94 bd d2 1c 96 bd
       0.064341605 0.06538908 -0.07271696 -0.07329716
0001a0 af dd 55 3d 89 c4 a5 bd 8f a0 e7 bd 04 a3 9d bc
       0.052213367 -0.08094127 -0.11309921 -0.019242771
0001b0 95 4e db bd f3 44 8f 3d 84 b1 f5 bd bd a8 7c bd
       -0.10708348 0.06995573 -0.11996749 -0.06168436
0001c0 36 17 6d bd 6f a3 f6 bd 05 f7 9c bd c3 50 1c 3d
       -0.057883464 -0.12042891 -0.07664303 0.038162958
0001d0 ea b2 ed bd bf bf e6 3d 15 9c 00 be bf 20 58 bd
       -0.11606391 0.112670414 -0.1255954 -0.052765604
0001e0 80 77 28 bb a7 98 f3 3d 4a 76 0f be 43 46 8f bd
       -0.0025705993 0.118943505 -0.14009967 -0.06995823
0001f0 28 ff cf 3c b0 68 8b 3d 13 48 4b bd 7c a9 af 3c
       0.025390223 0.06807077 -0.049629282 0.021443121
000200 d4 a4 98 bd ab 77 10 bc 51 dc 18 bd 37 94 17 bd
       -0.074533135 -0.008817594 -0.037319485 -0.037006583
000210 2e 42 d6 3d dd 62 fa bd c2 fb ca bc b7 1c d0 bd
       0.104618415 -0.12225888 -0.02477825 -0.10161727
000220 45 42 e6 bd da e7 03 3e d6 27 da 3d 70 a5 e7 bc
       -0.11243109 0.12881413 0.10652129 -0.028277129
000230 48 0d c5 3d 8b 79 a6 3d a4 75 9f 3d e5 47 d2 bd
       0.09621674 0.08128651 0.0778611 -0.10267619
000240 66 52 c1 bd af 24 6a 3d 46 d1 8a 3c 1f 28 f6 3c
       -0.094395444 0.05716389 0.016945492 0.030048428
000250 c5 07 f8 3d 2f 03 aa bd bf b7 1f b9 56 e2 ed 3c
       0.12110857 -0.083013885 -0.00015231872 0.02903859
000260 7c 91 cf 3c d6 5a 24 bc 59 84 91 3d 92 52 25 bd
       0.025337927 -0.010031423 0.071053214 -0.04036195
000270 e7 52 2b bd 18 d2 20 3c 62 5a c8 bc 29 fe 83 bc
       -0.04182711 0.009815715 -0.02445716 -0.016112404
000280 26 f5 c1 bd 98 52 df 3d 26 b0 7c bd 1d d2 d2 bd
       -0.094705865 0.109044254 -0.061691426 -0.10293982
000290 38 17 2f 3c 39 88 99 3d 65 e2 f4 bc 90 4c 16 bd
       0.010686688 0.074966855 -0.02989311 -0.03669411
0002a0 a7 ea 07 3e ef 30 54 bc d3 dd 66 3d 39 5f 57 3d
       0.13273107 -0.01295112 0.05636389 0.052581046
0002b0 8a fb 7e bd fc 72 ba 3d b4 34 0f be 9e e2 04 be
       -0.062251605 0.09103963 -0.13984948 -0.12977073
0002c0 6a d3 ae 3d 62 d8 78 3c 0d 94 ee bd e3 cb ab bd
       0.08536418 0.015188308 -0.11649332 -0.08388498
0002d0 ea b9 06 be 92 15 d4 3c fd 52 17 bc be f1 ec bb
       -0.13156858 0.025889192 -0.009236095 -0.0072309664
0002e0 b3 2d 21 3d 6f 96 e7 bd d2 31 fc bd d1 47 6d bd
       0.039350223 -0.1130799 -0.1231419 -0.057929818
0002f0 61 ed 93 bd 41 ef 90 3d 5f 03 f4 bb 17 18 d2 bd
       -0.07223011 0.07076884 -0.007446691 -0.10258501
000300 18 38 a9 3d 87 87 81 bc e1 f1 9e 3d 26 43 f9 bd
       0.08262652 -0.015811695 0.077609785 -0.12171011
000310 b1 9e c5 3d 96 f3 bc 3d 48 26 24 bd a4 cb ff bd
       0.096494086 0.09226148 -0.04007557 -0.12490013
000320 1d 36 6a 3d 0b 65 06 bd 7d 6a ff 3c ea 56 94 bd
       0.057180513 -0.032811206 0.031178707 -0.0724314
000330 44 67 79 3d d9 a8 b5 3d 0a 82 e8 3d 7a cb 00 be
       0.060889497 0.08870096 0.11352928 -0.1257762
000340 1b 32 ca bd ec b6 9e bc c3 84 b1 bd af cb cc bd
       -0.09872838 -0.019374333 -0.086679004 -0.09999787
000350 48 c2 3e 3d ef d3 a5 bd 40 9c 4d 3d 50 6e df 3c
       0.046572 -0.08097064 0.05019784 0.02727428
000360 47 a7 de 3d 2d 09 01 3e e8 8d 57 3b 8a b2 06 3d
       0.10871749 0.12601157 0.003289098 0.032885112
000370 30 07 d7 ba dc 9b 7d 3c f5 67 3d 3d ff 22 d4 bd
       -0.001640534 0.015479054 0.04624172 -0.103582375
000380 c7 a3 02 be c0 de ed 3d a4 4a ad bd 9b b5 0b 3c
       -0.12757789 0.11614752 -0.08461502 0.008527185
000390 50 b0 f7 bd ac f5 db 3c 8e 8d 9b 3d 89 2a 9f 3d
       -0.12094176 0.026850544 0.07595359 0.07771785
0003a0 44 6f 60 3d b1 ab 33 bd f1 3d 91 3d 7c e0 45 bd
       0.05479361 -0.04386491 0.070918925 -0.048309788
0003b0 7c 75 bc 3d ab b3 f8 bd fa f0 84 bd b1 7e 2e bc
       0.09202096 -0.12143644 -0.06491275 -0.010650323
0003c0 51 ba 57 3c 4f e1 6d bc 7c 63 c6 3c 43 40 53 3b
       0.01316698 -0.01451905 0.02421736 0.0032234348
0003d0 34 56 f9 bd 64 98 1e bd 91 1b e7 bd 28 b0 98 bc
       -0.12174645 -0.03871955 -0.11284555 -0.018638685
0003e0 fd 6a fa bd b2 28 88 3c 2c ab ac bd f9 bb 5b bd
       -0.12227438 0.016620968 -0.08431086 -0.05364606
0003f0 ca a2 21 3e 0d 66 28 3e 77 1d a0 bd 58 cb b8 bd
       0.15784755 0.1644518 -0.0781812 -0.0902316

_model.layers.2.bias f4 [50]
000000 3c 87 e5 bd d7 89 01 3e ad 52 e4 3d 3a 7d 05 be
       -0.112074345 0.12650238 0.11148582 -0.13036051
000010 e3 0b 66 3d 6c 51 2a be 71 69 07 be 3d fc 16 3e
       0.05616368 -0.16632622 -0.13223816 0.14744659
000020 bd 62 2c be 8e 7b 6b 3d 91 b9 a1 3d e4 d7 24 be
       -0.1683454 0.057490878 0.07896722 -0.1609798
000030 6f 36 88 bd 91 1e 00 be de 70 a1 bd 04 5a 25 bd
       -0.066510074 -0.1251166 -0.07882856 -0.04036905
000040 2b bc a0 3d 6c d7 11 be df 3e 45 bd 31 2a 09 3c
       0.0784839 -0.14242333 -0.04815566 0.008371876
000050 eb ce c1 3d 68 75 28 3e 54 5d 04 3c bd 9b dc bc
       0.094632946 0.16451037 0.008078892 -0.02692973
000060 f6 c9 78 3b 81 86 d9 bd 2b f1 17 3c 09 74 6e bd
       0.0037962175 -0.10621358 0.0092738075 -0.05821613
000070 9a f1 17 3e aa 99 c0 3d d2 ea df 3d f0 17 a7 3d
       0.14838257 0.09404309 0.1093346 0.081588626
000080 50 97 9c bd 4c ed e0 bd 18 31 a7 3d 6e 6a 6c 3d
       -0.07646048 -0.10982761 0.08163661 0.057718687
000090 db 80 44 3d 29 0f ee 3d 49 89 3c bc 51 08 1b 3e
       0.04797445 0.11623985 -0.011507341 0.15139891
0000a0 6d f0 20 3d e7 7a af 3d 0d b0 d1 3d 07 bc 0b 3d
       0.039291788 0.08568364 0.10238657 0.034114864
0000b0 8a cc 93 3c 69 c6 38 bd 31 28 d8 3d 08 18 9a bd
       0.018041868 -0.045111094 0.10554541 -0.07524115
0000c0 5a 98 3e bb b6 2e 1a 3c
       -0.0029082508 0.009410551

_model.layers.3.weight f4 [50, 50]
000000 6b c4 f8 bc 60 c2 87 3d 96 cd 7b 3d 40 a1 07 3e
       -0.030367097 0.06628871 0.06147536 0.13245106
000010 6d e9 91 3d 27 6c f1 3d 4b ad 67 bd c5 e1 80 3d
       0.071246006 0.117882065 -0.05656175 0.06293062
000020 ad 3d df bd 6f e6 45 3d 6c f7 1d 3d 34 5c c2 bd
       -0.109004356 0.04831546 0.038566038 -0.094902426
000030 c9 cc 38 3d 1f b7 d9 bd a5 fb b3 3d 24 60 0d 3e
       0.045117173 -0.10630631 0.08788232 0.13806206
000040 37 98 48 3c 39 e2 e8 3d f7 75 20 bd a6 31 50 3d
       0.012243322 0.113712735 -0.039175 0.0508286
000050 be a9 71 bd 78 7f a3 3c 4f 86 f8 3d f2 de 88 bc
       -0.05899977 0.019958243 0.12134992 -0.016707871
000060 85 c5 b0 bd a1 e7 fe 3d ab 06 bd bd f2 aa 19 3d
       -0.08631424 0.124465235 -0.092297874 0.03751654
000070 85 21 f3 bc d6 9a 08 be d2 69 b9 3c bb 13 ba 3d
       -0.02967907 -0.13340315 0.022633467 0.090857945
000080 cf 57 3b bd d5 e7 a4 3d 9d e7 2d 39 da 14 f2 3d
       -0.045738038 0.08052031 0.00016584848 0.11820383
000090 2a 11 cc bd 00 c6 63 3d f3 3b eb 3d cb 5f 67 bc
       -0.09964211 0.05560875 0.11486044 -0.01412196
0000a0 c6 db 3e 3d 1a 11 01 3d 17 c3 c7 3d 02 c2 6b bd
       0.04659631 0.03151045 0.09754007 -0.057558067
0000b0 e1 be 23 3d e8 14 e0 bd 09 31 0f be b4 ae 86 3c
       0.03997696 -0.109414876 -0.13983549 0.016440727
0000c0 b8 20 bb bd a5 13 03 3d 07 30 7b 3d 5f 83 ce 3c
       -0.091371 0.032001156 0.0613251 0.025209127
0000d0 98 ae f0 3d b3 20 d3 3d ff 78 bf bc ec 62 85 bd
       0.11752051 0.10308971 -0.023373125 -0.065130085
0000e0 df c5 be bd 57 73 4a bd 6a 7d e5 3d 15 3b ab 3d
       -0.09315085 -0.049426403 0.112055615 0.083608784
0000f0 0a bb 59 3d a2 4a 7b bd f3 e5 1c 3d 16 c7 b7 3d
       0.05315689 -0.061350472 0.038305234 0.089735195
000100 c9 4a e5 3d a8 45 9a 3d a8 a4 52 bd d3 6e 2a 3d
       0.11195905 0.07532817 -0.05142656 0.041609596
000110 f0 be 63 ba f8 ef 69 bd 14 ee d1 3d a5 6d b9 bd
       -0.00086878147 -0.057113618 0.10250488 -0.09054116
000120 f9 12 3c 3d cb 76 07 be 0a d6 dd 3d 5e 96 79 bd
       0.04591653 -0.1322891 0.1083184 -0.060934417
000130 f8 aa fb bd a6 79 22 3c 1f 5f 2e 3d be 22 0b 3e
       -0.12288469 0.009916699 0.042571183 0.13587472
000140 cf 16 1f bc b4 ba ce ba 20 a6 6d bd bd 04 c2 bd
       -0.009710028 -0.0015772195 -0.058019757 -0.0947356
000150 e7 40 31 bd 75 71 b5 3d ff e9 85 3d 06 90 e8 bc
       -0.043274786 0.08859531 0.06538772 -0.028388988
000160 8f 04 23 bd b4 1f 10 be 62 f6 20 3d 1c c7 7c bd
       -0.03979927 -0.14074594 0.03929747 -0.061713323
000170 81 31 59 3d ec 60 48 3d 10 81 9a 3d 37 c6 7d 3d
       0.053025726 0.048920557 0.07544148 0.06195661
000180 7e 43 65 3d 51 28 b6 3d bb 11 65 3d a8 50 78 bd
       0.05597257 0.088944085 0.055925112 -0.060623795
000190 6f 34 21 3e 4b 49 8f bd f3 73 e5 3d c7 f8 1a 3d
       0.15742658 -0.069964014 0.11203756 0.03783491
0001a0 30 2c bd 3d 06 d1 4f 3d 0f bf 43 3d b2 5f ab ba
       0.09236944 0.05073645 0.04778963 -0.0013074784
0001b0 72 b0 ee bd 5b ac d3 bd 46 ef da bd f2 5a 78 bd
       -0.11654748 -0.103356086 -0.10690169 -0.060633607
0001c0 14 e8 66 3e fe a1 4c 3d 94 d5 79 be 46 64 77 bd
       0.22549468 0.049959175 -0.2439788 -0.060398363
0001d0 27 a6 1d 3e f9 bf 24 bd ac 2a b5 bc 13 4c f7 3c
       0.15395413 -0.040222142 -0.022115074 0.030187642
0001e0 57 98 e0 3d f5 27 31 3e fe 78 83 3b 85 41 68 bd
       0.109665565 0.17300399 0.004012226 -0.05670311
0001f0 c2 e9 9c 3d a4 5c c8 3c fb 0f df 3d a3 a1 86 be
       0.07661773 0.024458237 0.1089172 -0.26295194
000200 e3 ab 3c 3e e0 1b 09 be 46 d2 81 3c 0f ac b7 3c
       0.18424945 -0.1338954 0.015847337 0.022420911
000210 d7 ab 79 3d 8d 09 80 bd e9 5c a7 bd c8 a2 02 3e
       0.060954895 -0.06251822 -0.08172018 0.12757409
000220 cd a2 69 bd 27 4c 48 3e ea 68 c9 bd 2b 13 27 3e
       -0.057040025 0.195603 -0.09834464 0.16315906
000230 5a e2 1f 3e 21 7a 16 3d 77 39 39 3d 36 54 f8 bd
       0.1561369 0.036737565 0.04522082 -0.12125437
000240 5e 2f 05 3d 9d fb 0d be ef 38 f8 3c 29 9a ac 3d
       0.032515876 -0.13865514 0.030300586 0.08427841
000250 23 41 c9 bd e3 4e d1 bd 66 2f c8 3c a5 11 a2 bd
       -0.09826877 -0.102201246 0.024436664 -0.07913522
000260 4a 1e 0c be 62 75 e1 bc 3d 31 32 bc b2 a2 17 be
       -0.1368343 -0.027521793 -0.010875997 -0.14808157
000270 38 2b 12 be a4 b8 da bc 95 e2 72 bd 78 1b 96 bc
       -0.14274299 -0.026699372 -0.059298117 -0.018323645
000280 18 79 f6 bd 7d bc 51 3e cf b5 30 bd f9 7d 5f 3d
       -0.120348155 0.20482059 -0.043142136 0.054563496
000290 50 7e 70 b9 dc 92 80 3d 89 25 c4 3d 87 11 5f 3e
       -0.00022935239 0.06278011 0.09577472 0.2178403
0002a0 e5 e6 8b 3d 8f 04 47 3c ca fb db bd 80 b5 d9 3c
       0.06831149 0.012147083 -0.10741384 0.026575804
0002b0 82 4b f1 3d 26 c7 ee 3d 50 4c 0f bd 60 d5 bb bd
       0.1178198 0.11659078 -0.034984887 -0.091715574
0002c0 69 92 cb bd ce 40 1d 3b 27 1f 2a 3d 4e c3 81 bd
       -0.09940035 0.0023994925 0.041533615 -0.063360795
0002d0 8c be 52 3d 8d f4 ec 3d 1d 24 0f 3e a2 26 41 bd
       0.05145125 0.11570082 0.1397862 -0.047155984
0002e0 27 0e 39 3d 8e a9 a0 bd 47 dc ba 3d af b2 ee bd
       0.045179512 -0.0784484 0.09124046 -0.11655175
0002f0 df 89 28 bd e3 1e f1 3d d0 59 aa 3d c1 6f 87 3c
       -0.04114711 0.11773469 0.083179116 0.01653278
000300 fe 4f 82 3d 46 6d 3c bd 95 92 04 3c b7 dd 00 3e
       0.063629135 -0.04600265 0.0080915885 0.12584578
000310 20 2c 38 3d 2e 12 98 3d 5f 72 07 3e 8b 1c 7f 3c
       0.044963956 0.074253425 0.13227223 0.01557077
000320 23 ae a9 3d 48 f8 23 bd fa 09 66 bd fa ec 43 3d
       0.08285167 -0.0400317 -0.05616186 0.04783342
000330 f8 2a e0 bd 72 67 4d bd 00 92 ad bd cd ed 12 be
       -0.10945696 -0.05014748 -0.08475113 -0.14348526
000340 ec 91 e0 bb 78 28 c3 bd f4 54 03 be 3c a0 12 be
       -0.0068533327 -0.09529203 -0.12825376 -0.14318937
000350 ea e3 ce 3d a9 99 28 bd c7 70 48 3d cc 00 58 bd
       0.10102065 -0.041162167 0.048935678 -0.052735135
000360 0c d3 31 bd 7b 7c 02 3d 88 aa 83 3d 47 58 29 3d
       -0.04341416 0.031856995 0.06429011 0.041343953
000370 25 19 18 be 4b 4d 3c bd c9 55 86 bd 2e 7b c3 3d
       -0.14853342 -0.04597215 -0.06559331 0.09544979
000380 1f 65 d4 3c c8 88 e4 bc 54 60 82 3d 74 f9 70 bd
       0.025927125 -0.027897254 0.063660294 -0.058831647
000390 a6 90 03 be c3 b7 c0 3c eb 0e e4 bd 2f 81 e0 3c
       -0.12848148 0.023525124 -0.11135658 0.02740535
0003a0 32 95 61 3d 6f e5 a9 3c 10 ed 85 3c cc a7 0b bd
       0.055073924 0.020739285 0.016348392 -0.03409557
0003b0 ea 6f 46 3d e8 1f 35 bd 05 ad 43 3d fa ec 7d bd
       0.048446573 -0.04421988 0.047772426 -0.061993577
0003c0 d7 9b 1d 3d 8d 7c af bd e3 84 8b 3d 17 ef 82 3c
       0.0384787 -0.08568678 0.068124555 0.015983148
0003d0 56 15 a2 bd e1 e6 2d 3c e5 06 0a be 45 97 b7 bb
       -0.07914226 0.010614128 -0.13479193 -0.0056027495
0003e0 06 64 a8 bc 36 c9 d5 3d 5f 41 0a 3e 2a 9c b9 3d
       -0.020555507 0.104387686 0.135015 0.09062989
0003f0 58 7f c9 bd ec 16 df bd 8f 09 4b 3d 42 5d dd bd
       -0.09838742 -0.10893044 0.049569663 -0.10808803

_model.layers.3.bias f4 [50]
000000 ca 22 19 bb d1 eb 74 bd 90 8e bb 3c c2 18 02 3e
       -0.0023366683 -0.059795205 0.022895128 0.12704757
000010 08 86 bb bd 36 b6 39 3d 42 05 35 3d f3 a2 67 3d
       -0.09156424 0.045339786 0.044194467 0.056551885
000020 65 9e ee 3d 41 03 56 bd 2e 56 4f 3e d5 2d 0d 3d
       0.11651305 -0.052249197 0.20247719 0.034467537
000030 12 16 cc 3d 4f 65 9c 3d bb 52 ca 3d 51 cd 5b bd
       0.09965147 0.076365106 0.09879061 -0.0536626
000040 39 fb 2b 3c dd 72 54 3e 38 b5 09 3e a4 ca 1a 3d
       0.010496908 0.20746942 0.13448036 0.03779091
000050 79 2d 34 be 12 4a 56 be 36 77 8f 3d 90 c1 a6 bc
       -0.17595471 -0.20926693 0.070051596 -0.02035597
000060 bd a0 e1 bb c8 85 47 3e 2f a9 e0 3b a9 d0 c9 3d
       -0.0068856166 0.19484627 0.0068561058 0.09854252
000070 19 31 16 3e 58 45 58 3d fe 62 d0 3c 9c 94 db 3d
       0.14667167 0.052800506 0.025437828 0.10721704
000080 01 36 f3 bd 5b 17 54 3c 74 9b 82 3e 24 6d d7 bd
       -0.11875535 0.0129450215 0.25509226 -0.10518864
000090 19 22 09 be dd 6b 84 3d 22 77 a1 bb 7a 06 ba 3d
       -0.13391913 0.06465886 -0.004927532 0.090832666
0000a0 d5 c0 85 3d aa f0 92 3d 9d 25 0f 3d 4b d6 12 3d
       0.065309204 0.07174809 0.03494798 0.035848897
0000b0 cd 76 18 be 57 fb e3 3b 01 d4 d7 bc ba 1f 95 3d
       -0.14889069 0.0069574523 -0.026346209 0.07281442
0000c0 54 cc 0a 3e fb cb cf 3d
       0.13554507 0.10146328

_model.layers.4.weight f4 [50, 50]
000000 73 c7 b9 3d e7 d4 97 3d 21 80 a9 3c 02 ee 88 bd
       0.09071245 0.07413655 0.02069098 -0.066860214
000010 a6 07 d0 bd 1e 37 06 3e c7 97 0a 3e 57 f8 6d bd
       -0.10157709 0.13106963 0.13534461 -0.058098163
000020 be 9f bb 3d af 50 7e 3d ef e5 87 3d 50 ff 24 3d
       0.09161328 0.062088665 0.06635653 0.040282547
000030 f5 dc 03 3e 2c 3c 04 be 37 05 2e 3d e1 90 01 3b
       0.12877257 -0.12913579 0.042485442 0.0019770192
000040 f3 3f 36 3e fd 5e e4 3c e4 1c c7 3d 59 34 ce bd
       0.17797832 0.027877325 0.09722307 -0.10068578
000050 f9 62 01 bd b5 82 fb bd 22 db d1 3c e3 07 1e bd
       -0.03158853 -0.1228079 0.025617186 -0.03858174
000060 07 e9 92 bd c0 b5 04 bd 74 ca ca 3d 10 da b5 3d
       -0.07173353 -0.032399893 0.09901896 0.08879483
000070 84 86 1d 3d 91 39 c1 bc 5a 75 be 3d b4 16 eb 3d
       0.038458362 -0.02358702 0.09299727 0.1147894
000080 4c db 44 3e 1f d8 04 be 95 70 03 be 6a 52 61 3c
       0.1922428 -0.12973069 -0.12835915 0.013752559
000090 7f f2 95 bd 77 f1 ce 3d c2 3a 66 3d 6c 33 e7 bd
       -0.07321643 0.101046495 0.05620838 -0.11289105
0000a0 e2 4c 15 bd 59 b3 31 bd b1 f3 9a bd 87 de 61 bd
       -0.036450274 -0.04338393 -0.07566012 -0.05514386
0000b0 55 48 09 3e 41 44 e7 bd 38 6d 04 3e 86 ea 6e 3d
       0.13406499 -0.11292315 0.12932289 0.058329128
0000c0 c0 89 4e bd 97 fa 43 3d 60 96 39 3d c5 32 96 b9
       -0.050424337 0.047846403 0.045309424 -0.00028648056
0000d0 97 be 13 3e d3 ed 0b 3d 6d db ca bd fc b4 e5 3c
       0.14428173 0.034162354 -0.099051334 0.028040402
0000e0 c5 ff 12 be 3f 0f a6 3d bf 18 45 bd 12 39 dd bd
       -0.14355381 0.08108377 -0.048119303 -0.10801901
0000f0 78 53 05 3e 32 33 d2 bd ac 33 68 3d 46 e2 12 be
       0.13020122 -0.10263671 0.056689903 -0.14344129
000100 8e 82 de 3d 31 7c b9 bc 35 a3 60 3d 9c 2a 16 bd
       0.10864745 -0.022642227 0.054843146 -0.03666173
000110 e7 53 c5 3d 14 6a 8f 3d 37 88 fa be 7b 30 57 be
       0.09635144 0.07002655 -0.4893205 -0.21014588
000120 a8 90 5a bb f8 1e 27 bc 6d bf 74 3d e6 16 e0 bd
       -0.0033350382 -0.010200255 0.05975287 -0.109418675
000130 c1 6f 88 bb d5 36 91 3d f8 48 9d 3d 2d 62 6a 3d
       -0.0041637127 0.070905365 0.07679933 0.057222534
000140 62 88 05 bd 62 b1 58 bc bb e1 50 be 63 6c c7 3d
       -0.032600768 -0.013225885 -0.2039861 0.0973747
000150 fd 9d 90 3d bf 39 87 bd e9 69 ab bd ad 45 56 3d
       0.07061384 -0.06602811 -0.0836981 0.05231254
000160 3c ab f6 bc 97 b6 8e bd ef a2 91 bd 11 84 b5 3d
       -0.030110948 -0.0696842 -0.07111155 0.0886308
000170 cb a9 b7 bd 8a 82 a2 3d fd 9d d5 3c fe 25 45 3d
       -0.08967932 0.079350546 0.026076311 0.048131935
000180 36 2d 1a 3d df 4a f6 3c a8 c1 13 3d a3 7d 35 bd
       0.037640773 0.030064998 0.036073357 -0.04430927
000190 88 57 09 be df ce 9c 3d 37 f0 03 3e 4a 0a 02 3e
       -0.13412297 0.07656645 0.12884603 0.12699237
0001a0 77 44 db bd a0 63 2b 3d f6 ab 78 3d 20 d7 5d 3d
       -0.10706418 0.041843057 0.06071087 0.054160237
0001b0 9b 7a 08 bd a0 58 9b 3d c9 95 6c bd 6e 76 e7 bd
       -0.03332005 0.07585263 -0.057760034 -0.113018855
0001c0 42 69 fc bd 30 07 0a be a8 fc 9c bd 84 54 f0 3c
       -0.12324764 -0.13479304 -0.07665378 0.029337175
0001d0 21 21 9f 3b d4 67 2f 3c 3e c1 e4 bd 87 a4 f5 bd
       0.004856244 0.010705907 -0.111696705 -0.11994272
0001e0 ad dd e4 bd b3 b3 b1 3d d2 cf 58 bd 29 44 02 be
       -0.11175094 0.08676853 -0.052932568 -0.12721314
0001f0 cf 0a 0f 3e ff 66 5d 3d f0 a9 f5 3c 44 b5 02 3d
       0.13968967 0.054053303 0.02998826 0.03191115
000200 a7 23 86 bb ab 7f 01 3e a5 8a 0d bd 25 71 ba ba
       -0.0040936056 0.12646358 -0.03455605 -0.0014224394
000210 14 ee 51 bd c4 87 cc 3d 49 d1 07 3e 68 91 08 3e
       -0.05125244 0.09986833 0.1326343 0.13336718
000220 5d fc c6 bc 8e 46 b2 bd fe f9 53 3c 68 87 34 3d
       -0.024290258 -0.087048635 0.012938021 0.044074446
000230 a8 af 0f be 35 97 ab 3d 82 7b c8 ba db 10 43 bd
       -0.14031851 0.0837845 -0.0015295597 -0.047623497
000240 3b 6a d0 bd e8 9f 76 bd b6 46 f9 bd 46 c3 0f be
       -0.10176512 -0.060211092 -0.1217169 -0.14039335
000250 ec 07 ca bd ac fe 9b 3c c9 fc bd bd e4 b2 38 3c
       -0.09864792 0.019042335 -0.092767306 0.01127312
000260 1a de 6e 3c 2c c2 d7 bd 53 b5 09 bd c6 37 21 bd
       0.01457932 -0.10535082 -0.03362019 -0.03935983
000270 8a 53 02 be db 54 0a be c8 fd 23 bd 35 cc 11 bc
       -0.1272718 -0.13508932 -0.040036947 -0.008898784
000280 73 44 1f 3d fc 8c 50 3d ad 41 05 be c1 6d 96 3d
       0.038883638 0.050915703 -0.13013335 0.07345153
000290 bc de 69 3c e8 c1 8f 3d f0 9e 0b 3e 50 56 c0 3d
       0.014274295 0.070194066 0.13634849 0.09391463
0002a0 90 cc 0a be cb 60 00 be 7d 3c eb bd 1c 54 fb 3d
       -0.13554597 -0.12536924 -0.114861466 0.12271902
0002b0 ee 43 c8 bb 71 09 1f 3c 88 4c 88 3d 43 73 0b be
       -0.0061116135 0.009706841 0.06655222 -0.13618188
0002c0 dd 2c 9c 3d 70 6c e2 bd 62 40 80 3c c6 1c 13 3d
       0.076257445 -0.11055839 0.0156557 0.035916112
0002d0 86 4a 8b bd 75 96 6c 3d f7 97 a4 3d d3 cc 93 3d
       -0.068013236 0.057760675 0.080367975 0.072168015
0002e0 5c 2e da bd 5b 0a 5e 3d f1 a5 d5 bd 02 f9 82 bd
       -0.106533736 0.054209094 -0.104320414 -0.06395151
0002f0 bb a1 99 3d c2 6b b4 bd eb 08 04 3e a4 28 8c bd
       0.07501551 -0.08809616 0.12894027 -0.06843689
000300 1b c6 d6 3d bd 2c dc bd f2 3c ca bd f7 2b 07 3e
       0.10487004 -0.10750721 -0.09874906 0.13200365
000310 22 fa 62 3d df fb e3 bd ce aa 93 bd 33 d9 de bd
       0.055414326 -0.11132025 -0.07210313 -0.10881271
000320 c8 7a c8 3d 38 28 35 3d a0 d2 e0 bd 00 a1 d7 3c
       0.09789044 0.04422781 -0.109776735 0.026321888
000330 f8 09 b9 bc 08 7b bb 3d 40 0d 4d 3d f5 0b 7c bd
       -0.022587761 0.09154326 0.050061464 -0.06153484
000340 2e e0 82 3d 64 d8 e3 3b d8 c6 8c bd e6 75 06 be
       0.06390415 0.006953286 -0.06873864 -0.13130912
000350 cc 92 be bd 04 1c e4 bd 19 62 60 3d 85 33 4e bd
       -0.09305343 -0.11138156 0.054781053 -0.0503421
000360 c9 a0 08 be 53 9d f3 bd 57 56 f3 3d 7f c6 d3 3d
       -0.13342585 -0.118952416 0.118817024 0.103405945
000370 39 63 06 3d 7e b3 88 3c 68 60 c2 bd 36 64 d0 3d
       0.03280947 0.016687151 -0.09491044 0.10175364
000380 ca af 77 bc 05 2c 01 be 0b 0e 83 bc 86 b1 dd bd
       -0.015117595 -0.12614448 -0.015997907 -0.108248755
000390 f4 7f e0 3a 4c 13 3c 3c 08 b1 eb 3c 54 9a f7 bd
       0.0017127977 0.01147921 0.028770939 -0.12089983
0003a0 46 33 c5 bd 9d 5a 48 3c 23 df 89 3d 80 df d9 bd
       -0.0962892 0.012228635 0.06732013 -0.10638332
0003b0 05 3b 88 3d e1 36 2c 3d 4c a2 af bd 25 c1 ab bd
       0.06651882 0.042044524 -0.085758775 -0.08386449
0003c0 a4 90 fe bd f2 76 dc 3d 08 fa 07 3d b4 30 cd bc
       -0.12429932 0.107648745 0.033197433 -0.025047638
0003d0 70 7d 9a bc a8 2c b6 bd 55 15 ab 3c 02 6a 4f 38
       -0.018858641 -0.08895236 0.020884195 4.9451373e-05
0003e0 74 77 20 3d f1 02 41 bd a3 93 18 3d c0 6b bb 3d
       0.03917642 -0.047121946 0.037250172 0.09151411
0003f0 4a c6 17 3e 00 9f 40 bc 3c c8 de bd 71 35 54 3d
       0.14821735 -0.011756659 -0.108780354 0.05180878

_model.layers.4.bias f4 [50]
000000 2a fd 50 3d d6 57 e9 3d 60 71 8c bd b9 15 32 ba
       0.051022686 0.113937065 -0.06857562 -0.0006793398
000010 e8 52 88 3d 5b 34 2b 3e 47 c6 a7 3d 1e 4c 02 bd
       0.06656438 0.16719191 0.08192115 -0.031810872
000020 61 ef 1c be 6e 46 8f bd b2 7b d1 bc b0 d1 7c 3d
       -0.15325691 -0.06995855 -0.025571678 0.06172341
000030 b4 2d 2a bd aa c7 f6 3d 02 4a c4 bd 59 ee 70 bd
       -0.041547492 0.12049802 -0.09584428 -0.058821056
000040 4b 58 cd 3d 77 b1 4f bd 78 29 40 bd 51 b6 3f bc
       0.10026606 -0.050706353 -0.046914548 -0.011701182
000050 b4 f0 c5 bd 87 19 b4 3d 2f 28 ca 3c 8e 67 25 3d
       -0.09665051 0.087939315 0.024677364 0.04038196
000060 17 c4 20 bd 4a 78 21 3e ea 7b 17 3e 82 3b 91 3d
       -0.039249506 0.15768543 0.14793363 0.07091428
000070 19 1f 91 bd f5 96 71 3e be ea 1d 3e 6c 3b 99 bc
       -0.070860095 0.23592742 0.15421578 -0.018705092
000080 f8 28 a8 3d 79 a4 75 3e d6 00 f7 3d 66 0b 73 bc
       0.08210939 0.23988523 0.12060706 -0.014834261
000090 11 2a 5a bd fd f6 49 3d aa b8 8f 3b 3d 49 86 bd
       -0.053262774 0.049307812 0.0043860273 -0.06556938
0000a0 ef 50 3e 3e fe 82 02 bd e5 e0 75 bd ec f9 ed 3e
       0.18585561 -0.031863205 -0.06002893 0.46479738
0000b0 90 84 d7 3c d1 1c 2f 3d 00 b0 ea bb 96 5e 20 bc
       0.026308328 0.04275209 -0.007162094 -0.009788176
0000c0 2b f6 c5 3c 86 d9 59 3d
       0.024165234 0.053185962

_model.layers.5.weight f4 [402, 50]
000000 bd 3a 8a bd 82 eb 32 3e 30 88 42 bc 1c ac fa 3d
       -0.06749485 0.17472652 -0.01187329 0.122398585
000010 a0 7b 02 bd 08 da 6e 3c 2e 93 3c bd 56 7c 9a bc
       -0.03185618 0.01457835 -0.0460388 -0.018858116
000020 46 c5 3b bb 00 75 ac 3d 23 ab d5 3d fb 52 08 bc
       -0.002865152 0.084207535 0.10433032 -0.008320565
000030 31 1e 1d be 92 7e 73 bd 0c 0f 94 3b cb 98 f4 bd
       -0.15343548 -0.05944688 0.0045183953 -0.119432054
000040 f0 32 1c be bd 60 84 bd 19 5b b3 3d b7 42 11 3e
       -0.15253806 -0.06463764 0.0875761 0.14185606
000050 a3 48 01 3d 49 a7 3a bd 49 14 5c bd 9f ef c4 bc
       0.031563412 -0.04556969 -0.053730283 -0.024040041
000060 ee e5 06 bd 57 10 0a be cb f4 b6 bd 68 47 4c bd
       -0.03293412 -0.13482796 -0.08933409 -0.049872786
000070 16 a3 ca 3d f9 5f 88 bd 93 d5 05 3e 22 4f fa 3d
       0.098943874 -0.0665893 0.13069753 0.12222125
000080 a8 4b 49 3d 43 85 fa bd 56 b8 e7 bc ad 16 e8 3d
       0.049144417 -0.12232449 -0.02828614 0.1133245
000090 38 8e 98 3d 1e 52 fa bd 92 16 01 3e 9c d2 ad 3d
       0.07449001 -0.12222694 0.12606266 0.08487436
0000a0 57 e2 3c 3c 40 3a 35 3d fd f7 f7 3b e4 ea fc bc
       0.011528573 0.044245005 0.0075674043 -0.030873723
0000b0 7b d7 1b bd cf 7d 51 be 27 b9 a9 bc d5 fb 07 be
       -0.038047295 -0.20458148 -0.02071817 -0.1327966
0000c0 d2 c4 1b 3e de a7 02 be 62 9c 0b bc 6e a9 2c 3d
       0.152118 -0.12759349 -0.008521171 0.04215377
0000d0 30 24 07 3e 21 b7 7e 3d 46 c8 fe 3d ae 20 c9 3c
       0.13197398 0.062186364 0.12440543 0.024551716
0000e0 89 4f c8 3d c4 97 c7 3d e0 cb 2d 3e bb 9c 1c bd
       0.09780795 0.09745744 0.16972303 -0.038235407
0000f0 61 80 f2 3c e0 58 d8 bc 22 5c 7d be a7 60 0c be
       0.029602231 -0.026409566 -0.24742177 -0.13708745
000100 57 00 8a bd 49 ca e5 3d 36 b7 a2 bd 91 3e 3e bd
       -0.06738346 0.112202235 -0.07945101 -0.046446387
000110 44 f5 c5 3d 8b 21 81 bd 05 f6 09 bd 5f fd 0e bc
       0.09665921 -0.06305226 -0.033681888 -0.008727401
000120 8d 93 d4 3d 0c 48 a0 bd fe 4b 06 3e 11 95 f4 3d
       0.103797056 -0.07826242 0.13114926 0.11942495
000130 2e c4 9f bc 45 04 17 3e ae 47 10 3e d0 f5 12 bd
       -0.019502725 0.14747722 0.14089844 -0.035878956
000140 5b fb 1d 3e 33 60 4f bd 0e 6a b1 3d d2 6c 85 3c
       0.15427916 -0.050628852 0.086628065 0.016287241
000150 4d ed c4 bd b8 6a e7 3d 4e 78 d6 bd 97 b5 e4 bd
       -0.09615574 0.11299652 -0.10472165 -0.11167448
000160 1b 90 e2 bd 47 3a 20 bd 84 d0 2c 3c f0 53 bd 3d
       -0.11062642 -0.039118078 0.010547761 0.092445254
000170 25 54 60 3d fe 21 0b be b5 aa d9 ba 2a 61 07 bd
       0.054767746 -0.13587186 -0.0016606661 -0.033051647
000180 86 c6 93 bd 27 ff 19 be 5f 0a 00 3e 71 fe a5 3d
       -0.072156 -0.15038739 0.12503956 0.081051715
000190 cb 72 89 bd 3b 6e 97 bc fc cf 2f 3c 78 13 84 3d
       -0.06711348 -0.01848518 0.01073074 0.06449026
0001a0 7c 48 36 3d eb 66 cd 3c 44 5d 37 3d 27 f4 41 bd
       0.04450272 0.02507349 0.04476668 -0.047351982
0001b0 57 6e dc 3d b5 27 3b 3e 74 ee 8a bd 8b bb 49 3d
       0.10763233 0.18276866 -0.067837626 0.04925112
0001c0 66 f1 80 be e1 bc ab bd 9f 2d 93 bc 18 f2 72 bd
       -0.25184172 -0.08385635 -0.01796609 -0.05931291
0001d0 75 5b 15 3e c4 13 f7 bd af c2 f7 3d d5 7f 9d bb
       0.1458567 -0.12064317 0.1209768 -0.0048064985
0001e0 09 0a 19 3d c8 70 3c 3d 54 d7 22 bd 01 93 b0 bd
       0.037363086 0.046005994 -0.039756134 -0.08621789
0001f0 8e dd 05 3e b4 a6 18 38 4a dd d8 3d 71 0b 8a bc
       0.13072798 3.639488e-05 0.105890825 -0.016851159
000200 8d 4f 27 3d 9d 0a f4 3c 54 b4 97 3d 57 a9 1d bd
       0.04084735 0.029790217 0.07407442 -0.038491573
000210 22 b7 f2 3d 6b 1c c5 bd 3a 44 c7 bc 7c 94 63 bd
       0.11851336 -0.09624561 -0.024324525 -0.055561528
000220 bd 66 6a 3d d8 c7 0a be af 75 b3 3d 8d cf 84 3d
       0.057226885 -0.13552797 0.08762681 0.064849
000230 09 35 8d bb 50 3f e5 bd 53 84 58 bd b3 a0 9f bd
       -0.004309301 -0.111937165 -0.05286057 -0.07794323
000240 6d 6b f0 3c db f9 a6 bd ad 7f 15 be 4c 1a b9 bd
       0.0293481 -0.08153125 -0.14599486 -0.09038219
000250 16 92 29 3e d9 ef e1 3d 0f 0d 06 be e6 37 0d 3e
       0.16559634 0.110320754 -0.13090919 0.13790855
000260 fc 03 3c bc e6 18 ef 3c fa 5f 81 bc 48 b0 ae bd
       -0.011475559 0.029186677 -0.015792836 -0.08529717
000270 90 f5 bc 3d f5 ad 34 3e 9d c2 60 bc 06 b0 86 bb
       0.09226525 0.17644484 -0.013718274 -0.004110339
000280 26 d4 18 3e 1d 19 a9 bd d6 40 68 be 3f 6d f2 3d
       0.14924678 -0.08256743 -0.22680983 0.11837243
000290 16 2a 0e be db 9d ff 3d 6a b3 dd bc b0 f0 12 bd
       -0.13883242 0.124812804 -0.02706309 -0.03587407
0002a0 53 07 8a 3d 26 b4 91 3d 4c 44 a9 3d 4b 68 c8 3d
       0.06739678 0.07114439 0.0826498 0.09785517
0002b0 ba 7f 7f bd 33 89 f0 bd 95 c8 1e bd 80 73 3a 3c
       -0.06237767 -0.11744919 -0.03876551 0.011380076
0002c0 42 ea 1c 3d 50 a2 6b bd b3 39 92 3c 15 8d a7 3c
       0.038309343 -0.05752784 0.017849779 0.020453015
0002d0 fa 95 a9 3d 15 e7 ac 3c 2d 21 8f 3d 5a 15 2d be
       0.08280559 0.021106282 0.0698875 -0.16902676
0002e0 53 e2 af 3d 52 f7 1c bd dd 3b c5 bd 53 fa bc bd
       0.0858809 -0.0383218 -0.09630559 -0.09227433
0002f0 ee 8f e5 3c f3 19 40 3e 35 2c b0 3c 73 67 42 3d
       0.028022733 0.18759899 0.021505455 0.047461938
000300 a5 b8 ef bc db fb 0e be 0b 05 4a 3d c1 8c 88 bd
       -0.02926285 -0.13963263 0.049321216 -0.06667472
000310 28 3b 52 3d 19 7a 9e bd ca ce 70 3d 34 6c 50 bc
       0.051325947 -0.07738132 0.05879096 -0.01272111
000320 3a ec ab bd 7d 41 82 3d d5 b4 7c 3d 21 b8 11 bb
       -0.08394666 0.06360147 0.061695892 -0.0022234994
000330 94 67 0f be 3f 08 29 bd b9 d4 c8 bd a0 6a 8c 3d
       -0.14004356 -0.04126763 -0.098061986 0.068562746
000340 2d 04 21 3e c0 61 1f 3e a5 f1 0d 3e 17 95 04 3d
       0.15724249 0.15564632 0.13861711 0.032368746
000350 9d 47 7f be 62 78 05 be ac e9 d0 bd f4 b6 d2 3d
       -0.24929662 -0.13034204 -0.102008194 0.10288802
000360 8f 8f 46 3c 57 31 8c bd 50 f0 fa bd 94 bc e0 3d
       0.012119188 -0.06845348 -0.12252867 0.109734684
000370 ca 7b 00 3e 5a da 95 3d d6 34 7e 3b 09 c8 18 bd
       0.12547222 0.07317038 0.0038788817 -0.037300143
000380 43 df a2 3d c5 aa fa 3a e2 b8 40 bd c5 19 89 bc
       0.0795274 0.001912438 -0.047051318 -0.01673592
000390 9e a7 63 3d 74 24 6f 3c c8 fe c2 3d b9 6a 6a 3d
       0.055579774 0.014596093 0.09521252 0.057230685
0003a0 9a 10 2d bd d7 b0 30 be d9 d6 05 3e 57 8f 99 bb
       -0.04225216 -0.17254959 0.13070239 -0.004686277
0003b0 52 6c dd bd 1e d9 ad 3d 66 06 8b bd 23 08 30 3d
       -0.10811676 0.084886774 -0.0678833 0.04297651
0003c0 d8 cf 34 bd 91 cf 34 bc 05 5a 7c 3d 08 ed 7f bd
       -0.044143528 -0.011035816 0.061609287 -0.06248191
0003d0 69 7f 44 bd a1 91 3e bd 81 7f c0 bd c3 b8 c1 bd
       -0.04797307 -0.0465256 -0.093993194 -0.094590686
0003e0 06 38 6f 3d 25 0e 3a bc 88 3c 0e be 4e ba c0 3d
       0.058403037 -0.011355911 -0.13890278 0.09410535
0003f0 d9 e0 00 3e 8a 92 0d 3e 75 a5 e9 bd 83 a5 31 bd
       0.12585773 0.13825431 -0.114085115 -0.043370735
