DRL_py_beta/model/trained_model/retrainbest_model_train_0.0001_n_history30_neurons50_layers5.pt (torch, 229075 bytes, 12 tensors)

_model.layers.0.weight f4 [50, 510]
000000 ff 03 13 3b 8f 20 ac bc 6e ff e7 bc 0d b3 59 3c
       0.0022432802 -0.021011619 -0.02832004 0.013287318
000010 10 4d cf 3c 2e 6f d8 bb 40 cf c9 3c 14 6c d9 3c
       0.025305301 -0.0066050505 0.024634957 0.026540793
000020 0d 02 11 bd 2f a5 94 bd 30 8d 80 bd 69 94 9d 3c
       -0.035402346 -0.07258069 -0.062769294 0.019235807
000030 c1 9b 85 bd 8d 96 46 3e e8 d2 5a 3d 95 53 d0 3d
       -0.06523848 0.19393368 0.053423792 0.10172192
000040 fd 25 e8 3b 8a 2c 4e bd 65 a1 8c 3c 4a ec 85 bc
       0.0070846067 -0.050335445 0.017166803 -0.016348023
000050 43 2f 11 3d f7 c6 4f bd 75 10 0d 3a 4a 21 37 3d
       0.035445463 -0.050726857 0.00053811754 0.04470948
000060 c5 14 1f 3d 71 8d be bc 8f ca 04 bd b7 28 73 bd
       0.038838167 -0.023260804 -0.032419737 -0.059365
000070 f7 96 a4 3c e3 8b 3d bd 23 d9 cf 3d 64 00 93 3c
       0.020091517 -0.046275984 0.101488374 0.017944522
000080 a2 0f 2f 3d f5 0b 7a 3b a1 54 d5 3c 88 70 e3 bc
       0.042739518 0.00381541 0.02604133 -0.02776362
000090 e0 45 a0 bc 85 ef 29 bd cf a4 01 3c e4 5e 9a 3d
       -0.019564569 -0.04148819 0.007912829 0.0753763
0000a0 4c 2b b8 3c d1 49 e5 bb 7b 84 b0 3c 6b 78 62 bb
       0.022481583 -0.006997325 0.021547547 -0.0034556638
0000b0 72 66 76 bd 8b a3 1d 3d 70 f4 8b 3c c2 e7 3c 3c
       -0.060156293 0.038486045 0.01708433 0.011529865
0000c0 5c 76 df 3b ee 9d 59 3d 52 78 4f 3b f4 33 ba 3c
       0.0068195295 0.05312913 0.003165741 0.022729851
0000d0 97 c3 17 3d 2c c4 9e bc 2d f0 5e bc b2 1a 2b bc
       0.037051763 -0.019380651 -0.013607067 -0.010443376
0000e0 72 05 b2 3d f5 17 12 3c 6b da d1 bc f0 ec c6 bc
       0.08692445 0.008916845 -0.025616845 -0.024282902
0000f0 86 9b de bc 57 ce 17 3d d0 64 6e 3d c4 66 55 3c
       -0.027173769 0.037062015 0.05820161 0.0130249895
000100 06 b4 42 bc 43 4b 83 bd a5 e1 32 3b 9e e8 4a 3c
       -0.011883741 -0.064108394 0.002729514 0.012384562
000110 ea 3b 3a bb 45 2c 81 3c 4a 69 e2 bc 4f 1d 2b bb
       -0.002841706 0.01576818 -0.027638096 -0.0026109999
000120 cd 39 55 bc cb ca 37 3c 82 b9 36 3d 58 92 f9 3c
       -0.013014269 0.011217783 0.044610508 0.03046529
000130 89 6b 95 3c 89 47 49 bc 9c 13 01 3d 7e fc 83 3c
       0.018239753 -0.012285122 0.03151284 0.016111609
000140 43 18 8c bc 31 1d 2f bc f2 5b 95 bd 07 d8 a2 bc
       -0.017101413 -0.010688112 -0.07292928 -0.0198784
000150 54 0e 8e 3c 49 b6 91 3d 4c 57 6c 3d f8 3d 07 bd
       0.017340817 0.07114846 0.05770044 -0.033018082
000160 2c 36 2f bc 03 0e 97 bc f5 64 83 3d dc e5 07 bd
       -0.010694068 -0.018439298 0.064157404 -0.033178195
000170 ea 48 21 bd d3 09 34 bd cf 91 b7 3d 71 16 23 bd
       -0.039376177 -0.04395468 0.08963358 -0.039816324
000180 ec f0 4a 3c 29 dc 8d 3c e1 ac 88 bd 00 b6 2c bd
       0.012386542 0.017316895 -0.06673599 -0.042165756
000190 05 9d 0e bd f1 16 98 3c c1 09 3c 3d 7b 1d 50 3d
       -0.034817714 0.018565627 0.04590774 0.050809365
0001a0 3e b8 a4 3c a4 81 19 bc 6d 78 fa bc 30 0d b9 bc
       0.020107385 -0.009369288 -0.030575002 -0.022589296
0001b0 75 ad fe bc fe 9e 54 3c 88 5e d0 bc 8e 75 11 3d
       -0.03108857 0.01297736 -0.025435701 0.0355125
0001c0 23 f8 a7 3c 93 f8 1a 3d e7 be 27 bd 92 95 0e bd
       0.020504063 0.037834715 -0.040953543 -0.03481061
0001d0 ca 7a 69 bd f6 fd 89 3c af 08 92 3c dd d0 64 3d
       -0.057001866 0.01684473 0.017826406 0.05586325
0001e0 76 25 3d 3c 6c 3a 34 3d f0 c2 09 3c 5a 93 07 bd
       0.011544576 0.044001028 0.008408293 -0.03309951
0001f0 b0 77 94 bc 2b 64 86 3c cc 23 3d bd 2d dd 88 3c
       -0.018123478 0.016405186 -0.046176717 0.016707027
000200 aa e7 46 3c 89 d7 83 bc 1d 3d ab bc 5e c8 fe bb
       0.012140194 -0.016093986 -0.020903165 -0.0077753505
000210 c9 63 0d bd a6 05 21 bd 30 c0 a3 bc 0d 76 d7 3c
       -0.03451899 -0.039312027 -0.019989103 0.026301408
000220 14 f1 1b 3c 12 8e 7e 3d 10 15 98 3c c7 d2 68 bc
       0.009517927 0.062147208 0.01856473 -0.0142104095
000230 fa 6d 03 bd b7 40 eb bc 60 e2 ed ba 56 65 2f 3c
       -0.032087304 -0.028717382 -0.001814913 0.010705313
000240 9d ad 22 ba 5e 9e cc 3c a1 d2 e3 bb df 26 2c 3d
       -0.000620568 0.02497786 -0.006952599 0.042029258
000250 7f 77 2f bc d8 4c bc bd 0b 77 0f bd 61 c2 d1 bc
       -0.010709642 -0.09194344 -0.035025638 -0.025605382
000260 0b 20 bd 3c aa af 3f 3c 22 bd af bc ce 4d 79 bc
       0.023086568 0.011699596 -0.02145249 -0.015216304
000270 e3 1a 26 bc 2c ce 02 3d d7 6d 87 bd f4 27 6d bd
       -0.010138246 0.031934902 -0.06612747 -0.05789943
000280 48 3c 55 bd 46 85 9f 3c b9 07 f4 3d a6 dc 59 3d
       -0.05205944 0.01947273 0.119155355 0.053188942
000290 c1 55 3c 3d 37 62 2c bd 6d 59 31 bd a8 ac ea bc
       0.04598022 -0.042085852 -0.043298174 -0.028646782
0002a0 95 92 02 bd b7 79 e0 3c 7b 43 1f bc fa 6b 7f 3c
       -0.031878073 0.027401788 -0.009720678 0.015589708
0002b0 78 b7 03 bd 46 1e 9f bc 7e ff 8a 3c 04 39 a7 bd
       -0.03215739 -0.019423615 0.016967531 -0.08165172
0002c0 27 65 84 bc 6e 25 19 bd ea 57 b7 bc 9b 04 72 3d
       -0.016161514 -0.03738921 -0.022380788 0.059086423
0002d0 9f 33 1d 3d da da c6 3b 94 81 a8 bd e2 e9 33 bb
       0.038379308 0.0060685696 -0.0822784 -0.0027452637
0002e0 1d 3e e0 3c d4 2b 49 bd b0 ac ea 3c 92 50 8f 3b
       0.027373368 -0.049114063 0.028646797 0.0043736184
0002f0 0c fd 44 bc 5a 28 e7 3c 3f ae 10 3d 93 b6 2a 3c
       -0.012023222 0.028217483 0.035322424 0.010419506
000300 45 e0 de bd 51 1f 5c bd 42 f0 4a 3c 69 83 6b bb
       -0.1088262 -0.053740803 0.0123863835 -0.003593648
000310 e1 4a c9 3d e3 38 5f 3c f2 2e 58 bc fb a4 ae bd
       0.09828735 0.013624403 -0.013194786 -0.08527561
000320 b6 69 1e 3d 25 c1 46 3d ad b3 c8 bc 15 04 d6 3c
       0.038675033 0.04852404 -0.024499739 0.026124993
000330 28 6f d3 bb d0 02 01 3c bc db 0d 3d d7 76 eb 3b
       -0.00645246 0.007874206 0.034633383 0.0071857977
000340 88 3e f7 3c 57 49 6c bd 65 cb 43 bd 08 9d 81 bd
       0.030181184 -0.05768713 -0.047801394 -0.063287795
000350 6b ad 90 3c 2a d8 e0 3c 5b 02 eb bb 06 43 8a 3b
       0.017660817 0.027446825 -0.0071719117 0.0042194156
000360 4b ee 26 bd 34 40 31 3d 54 5c 15 bc 10 da 25 bd
       -0.040754598 0.04327412 -0.009116251 -0.040491164
000370 07 5f fe 3c 17 01 35 bb ed f7 3f bc 86 79 8d 3a
       0.031051172 -0.0027619058 -0.011716825 0.0010793663
000380 4c d1 a9 3c 4e 08 12 3d 07 d3 cb bd 07 4b 17 bd
       0.020729683 0.03565245 -0.0995236 -0.036936786
000390 f3 be 75 bc 56 1f 11 bd 53 c8 1c bc 9e 95 bd 3b
       -0.014999139 -0.035430275 -0.009569245 0.005785658
0003a0 5f e5 22 3d 88 1e fe bc ce d6 9f 3c b8 ab c1 3c
       0.039769527 -0.031020418 0.019511607 0.023641452
0003b0 15 3e d0 bc 17 47 ff 3c fd ee 0a 3c 51 4f 1a bc
       -0.025420228 0.031161828 0.008479831 -0.009418325
0003c0 eb 4e 51 bc 0c b2 bb 3d d5 8a 33 3d 4f 3e 94 bd
       -0.012775163 0.09164819 0.043833572 -0.07238447
0003d0 92 4e a1 bd a7 46 32 bb 52 e1 85 bc fc 19 ee 3c
       -0.07876314 -0.0027202757 -0.016342793 0.029065125
0003e0 b6 68 ad bc db b6 be bc 3e 7e 4e bd 40 93 5c 3d
       -0.021168094 -0.023280552 -0.050413363 0.053851366
0003f0 2b 5f 71 3d cc 73 61 bd 96 7b 07 3d 7d 9d 56 3b
       0.05892865 -0.055042073 0.033076845 0.003274768

_model.layers.0.bias f4 [50]
000000 a8 8a 4a bd 00 50 4c bd de c0 5a 3d e2 49 62 bb
       -0.04944864 -0.04988098 0.05340659 -0.00345289
000010 90 cb 30 bd 40 4a 3e bc ff 04 51 bd d5 54 c6 bd
       -0.043162882 -0.011614382 -0.051030155 -0.09684149
000020 fa 63 39 bb f2 33 eb bd ae fa 22 3d ab 31 05 3c
       -0.002828835 -0.11484517 0.039789848 0.008129518
000030 12 43 ee bb 97 2b f5 bc f0 83 2b bd d5 fb 14 3d
       -0.007271179 -0.029928012 -0.041873872 0.03637298
000040 ce 75 9e bc b3 a3 a7 bc aa 21 82 3b 8d 13 d6 bd
       -0.019343283 -0.0204638 0.003971298 -0.10452948
000050 ad 4f a8 3b ed cd 9f bd 32 d1 af bc a3 01 09 3c
       0.005136451 -0.07802949 -0.021462057 0.008362207
000060 51 06 19 3d c7 0b 82 bd 49 47 08 bb 6e 7a 16 bd
       0.03735954 -0.063499026 -0.0020794442 -0.03673785
000070 f4 85 aa bd 53 3c 08 bd 11 c4 3b bd 53 51 59 bd
       -0.08326331 -0.033260655 -0.04584128 -0.053056072
000080 88 49 22 bd 81 bf 21 bc ae ac c3 ba 2e 60 06 3d
       -0.039620906 -0.009872318 -0.0014928782 0.032806568
000090 ea 0f c4 3c a9 61 84 bb 5d b7 ab bd b7 ee 53 3c
       0.02393337 -0.0040399623 -0.08384583 0.012935332
0000a0 d5 d1 ca bd 9b 9f 0a bb 5a a6 6a 3d 64 60 fc 3c
       -0.099033035 -0.0021152261 0.05728755 0.030807681
0000b0 ff cb 25 bd 62 17 7a 39 ad 62 04 bd db e7 9e 3c
       -0.04047775 0.00023850569 -0.032320667 0.019397667
0000c0 20 c1 0e bd fb 7c ff bc
       -0.034852147 -0.031187525

_model.layers.1.weight f4 [50, 50]
000000 e9 b4 9e bd 22 f6 d1 3d 0e db 66 3d e4 90 05 3e
       -0.077493496 0.10252024 0.05636125 0.13043553
000010 e6 7a 6d bc c7 e4 69 3d a6 53 fc 3d ce 47 d7 bd
       -0.014494633 0.057102945 0.12320642 -0.105117425
000020 d8 b7 9e bd 9c 4b 10 be 4d 64 84 3c b5 8a 43 3c
       -0.07749909 -0.14091343 0.016161108 0.011934926
000030 44 cf b0 3d b4 3b 11 bb 81 41 a3 3d e3 c4 57 3d
       0.08633283 -0.002216083 0.07971478 0.052678
000040 19 05 ee 3d c9 ca d1 bc 65 20 0e 3c 3d a1 d2 bd
       0.11622066 -0.02560939 0.008674716 -0.1028466
000050 2d 5a fa 3d 1e 79 9a bd ee 86 13 3c 1a 19 8f 3d
       0.12224231 -0.075426325 0.009004338 0.069872096
000060 b6 2e 86 bd 65 06 c2 3d 31 59 09 3e a1 29 46 bd
       -0.06551878 0.09473876 0.1341293 -0.048379544
000070 3d a2 58 3d 7d 78 92 bd e3 bd ea bd ca 99 f9 bd
       0.052889097 -0.071518876 -0.11461999 -0.12187536
000080 62 51 a9 3d 70 c7 b3 3d 86 29 79 3d 55 ca e0 bc
       0.08267476 0.08778274 0.060830615 -0.02744023
000090 e2 83 86 3d 67 cc 9c bd 04 11 1f 3d 4e 8b f3 3b
       0.065681234 -0.07656174 0.038834587 0.007432378
0000a0 d8 a4 8b 3d dd 50 85 3c 8e e7 d5 bd 9e 77 f5 bd
       0.06818551 0.01627391 -0.10444556 -0.11985706
0000b0 4b a2 e0 3d 96 41 bf bc c9 4b 00 be 19 5e 0f be
       0.10968455 -0.023346703 -0.1252891 -0.14000739
0000c0 df 28 ab bd a6 e5 84 bd 0f 85 45 bd ef 54 f1 3d
       -0.08357405 -0.064891145 -0.048222598 0.11783778
0000d0 ac 36 01 bc 11 12 be be d6 e6 ef 3d 30 8a f6 3d
       -0.00788657 -0.3712316 0.1171395 0.12038076
0000e0 7b fd ec bd 06 e1 fd bd 60 ad 1f 3d 60 08 83 bd
       -0.11571785 -0.123964354 0.038983703 -0.06398082
0000f0 7c 80 82 bd 72 7b eb bc d5 30 28 be e9 3d 62 bd
       -0.06372163 -0.028745387 -0.16424878 -0.055234823
000100 47 01 0c be 14 d1 d8 3c df 3e db 3d 54 94 ab bd
       -0.13672362 0.026466884 0.10705351 -0.08377901
000110 b3 2c 55 3c 2c d7 2d bb 46 11 a6 3c ea a2 a5 3d
       0.013011145 -0.0026525958 0.020271908 0.08087714
000120 ef 11 2e 3d 03 dc 8a bd 93 18 fc bb 3e 29 fb bd
       0.04249757 -0.06780245 -0.007693359 -0.12263726
000130 27 98 43 3d 49 fc d2 3d 3e 43 2c 3e e1 f1 c3 3d
       0.047752526 0.10302026 0.16822526 0.09567619
000140 f8 9c b3 bd 69 ab 1d be a8 b6 b2 3b c5 08 8c 3e
       -0.08770174 -0.15397419 0.005453903 0.2735044
000150 c4 0b 94 bd 6e bc 58 3d 97 6d fa bd 9a 5e 65 3d
       -0.072288066 0.052914076 -0.12227934 0.055998422
000160 a2 50 30 3d 04 93 59 3c 21 a3 12 3e 72 ff 97 bd
       0.043045647 0.01327968 0.14320041 -0.07421769
000170 94 e1 05 3d 02 5c d5 bd e7 73 0a be 0b 63 9a 3d
       0.03268583 -0.1041794 -0.13520776 0.07538422
000180 4e ed 92 3d ee 4a bc 3c 9a dc 81 3c 9b 7c 64 3e
       0.071741685 0.022984948 0.015852261 0.22313158
000190 c9 f8 28 bd af d2 96 bc 4a 6d 51 be 67 9e 27 3e
       -0.041252885 -0.018411009 -0.20451847 0.1636902
0001a0 15 03 ab bd 6e b2 20 be 97 93 34 3d 3c c0 38 3d
       -0.08350197 -0.15693066 0.044086065 0.045105204
0001b0 1a 10 ac 3d c9 73 05 3e 6b d9 fe bc 80 3f 37 3c
       0.08401509 0.1303245 -0.031109532 0.011184573
0001c0 aa ff 17 3e ce 4c 99 bd 3e 0a 03 3e 7b 2c 87 bc
       0.14843622 -0.074853525 0.12796876 -0.016500702
0001d0 ac dd 24 bd e9 4b e7 bc 86 15 f7 bd 2b 4e 6a 3d
       -0.040250465 -0.028234439 -0.12064652 0.057203453
0001e0 49 5f e3 bc c8 d4 ac 3d 23 9d ad bd e2 d4 23 be
       -0.027755396 0.08439022 -0.08477237 -0.15999177
0001f0 ea e8 14 3d 59 49 d8 3d c3 d3 d6 3d b9 41 be bd
       0.036354937 0.10560865 0.10489609 -0.09289879
000200 ce 98 41 3e dd d5 0b 3d e9 95 12 3e b4 ee a2 bd
       0.18905947 0.034139503 0.14314999 -0.07955685
000210 3f 7d 62 3d d0 f2 8e 3d 11 58 7f 3d ad 64 d5 bd
       0.055295225 0.069799066 0.062339846 -0.10419593
000220 9c f7 91 3d 87 77 f3 3d 79 e8 23 bc dd 44 c1 3d
       0.07127306 0.118880324 -0.010004156 0.09436963
000230 6e b7 bf 3b ed ce 48 bd 4c 5f f4 3c 08 c0 09 3e
       0.005850724 -0.049025465 0.029830597 0.1345216
000240 0b 1e b6 3d 26 23 34 bc 05 ed 45 3e 86 dc 9d 3d
       0.08892449 -0.010994708 0.19328697 0.07708077
000250 5f 80 c8 bd 70 95 18 be 80 a9 e6 3d d5 61 a1 bb
       -0.0979011 -0.14900756 0.11262798 -0.0049249926
000260 32 c5 9e 3d 41 bc 80 3d 1b bd 09 3e 4c 28 2b be
       0.07752456 0.062859066 0.13451044 -0.16714591
000270 48 33 5e 3d 67 a8 34 3e 94 73 0a 3e 65 57 89 3d
       0.054248124 0.17642365 0.13520652 0.06706122
000280 59 b8 db bd c7 38 08 3d a9 fc 6d be f1 14 07 b9
       -0.10728521 0.033257272 -0.23240913 -0.00012882405
000290 8e 49 fa 3d 6a 5b 96 bd 09 5b 78 3c 4a 2a 54 be
       0.12221061 -0.073416546 0.015158423 -0.20719257
0002a0 e3 01 9d 3b 84 89 78 3d f1 37 a0 bd b9 84 d6 bd
       0.0047914847 0.06067802 -0.0782317 -0.104745336
0002b0 9b 57 fb 3d 87 a9 ed 3d 85 0a b5 3e cf e8 3e 3d
       0.12272569 0.116046004 0.35359588 0.046608742
0002c0 f0 88 58 3e 90 7f db 3d 76 78 c1 bd 78 6d f7 bd
       0.21145988 0.1071769 -0.09446804 -0.120814264
0002d0 08 78 7b 3c 3d b1 8a 3d bb 5c fc 3d e7 58 0c bd
       0.015348442 0.06772087 0.123223744 -0.03426447
0002e0 2d 16 db 3d 37 0b 08 3e 0c 26 7c bd 71 b8 45 bd
       0.10697589 0.13285528 -0.06155972 -0.0482716
0002f0 25 f9 d9 bc e4 f1 11 bd 5e f4 07 bd 8a ef da 3d
       -0.02660806 -0.035631076 -0.03319203 0.1069022
000300 ab a1 8e 3e 99 41 d5 3d e8 66 bc 3a 1a 6f 75 bd
       0.27857718 0.104129024 0.001437393 -0.059920408
000310 b5 8b de 3d da 96 15 3d 98 2e b3 bd 2e 64 8a be
       0.10866491 0.036520816 -0.087491214 -0.27029556
000320 10 8f 71 3e 8c 8f d9 bd ef e0 be 3c ac 80 07 3e
       0.2358973 -0.106230825 0.023300616 0.13232678
000330 3a 53 37 3d 01 b2 9d bd 99 dd 01 3e 0e b5 a2 bd
       0.044757105 -0.07699967 0.12682189 -0.0794469
000340 39 92 12 bd 6a f0 14 3e 1c 57 d1 bd 31 aa a9 3d
       -0.03578398 0.14544836 -0.10221693 0.082844146
000350 88 d1 b5 ba ce b8 ea bd 13 c4 9c bc 57 af e8 bd
       -0.0013871649 -0.1146103 -0.019136464 -0.113615684
000360 fc 7e ff 3d e4 62 21 be 24 e3 0d 3e 15 d7 02 3e
       0.12475392 -0.1576038 0.13856179 0.1277736
000370 21 be 3f 3d 19 37 e9 bd 2a c1 a3 bd 74 ec 09 3e
       0.04681218 -0.11387462 -0.079958275 0.13469106
000380 91 87 42 be b5 75 4c bd 9c fa 10 bd e0 36 07 3d
       -0.18997027 -0.04991694 -0.03539525 0.033011317
000390 a2 23 1f 3e 82 20 45 bd ba a5 19 3d 2c 07 6f 3d
       0.15540937 -0.048126705 0.037511565 0.05835645
0003a0 17 62 39 bd fe 5d 13 3e c5 da e4 bb 83 8a c5 bd
       -0.04525956 0.14391324 -0.006984087 -0.0964556
0003b0 d7 bd 07 3e 92 16 16 3d 61 90 56 bc b9 80 c2 3d
       0.13256012 0.03664262 -0.013095946 0.09497208
0003c0 49 59 0e 3c 74 17 07 3e a6 2a cb be 6a c5 2f bd
       0.008688279 0.1319254 -0.39680976 -0.042912878
0003d0 04 93 02 3e 5b f6 41 bd 29 9e 04 3e d9 71 62 bd
       0.12751395 -0.047354084 0.12950958 -0.055284355
0003e0 67 56 c1 bd b5 88 a7 bd ab 5f 3b bd a6 d0 21 3e
       -0.09440308 -0.08180372 -0.045745533 0.1580225
0003f0 fc 67 11 bc e4 d6 90 bc d9 ba 2f bd c7 58 98 3d
       -0.008874889 -0.017680593 -0.0429028 0.07438808

_model.layers.1.bias f4 [50]
000000 ca 75 97 bd 96 16 36 ba fb 30 9e bd b2 44 03 be
       -0.07395513 -0.00069461146 -0.07724186 -0.12819174
000010 54 d9 03 be 6b 85 73 3d 0f ff e2 bd 48 eb ad bd
       -0.12875873 0.05945341 -0.11083805 -0.08492142
000020 27 c3 44 3e d7 06 6b bd 1a 09 94 3c ea e4 cf bd
       0.1921507 -0.05737957 0.018070746 -0.10151084
000030 22 11 84 3c bc 99 17 be f6 a3 4d bd f9 a3 66 bd
       0.01612145 -0.14804739 -0.050205193 -0.05630872
000040 5b fa dc 3b 64 bd 05 3c fa 28 13 3d 1d 09 16 3d
       0.006743712 0.00816283 0.03592775 0.036629785
000050 7c 8b f3 bc bb c1 4b bd 64 32 de bd 04 f6 a5 3d
       -0.029729597 -0.049745303 -0.10849455 0.081035644
000060 53 1d cd 3d 84 e2 15 bd 17 26 03 be 20 a7 0a bc
       0.10015359 -0.036592975 -0.12807499 -0.008462697
000070 3d 23 38 3d 85 95 86 bc d2 fd 8a bc 44 20 7b 3d
       0.04495548 -0.016428718 -0.016966734 0.061310068
000080 1a 81 70 bd 38 cb 00 bd 37 51 25 be 9d a7 a3 bc
       -0.05871687 -0.031443805 -0.16144262 -0.019977385
000090 35 a5 87 bd 3d b0 36 bd e1 e5 02 be 9e 52 19 3e
       -0.066233076 -0.044601668 -0.12783004 0.14972922
0000a0 67 15 8a bd 59 92 93 3d 27 ba ea bb 6a 44 0d bd
       -0.067423634 0.07205648 -0.0071633044 -0.034489073
0000b0 43 78 48 bd 0d 57 9c bd 4f 1d 7a bb 77 4c 20 bd
       -0.048942816 -0.07633791 -0.0038164442 -0.039135423
0000c0 4a d3 34 bc fe c5 ae bd
       -0.011036703 -0.08533858

_model.layers.2.weight f4 [50, 50]
000000 2c fc 8b 3a 43 bd a1 3d 72 16 d3 bc 9f a0 08 bc
       0.0010680011 0.07897427 -0.025767539 -0.008339076
000010 8e d8 22 3e 64 9d 12 3e 0a f0 7b 3a 38 07 81 3d
       0.15902922 0.14317852 0.0009610659 0.06300205
000020 32 38 01 bc ce 33 ec bd 06 f5 d2 bd 62 98 6a bd
       -0.007886933 -0.115333185 -0.10300641 -0.05727423
000030 39 a0 d3 3d 86 30 e8 ba 67 99 4f 3d 11 d9 6a be
       0.103332944 -0.0017714656 0.050683405 -0.22934367
000040 06 40 b9 3d 15 8f 72 3c be 92 ec bc 3a 82 28 3a
       0.090454146 0.014804621 -0.028878566 0.00064280967
000050 3b 9e 5d be cb 29 10 3e bc f7 02 be db dd ae 3d
       -0.21642391 0.14078443 -0.12789816 0.08538409
000060 4d ee 49 3e 18 b2 1f bc a4 29 a4 3b d0 17 ad 3d
       0.19719811 -0.009747051 0.0050098468 0.084518075
000070 34 ff d4 3d c7 01 9f 3d 74 d8 13 3e f4 92 51 3d
       0.10400239 0.07764011 0.14438039 0.051165536
000080 e1 4c 9a 3d 68 e9 b3 3b dd d8 fb 3d e8 36 e9 bd
       0.07534195 0.0054904707 0.12297223 -0.11387426
000090 86 f5 7a 3d 24 c4 10 3e c0 a9 36 3d 3d 66 c6 3c
       0.061269306 0.14137322 0.04459548 0.024218673
0000a0 d5 a8 cc 3c 5c 86 d0 3b d5 f7 08 3c a5 55 9b 3d
       0.02498285 0.006363673 0.008359869 0.07584695
0000b0 3c 71 35 3e 7d 60 50 bd 2c e8 f0 bd b0 11 17 bd
       0.17718977 -0.05087327 -0.11763033 -0.036882102
0000c0 7e 09 1a 3c 77 14 fa 3c cd cc fd 3d 25 33 c2 3d
       0.009401677 0.030527337 0.12392578 0.09482411
0000d0 23 c3 07 be 5d 12 0a 3d d4 9c 26 3e d3 8f 4c 3e
       -0.13258033 0.03370892 0.16270763 0.1997674
0000e0 37 42 82 3d 80 fc 1c 3e e6 f5 9d 3d 83 b9 82 3d
       0.06360286 0.15330696 0.07712917 0.0638304
0000f0 98 5a 4a 3d e8 23 15 3d 2d e5 9c bc c1 e8 78 bd
       0.049402803 0.036411196 -0.019152248 -0.060768846
000100 b0 cd da bb 65 fe 8d be cb 99 eb bd 02 26 c2 bc
       -0.006677352 -0.2773315 -0.11503943 -0.023699764
000110 45 9d f0 3d b4 37 dc 3d e8 49 b5 3c 0f 5d 4b 3d
       0.11748747 0.10752812 0.022129968 0.049649294
000120 b0 03 6b bd ad be 18 be 23 64 db 3c af b3 74 3c
       -0.057376564 -0.14916487 0.026781147 0.014935418
000130 bb b5 c0 3d 4a 7e 4d 3d be c5 bc bd da e4 da bd
       0.09409662 0.050169267 -0.09217404 -0.10688181
000140 52 ad 5f 3d a4 63 f8 bd af 7a 88 bd 8c 78 89 bb
       0.05460865 -0.1212838 -0.06664025 -0.0041952785
000150 85 60 68 bd fc 3f 8e bd 68 7d d0 3d 96 d0 07 be
       -0.056732673 -0.06945798 0.10180169 -0.13263163
000160 cb 21 47 be 4b 39 91 bc 51 81 1d 3d 9c bf 71 be
       -0.19446485 -0.017727515 0.038453404 -0.2360825
000170 f7 35 69 3d 9e ea c8 bc c8 78 0a 3d 0f bb b0 bd
       0.05693623 -0.024525937 0.033806592 -0.086294286
000180 b6 50 af 3d 68 25 a1 3d b0 3f 53 bd f3 1c a6 3c
       0.08560316 0.07868463 -0.05157441 0.020277476
000190 88 c5 83 3d b6 ea 85 3d a1 ec 94 bd d2 1c 96 bd
       0.064341605 0.06538908 -0.07271696 -0.07329716
0001a0 af dd 55 3d 89 c4 a5 bd 8f a0 e7 bd 04 a3 9d bc
       0.052213367 -0.08094127 -0.11309921 -0.019242771
0001b0 95 4e db bd f3 44 8f 3d 84 b1 f5 bd bd a8 7c bd
       -0.10708348 0.06995573 -0.11996749 -0.06168436
0001c0 36 17 6d bd 6f a3 f6 bd 05 f7 9c bd c3 50 1c 3d
       -0.057883464 -0.12042891 -0.07664303 0.038162958
0001d0 ea b2 ed bd bf bf e6 3d 15 9c 00 be bf 20 58 bd
       -0.11606391 0.112670414 -0.1255954 -0.052765604
0001e0 80 77 28 bb a7 98 f3 3d 4a 76 0f be 43 46 8f bd
       -0.0025705993 0.118943505 -0.14009967 -0.06995823
0001f0 28 ff cf 3c b0 68 8b 3d 13 48 4b bd 7c a9 af 3c
       0.025390223 0.06807077 -0.049629282 0.021443121
000200 d4 a4 98 bd ab 77 10 bc 51 dc 18 bd 37 94 17 bd
       -0.074533135 -0.008817594 -0.037319485 -0.037006583
000210 2e 42 d6 3d dd 62 fa bd c2 fb ca bc b7 1c d0 bd
       0.104618415 -0.12225888 -0.02477825 -0.10161727
000220 45 42 e6 bd da e7 03 3e d6 27 da 3d 70 a5 e7 bc
       -0.11243109 0.12881413 0.10652129 -0.028277129
000230 48 0d c5 3d 8b 79 a6 3d a4 75 9f 3d e5 47 d2 bd
       0.09621674 0.08128651 0.0778611 -0.10267619
000240 66 52 c1 bd af 24 6a 3d 46 d1 8a 3c 1f 28 f6 3c
       -0.094395444 0.05716389 0.016945492 0.030048428
000250 c5 07 f8 3d 2f 03 aa bd bf b7 1f b9 4a 14 b8 3c
       0.12110857 -0.083013885 -0.00015231872 0.022470612
000260 37 0c 9a 3c 44 dc 8e bc 8c 2b 83 3d c3 f3 35 bd
       0.018804653 -0.017439015 0.0640479 -0.044421922
000270 e7 52 2b bd 5b 48 56 3b ea 41 f2 bc 29 fe 83 bc
       -0.04182711 0.0032696936 -0.029572446 -0.016112404
000280 ac 49 cf bd 30 a4 d1 3d ce 25 8f bd 1d d2 d2 bd
       -0.10121474 0.102363944 -0.069896325 -0.10293982
000290 38 17 2f 3c cc 78 8c 3d d6 bd 06 bd 90 4c 16 bd
       0.010686688 0.06858978 -0.032895885 -0.03669411
0002a0 34 41 00 3e 61 8e ab bc 68 3b 48 3d 39 5f 57 3d
       0.12524873 -0.020941915 0.04888478 0.052581046
0002b0 8a fb 7e bd 0c 0b ad 3d 4c 41 17 be f6 98 06 be
       -0.062251605 0.08449373 -0.14771003 -0.13144287
0002c0 8c ba 9f 3d 62 d8 78 3c a0 ad f9 bd e3 cb ab bd
       0.07799253 0.015188308 -0.121913195 -0.08388498
0002d0 31 fd 0d be c6 0b 9e 3c 8b 7c 66 bc 03 bd 4d bc
       -0.13866116 0.019292723 -0.014067779 -0.012557271
0002e0 d0 61 08 3d da 2d f7 bd d2 31 fc bd d1 47 6d bd
       0.033296406 -0.12069292 -0.1231419 -0.057929818
0002f0 41 51 9d bd 42 db 90 3d 5f 03 f4 bb c1 d6 e2 bd
       -0.076815136 0.0707307 -0.007446691 -0.11076117
000300 7a eb 9d 3d 87 87 81 bc 63 5b 9e 3d 26 43 f9 bd
       0.07710929 -0.015811695 0.077322744 -0.12171011
000310 b1 9e c5 3d 96 f3 bc 3d d0 38 26 bd a4 cb ff bd
       0.096494086 0.09226148 -0.040581524 -0.12490013
000320 1d 36 6a 3d bc a1 18 bd 34 9c c9 3b ca 24 ac bd
       0.057180513 -0.037263617 0.006152654 -0.084054545
000330 95 67 17 3d 56 52 70 3d 0a 82 e8 3d e4 bc 18 be
       0.036964018 0.05867227 0.11352928 -0.14915806
000340 04 68 e1 bd ec b6 9e bc 65 02 d4 bd 0e 04 e3 bd
       -0.110061675 -0.019374333 -0.10352019 -0.11084758
000350 8d 24 30 3d ef d3 a5 bd 40 9c 4d 3d 4f 3d 7f 3c
       0.043003608 -0.08097064 0.05019784 0.015578582
000360 ee c4 a8 3d 2d 09 01 3e c0 8a dc bc bb 94 f4 3c
       0.08240686 0.12601157 -0.02692163 0.029856076
000370 3b 04 3f bc dc 9b 7d 3c f5 67 3d 3d e4 19 e8 bd
       -0.0116587235 0.015479054 0.04624172 -0.11333063
000380 dc c1 07 be 0a dc ed 3d 8a f6 b8 bd 9b b5 0b 3c
       -0.13257545 0.11614235 -0.090313986 0.008527185
000390 70 68 11 be ac f5 db 3c c4 cd 65 3d bc a2 8a 3d
       -0.14199996 0.026850544 0.056104437 0.0676932
0003a0 e4 61 d6 3c b1 ab 33 bd b8 30 54 3d 2d e9 53 bd
       0.026169725 -0.04386491 0.051804274 -0.051736046
0003b0 7c 75 bc 3d ab b3 f8 bd 64 17 b2 bd 4d 27 3f bc
       0.09202096 -0.12143644 -0.08695868 -0.011667085
0003c0 51 ba 57 3c ab 13 cc bc bb 3e c6 3c 85 cd 2a 3b
       0.01316698 -0.024911722 0.024199834 0.002606244
0003d0 b2 4e 04 be 64 98 1e bd 91 1b e7 bd 28 b0 98 bc
       -0.12920645 -0.03871955 -0.11284555 -0.018638685
0003e0 51 4e fb bd b2 28 88 3c 2c ab ac bd 3f 6b a4 bc
       -0.12270797 0.016620968 -0.08431086 -0.02007067
0003f0 09 f1 fb 3d fe 50 43 3e 0c 63 c2 bd 19 ec 51 bd
       0.12301833 0.19073865 -0.09491548 -0.05125055

_model.layers.2.bias f4 [50]
000000 29 b2 1d be 94 8a cc 3d ad 52 e4 3d aa 8f 0c be
       -0.15399994 0.09987369 0.11148582 -0.13726678
000010 63 72 0c 3d 11 d9 20 be e2 ee 12 be a6 50 d3 3d
       0.034288775 -0.15707804 -0.14348939 0.10318117
000020 5a 74 ea bd 8e 7b 6b 3d 91 b9 a1 3d 4b 4e 03 be
       -0.114479735 0.057490878 0.07896722 -0.12822835
000030 ce 55 52 bd 23 c4 01 be f5 89 9a 3b 99 3a 3b bd
       -0.05135136 -0.12672476 0.004716153 -0.04571018
000040 a8 89 3d 3d 71 27 04 be 8d 7f 59 bd 5a 57 43 3c
       0.046273857 -0.1290567 -0.053100158 0.011922682
000050 c1 5b 86 3d 55 3b 0c 3e 33 d7 b8 bb bd 9b dc bc
       0.065604694 0.13694508 -0.005640888 -0.02692973
000060 f6 c9 78 3b 58 02 07 be ce ad 02 bd 86 fa 43 bc
       0.0037962175 -0.13184488 -0.031904034 -0.011961585
000070 ba c2 14 3e aa 99 c0 3d f1 44 82 3d 91 c5 8e 3d
       0.14527407 0.09404309 0.06360806 0.069712766
000080 da a6 c9 bd 4c ed e0 bd c0 b0 96 3d 8e c5 20 3d
       -0.098462775 -0.10982761 0.07357931 0.039250903
000090 db 80 44 3d 32 fd c7 3d 49 89 3c bc 22 c3 9e 3d
       0.04797445 0.0976509 -0.011507341 0.077520624
0000a0 9a 82 bf 3c a5 71 3e 3d de 3e a3 3d 91 71 d4 3c
       0.023377705 0.0464951 0.07970975 0.025933059
0000b0 8a cc 93 3c 1f 52 89 bd 93 56 aa 3d 08 18 9a bd
       0.018041868 -0.067051165 0.08317294 -0.07524115
0000c0 5a 98 3e bb 4c 70 0e bd
       -0.0029082508 -0.034775063

_model.layers.3.weight f4 [50, 50]
000000 96 6d 7a bb ac dc 44 3d 96 cd 7b 3d 40 a1 07 3e
       -0.003821229 0.04806201 0.06147536 0.13245106
000010 52 e7 91 3d 93 e8 cc 3d 4b ad 67 bd 66 7e 96 3c
       0.07124199 0.100052975 -0.05656175 0.018370818
000020 eb 26 07 be 6f e6 45 3d 6c f7 1d 3d 39 41 48 3d
       -0.1319844 0.04831546 0.038566038 0.048890326
000030 c8 f0 60 3c 1f b7 d9 bd 12 a3 92 3d 24 60 0d 3e
       0.013729282 -0.10630631 0.071600094 0.13806206
000040 df 60 09 be da 23 0d 3e 12 45 50 3c be 4b 9d 3c
       -0.1341586 0.13783208 0.01271178 0.019201156
000050 d2 71 79 3d db 4b 2d bd 4f 86 f8 3d f2 de 88 bc
       0.060899563 -0.04230867 0.12134992 -0.016707871
000060 85 c5 b0 bd dd 61 89 3d 5e 05 c4 bd a8 90 af bd
       -0.08631424 0.06708119 -0.09571336 -0.08572513
000070 84 8b 28 3d d6 9a 08 be 30 c4 02 3d bb 13 ba 3d
       0.041148677 -0.13340315 0.03192538 0.090857945
000080 68 ec e3 3d d5 e7 a4 3d 9d e7 2d 39 da 14 f2 3d
       0.11129075 0.08052031 0.00016584848 0.11820383
000090 2a 11 cc bd 58 aa 07 3e f3 3b eb 3d 6a bb c6 bd
       -0.09964211 0.13248575 0.11486044 -0.09703715
0000a0 ca bc e2 3c de ae 3d bd 85 54 87 bd c6 93 dc bc
       0.027677912 -0.046309344 -0.06607918 -0.026925933
0000b0 e1 be 23 3d e8 14 e0 bd 00 cd 26 bc b4 ae 86 3c
       0.03997696 -0.109414876 -0.010180712 0.016440727
0000c0 b8 20 bb bd 1f ae 47 bd 96 e0 dd bd 02 06 2d bc
       -0.091371 -0.04875004 -0.10833852 -0.010560514
0000d0 98 ae f0 3d b3 20 d3 3d ad 16 bf bc 00 bb 96 bd
       0.11752051 0.10308971 -0.023326242 -0.07359886
0000e0 46 c9 be bd 96 d8 1d bd d2 30 10 3e 15 3b ab 3d
       -0.093157336 -0.03853663 0.14081123 0.083608784
0000f0 0a bb 59 3d 89 f5 fa bd e1 5b 43 3d 16 c7 b7 3d
       0.05315689 -0.12253863 0.047695044 0.089735195
000100 d7 bc 81 3b a8 45 9a 3d 87 0a 84 3c cb 3a 57 3d
       0.003959279 0.07532817 0.016118301 0.052546304
000110 77 34 c7 3d dd fb 2f 3c 70 16 33 3d 41 fd a2 bd
       0.09726804 0.010741201 0.04372257 -0.079584606
000120 f9 12 3c 3d cb 76 07 be 0a d6 dd 3d 79 f8 25 3d
       0.04591653 -0.1322891 0.1083184 0.040520165
000130 e2 e2 1c bd 0e a7 ce 3c 9c cc b8 3d be 22 0b 3e
       -0.03830231 0.025226142 0.09023401 0.13587472
000140 26 be 46 3c b4 ba ce ba cd 12 9f bd bd 04 c2 bd
       0.012130296 -0.0015772195 -0.07767258 -0.0947356
000150 e7 40 31 bd 75 71 b5 3d ff e9 85 3d b0 10 20 3e
       -0.043274786 0.08859531 0.06538772 0.15631366
000160 8f 04 23 bd 8e 45 8a 3d 58 ac 43 3b 8c a4 99 be
       -0.03979927 0.06751548 0.0029857364 -0.30008352
000170 ea e8 25 3d 98 8c dd 3d 10 81 9a 3d 37 c6 7d 3d
       0.040505327 0.10817832 0.07544148 0.06195661
000180 ba f7 97 3b 51 28 b6 3d bb 11 65 3d fd b0 34 bc
       0.0046376856 0.088944085 0.055925112 -0.011028525
000190 e0 f5 08 3e 0a 01 d0 bd f3 73 e5 3d ee 95 13 3d
       0.13375044 -0.10156448 0.11203756 0.036031656
0001a0 9b 42 bc 3d fe fe 4c 3d 26 7b 43 3d 22 87 3d bc
       0.091923915 0.050047867 0.047724865 -0.011567863
0001b0 00 c5 fb bd 5b ac d3 bd 46 ef da bd 14 89 da bc
       -0.12293434 -0.103356086 -0.10690169 -0.026676692
0001c0 a6 ae 74 3e b7 a2 4c 3d 0d 97 0b be 70 72 77 bd
       0.23894748 0.049959864 -0.1363184 -0.06041187
0001d0 44 75 f8 3d 1c 40 eb bc 84 fd 2c bc 85 58 40 3d
       0.12131742 -0.028717093 -0.01055849 0.04695942
0001e0 52 1d 04 3e 0f 3d 3f 3e d8 30 83 3b 85 41 68 bd
       0.1290181 0.18675636 0.0040036254 -0.05670311
0001f0 c2 e9 9c 3d f1 82 5a bd a4 37 cd 3d 98 59 a2 be
       0.07661773 -0.05334753 0.10020378 -0.3170898
000200 38 7c 3a 3e e0 1b 09 be 0b 91 a4 3d 03 e4 ae 3c
       0.18211448 -0.1338954 0.08035477 0.021348959
000210 96 82 ad 3d 8d 09 80 bd a5 80 aa bd ee 84 02 3e
       0.08472173 -0.06251822 -0.08325318 0.12746021
000220 cd a2 69 bd 2f eb 18 3e ea 68 c9 bd 92 4e 41 3e
       -0.057040025 0.14933465 -0.09834464 0.18877628
000230 4b c6 f9 3d 59 1e 10 3c ee e0 58 bc ac 07 11 be
       0.121960245 0.008796298 -0.013237221 -0.14163083
000240 5e 2f 05 3d 57 04 0e be 56 f5 b1 3c 29 9a ac 3d
       0.032515876 -0.13868843 0.02172343 0.08427841
000250 23 41 c9 bd b0 58 61 3d 60 10 33 3c b0 b8 20 be
       -0.09826877 0.05501622 0.010929197 -0.15695453
000260 4a 1e 0c be ce d9 e6 bc c9 56 34 bc 84 ea da bd
       -0.1368343 -0.02818003 -0.011007019 -0.106892616
000270 07 34 12 be fb 89 80 ba ee cd f1 bb 78 1b 96 bc
       -0.1427766 -0.0009806746 -0.007379285 -0.018323645
000280 18 79 f6 bd 4a 51 2b 3e 80 50 dc bc f9 7d 5f 3d
       -0.120348155 0.16730228 -0.026893854 0.054563496
000290 ef 63 0e 3d c9 9b 80 3d 9b a6 ef 3d d6 a4 7b 3e
       0.034763273 0.06279714 0.11701699 0.24574599
0002a0 17 84 d7 3d 2f dd 7d 3c de ee 01 be 0e 03 b6 ba
       0.10523241 0.015494629 -0.12688777 -0.0013886408
0002b0 2a 43 f1 3d 26 c7 ee 3d 50 4c 0f bd aa 7f c5 bd
       0.11780389 0.11659078 -0.034984887 -0.096434906
0002c0 27 28 d9 bd c2 7d 15 3e ee 7a e0 3c 4e c3 81 bd
       -0.106033616 0.14598754 0.027402367 -0.063360795
0002d0 cc dd 87 bd 51 85 ec 3d 18 c0 e1 3d a2 26 41 bd
       -0.06634101 0.115488656 0.11022967 -0.047155984
0002e0 ea c2 35 3d ce c8 a0 bd 47 dc ba 3d e6 d8 27 be
       0.044375338 -0.078508005 0.09124046 -0.16391334
0002f0 df 89 28 bd 1c 35 fa 3d 20 71 22 3d 34 77 bf bb
       -0.04114711 0.12217161 0.039658666 -0.0058430675
000300 4f e2 6e 3d 50 21 c9 bd 95 92 04 3c cb cb 00 3e
       0.058321293 -0.09820807 0.0080915885 0.12577741
000310 05 89 ec 3c 2e 12 98 3d 5f 72 07 3e f2 4a 37 bd
       0.02887393 0.074253425 0.13227223 -0.044749208
000320 84 95 3e 3e cb 72 2a be fa 09 66 bd 5a d4 44 3d
       0.18611723 -0.16645353 -0.05616186 0.048054077
000330 77 8b e0 bd ba a0 38 3d 69 8a ad bd 4a b8 6c be
       -0.10964101 0.045075156 -0.08473665 -0.23117176
000340 e1 28 5e be 78 28 c3 bd f4 54 03 be 1b 13 07 3e
       -0.21695282 -0.09529203 -0.12825376 0.13190882
000350 ab f7 b2 3d 6b 99 28 bd 24 ef 85 3c cc 00 58 bd
       0.08738645 -0.041161936 0.016349383 -0.052735135
000360 1e f2 bb bd d1 da 87 3e a1 5e 50 3e e1 7f c8 3b
       -0.091770396 0.2653413 0.20348598 0.00611876
000370 26 72 e0 bc bb 82 37 3c 66 59 86 bd 2e 7b c3 3d
       -0.02739818 0.011200602 -0.0656002 0.09544979
000380 1f 65 d4 3c da 95 45 3c c7 5d ca bc 29 4f 1d be
       0.025927125 0.012059653 -0.02470292 -0.15362228
000390 b8 80 73 be c3 b7 c0 3c 6e 17 e2 bc 2f 81 e0 3c
       -0.23779571 0.023525124 -0.027599063 0.02740535
0003a0 d7 f9 07 bd 6f e5 a9 3c 53 dc 85 3c cc a7 0b bd
       -0.03319725 0.020739285 0.01634041 -0.03409557
0003b0 ea 6f 46 3d b5 35 23 3d 05 ad 43 3d d6 6c 93 3d
       0.048446573 0.03984614 0.047772426 0.07198493
0003c0 08 43 ea 3d 4b 50 9d bd 78 2d 28 3b d3 ad 75 bc
       0.114385664 -0.0768133 0.0025661867 -0.014995056
0003d0 56 15 a2 bd 3d f7 2d 3c 87 24 94 bc 45 97 b7 bb
       -0.07914226 0.010618028 -0.018083824 -0.0056027495
0003e0 06 64 a8 bc c3 c5 a4 bc 9d d1 2e 3e ac 5a 80 3d
       -0.020555507 -0.020113831 0.17072149 0.06267294
0003f0 58 7f c9 bd 0b 60 e0 bd dd bc 4a 3d b0 4a c9 bd
       -0.09838742 -0.10955819 0.04949652 -0.09828699

_model.layers.3.bias f4 [50]
000000 ec 9e 19 bd 51 1d 64 bd 3f 21 0a 3d 6c 07 12 3e
       -0.037505075 -0.05569202 0.033723112 0.14260644
000010 a7 3b e8 bd a7 29 7b 3d 53 b2 2f 3d d3 e8 43 3d
       -0.11339503 0.06131902 0.042894673 0.04782946
000020 f6 7a 4c 3d 41 03 56 bd 7d 0b 45 3e d5 2d 0d 3d
       0.049921952 -0.052249197 0.19242664 0.034467537
000030 8a fe 02 3e 4f 65 9c 3d 84 7a d7 3d b5 61 15 bd
       0.12792411 0.076365106 0.10521415 -0.036470134
000040 76 85 0c 3d 78 62 57 3e 2c f8 00 3e cf bc 68 3d
       0.034306966 0.21033657 0.1259467 0.056820687
000050 91 4a 1f be 49 bb 54 be ec e7 d0 3d 2e f6 b1 3b
       -0.15555789 -0.20774569 0.102004856 0.0054309582
000060 39 c9 83 bd f7 95 3d 3e 05 73 7a bb 5f 39 10 3e
       -0.064348646 0.18514238 -0.003821553 0.14084385
000070 0d 23 29 3e 82 d9 8a 3d ea 55 1d 3d 88 80 b0 3d
       0.16517277 0.067797676 0.038412012 0.086182654
000080 2b fc b4 bd cf 06 da bd fb ea 5f 3e 5a a9 cc bd
       -0.0883716 -0.1064583 0.21866982 -0.09993239
000090 19 22 09 be e5 af 19 3d 3b 8c 5a 3d 57 8c ae 3d
       -0.13391913 0.03752126 0.05335639 0.085228615
0000a0 cf ec ce 3d 42 3e 92 3d 48 fc 29 3d 4b d6 12 3d
       0.101037614 0.07140781 0.04150036 0.035848897
0000b0 f3 e4 0a be 63 25 26 3c f5 cb aa bb 2d 16 b2 3d
       -0.135639 0.01014075 -0.005212302 0.08695636
0000c0 aa dc 1b 3e 1c 38 5d be
       0.15220895 -0.21603435

_model.layers.4.weight f4 [50, 50]
000000 64 5e b2 bd c0 64 90 bc df 9e 3e 3c 76 4f a8 bd
       -0.0870941 -0.017626166 0.0116345575 -0.08218281
000010 d6 0b 5b 3d 2c de b8 3d f9 f8 ad 3d d6 46 9d bd
       0.053478085 0.09026751 0.084947534 -0.076795265
000020 c3 0f 12 3d af 50 7e 3d d6 69 06 3e 50 ff 24 3d
       0.035659563 0.062088665 0.1312631 0.040282547
000030 88 70 1f 3e 2c 3c 04 be 9b 51 2a 3d 54 bb bd bb
       0.15570271 -0.12913579 0.04158173 -0.0057901535
000040 f2 5f 8b 3e b0 ef e3 3d 0a ab be 3d 1a 8c e7 bd
       0.27221638 0.11129701 0.09309967 -0.11306019
000050 85 13 4d bc e9 2f 07 be ad 90 8c 3d 3b dc 7d bd
       -0.012516861 -0.1320187 0.06863532 -0.061977606
000060 95 fa ea 3a d7 66 1a bd 3b b1 0b bd 51 48 af 3d
       0.0017927462 -0.037695732 -0.034104567 0.08558715
000070 39 c0 9b 3d 7a cb 60 3c 27 97 ea 3d ad a5 e9 3d
       0.07605023 0.013720388 0.11454611 0.11408553
000080 cb d3 87 3e 6f 30 86 bd 50 6e 33 be 0e 6b 33 3c
       0.26528773 -0.06552207 -0.1752255 0.010950817
000090 7f f2 95 bd 29 b9 70 3d fe 5c d9 3d de 5c a8 bd
       -0.07321643 0.058770332 0.1061344 -0.08220838
0000a0 6d d3 9a bc 31 4a 94 bd 20 6b 19 bd 87 de 61 bd
       -0.018899644 -0.072407134 -0.037455678 -0.05514386
0000b0 f1 7d c2 3d 93 ce fb bd 94 70 ed 3d 9c f6 a6 3d
       0.09496678 -0.1229526 0.11593738 0.08152506
0000c0 9e 7d bb bc 05 c7 8c 3c bd 38 bd 3b 21 ca e4 3a
       -0.022887047 0.017184744 0.005774586 0.0017455259
0000d0 39 a7 30 3e bd 8c 1c 3d 91 86 9f 3c 9a b2 d2 3c
       0.1725129 0.038220156 0.019473346 0.02571993
0000e0 8f 55 2f be b7 a5 12 3e 92 ba 57 bd 12 39 dd bd
       -0.17122482 0.14321028 -0.05266816 -0.10801901
0000f0 b8 37 08 3e 32 33 d2 bd fc db a3 3d 46 e2 12 be
       0.13302505 -0.10263671 0.08000943 -0.14344129
000100 63 d9 15 3e 82 da 84 bc ca 1d 95 3d 61 8d af bd
       0.14633708 -0.016217474 0.072810724 -0.08571888
000110 0b dd bd 3d a6 1c 07 3e 62 e2 d5 be c3 49 0f be
       0.09270676 0.13194522 -0.4177428 -0.13992982
000120 76 98 58 3c b2 bf 22 3d 6d 80 bb 3d b5 b1 af bd
       0.013219943 0.039733596 0.09155355 -0.08578817
000130 78 de 45 3c 25 12 15 3e f7 37 cd 3d 41 c5 89 bc
       0.012076966 0.14557703 0.1002044 -0.01681769
000140 db 34 45 bd ec 58 58 bc 6e 9c 42 be 53 68 3c 3d
       -0.04814611 -0.013204794 -0.19004986 0.04599793
000150 b4 67 5e 3d 2e c7 59 bd e9 69 ab bd d7 7c 16 3d
       0.054298118 -0.05316847 -0.0836981 0.03674015
000160 d1 4b 92 ba e5 cf a9 bd 03 08 9b bc 4b d4 fb 3d
       -0.0011161511 -0.08291606 -0.018924719 0.12296351
000170 6d 71 dd 3b 8a 82 a2 3d d8 e7 95 3d c0 e5 95 3d
       0.006757906 0.079350546 0.07319611 0.07319212
000180 22 07 4e 3d 72 21 97 3d 3b 28 b4 3c 23 1e 4d bc
       0.05029977 0.07379426 0.02199184 -0.012519392
000190 88 57 09 be df ce 9c 3d 37 f0 03 3e 4a 0a 02 3e
       -0.13412297 0.07656645 0.12884603 0.12699237
0001a0 77 44 db bd a0 63 2b 3d f6 ab 78 3d 20 d7 5d 3d
       -0.10706418 0.041843057 0.06071087 0.054160237
0001b0 9b 7a 08 bd a0 58 9b 3d c9 95 6c bd 6e 76 e7 bd
       -0.03332005 0.07585263 -0.057760034 -0.113018855
0001c0 42 69 fc bd 30 07 0a be a8 fc 9c bd 84 54 f0 3c
       -0.12324764 -0.13479304 -0.07665378 0.029337175
0001d0 21 21 9f 3b d4 67 2f 3c 3e c1 e4 bd 87 a4 f5 bd
       0.004856244 0.010705907 -0.111696705 -0.11994272
0001e0 ad dd e4 bd b3 b3 b1 3d d2 cf 58 bd 29 44 02 be
       -0.11175094 0.08676853 -0.052932568 -0.12721314
0001f0 cf 0a 0f 3e ff 66 5d 3d f0 a9 f5 3c 44 b5 02 3d
       0.13968967 0.054053303 0.02998826 0.03191115
000200 a7 23 86 bb ab 7f 01 3e a5 8a 0d bd 25 71 ba ba
       -0.0040936056 0.12646358 -0.03455605 -0.0014224394
000210 14 ee 51 bd c4 87 cc 3d 49 d1 07 3e 68 91 08 3e
       -0.05125244 0.09986833 0.1326343 0.13336718
000220 5d fc c6 bc 8e 46 b2 bd fe f9 53 3c 68 87 34 3d
       -0.024290258 -0.087048635 0.012938021 0.044074446
000230 a8 af 0f be 35 97 ab 3d 82 7b c8 ba db 10 43 bd
       -0.14031851 0.0837845 -0.0015295597 -0.047623497
000240 3b 6a d0 bd e8 9f 76 bd b6 46 f9 bd 46 c3 0f be
       -0.10176512 -0.060211092 -0.1217169 -0.14039335
000250 ec 07 ca bd ac fe 9b 3c c9 fc bd bd e4 b2 38 3c
       -0.09864792 0.019042335 -0.092767306 0.01127312
000260 1a de 6e 3c 2c c2 d7 bd 53 b5 09 bd c6 37 21 bd
       0.01457932 -0.10535082 -0.03362019 -0.03935983
000270 8a 53 02 be db 54 0a be c8 fd 23 bd 35 cc 11 bc
       -0.1272718 -0.13508932 -0.040036947 -0.008898784
000280 73 44 1f 3d fc 8c 50 3d ad 41 05 be c1 6d 96 3d
       0.038883638 0.050915703 -0.13013335 0.07345153
000290 bc de 69 3c e8 c1 8f 3d f0 9e 0b 3e 50 56 c0 3d
       0.014274295 0.070194066 0.13634849 0.09391463
0002a0 90 cc 0a be cb 60 00 be 7d 3c eb bd 1c 54 fb 3d
       -0.13554597 -0.12536924 -0.114861466 0.12271902
0002b0 ee 43 c8 bb 71 09 1f 3c 88 4c 88 3d 43 73 0b be
       -0.0061116135 0.009706841 0.06655222 -0.13618188
0002c0 dd 2c 9c 3d 70 6c e2 bd 62 40 80 3c c6 1c 13 3d
       0.076257445 -0.11055839 0.0156557 0.035916112
0002d0 86 4a 8b bd 75 96 6c 3d f7 97 a4 3d d3 cc 93 3d
       -0.068013236 0.057760675 0.080367975 0.072168015
0002e0 5c 2e da bd 5b 0a 5e 3d f1 a5 d5 bd 02 f9 82 bd
       -0.106533736 0.054209094 -0.104320414 -0.06395151
0002f0 bb a1 99 3d c2 6b b4 bd eb 08 04 3e a4 28 8c bd
       0.07501551 -0.08809616 0.12894027 -0.06843689
000300 1b c6 d6 3d bd 2c dc bd f2 3c ca bd f7 2b 07 3e
       0.10487004 -0.10750721 -0.09874906 0.13200365
000310 22 fa 62 3d df fb e3 bd ce aa 93 bd 33 d9 de bd
       0.055414326 -0.11132025 -0.07210313 -0.10881271
000320 c8 7a c8 3d 38 28 35 3d a0 d2 e0 bd 00 a1 d7 3c
       0.09789044 0.04422781 -0.109776735 0.026321888
000330 f8 09 b9 bc 08 7b bb 3d 40 0d 4d 3d f5 0b 7c bd
       -0.022587761 0.09154326 0.050061464 -0.06153484
000340 2e e0 82 3d 64 d8 e3 3b d8 c6 8c bd e6 75 06 be
       0.06390415 0.006953286 -0.06873864 -0.13130912
000350 cc 92 be bd 04 1c e4 bd 19 62 60 3d 85 33 4e bd
       -0.09305343 -0.11138156 0.054781053 -0.0503421
000360 c9 a0 08 be 53 9d f3 bd 57 56 f3 3d 7f c6 d3 3d
       -0.13342585 -0.118952416 0.118817024 0.103405945
000370 39 63 06 3d 7e b3 88 3c 68 60 c2 bd 36 64 d0 3d
       0.03280947 0.016687151 -0.09491044 0.10175364
000380 ca af 77 bc 05 2c 01 be 0b 0e 83 bc 86 b1 dd bd
       -0.015117595 -0.12614448 -0.015997907 -0.108248755
000390 f4 7f e0 3a 4c 13 3c 3c 08 b1 eb 3c 54 9a f7 bd
       0.0017127977 0.01147921 0.028770939 -0.12089983
0003a0 46 33 c5 bd 9d 5a 48 3c 23 df 89 3d 80 df d9 bd
       -0.0962892 0.012228635 0.06732013 -0.10638332
0003b0 05 3b 88 3d e1 36 2c 3d 4c a2 af bd 25 c1 ab bd
       0.06651882 0.042044524 -0.085758775 -0.08386449
0003c0 a4 90 fe bd f2 76 dc 3d 08 fa 07 3d b4 30 cd bc
       -0.12429932 0.107648745 0.033197433 -0.025047638
0003d0 70 7d 9a bc a8 2c b6 bd 55 15 ab 3c 02 6a 4f 38
       -0.018858641 -0.08895236 0.020884195 4.9451373e-05
0003e0 74 77 20 3d f1 02 41 bd 05 7a d6 3c b1 4b 2f 3d
       0.03917642 -0.047121946 0.02618123 0.042796794
0003f0 34 ab 14 3e 65 70 71 bc 26 27 7e 3c b7 c7 f0 bc
       0.14518434 -0.01473627 0.015512263 -0.029392106

_model.layers.4.bias f4 [50]
000000 e2 94 da 3d 51 3b 3a 3e 60 71 8c bd b9 15 32 ba
       0.106729284 0.1818669 -0.06857562 -0.0006793398
000010 e8 52 88 3d af f2 60 3e 17 44 92 3d ee 78 b3 3c
       0.06656438 0.21967576 0.07141893 0.02190825
000020 1c 19 ed bd 0e 4d 0c bd 45 16 d5 bb 25 a1 b4 3d
       -0.11577055 -0.034253173 -0.006502899 0.088197984
000030 35 b7 93 3c 4a 0a dc 3d d9 9d d4 bd 85 30 80 bd
       0.018031696 0.1074415 -0.103816696 -0.06259254
000040 3b b4 0a 3e 08 30 59 bd bc 1d 6b bd 1f 97 18 3a
       0.13545315 -0.05302432 -0.057401404 0.00058208586
000050 b4 f0 c5 bd 19 d9 f7 3d bd a9 a3 3d 2d ed a3 3d
       -0.09665051 0.12101955 0.079913594 0.08004222
000060 17 c4 20 bd 87 5b 58 3e 83 99 60 3e c6 4a e9 3d
       -0.039249506 0.21128665 0.2193356 0.11391215
000070 23 a1 a6 bc f1 d6 97 3e a5 0f 32 3e 6c 3b 99 bc
       -0.020340508 0.29656175 0.1738878 -0.018705092
000080 db 81 a0 3d fb e2 84 3e 71 ac d6 3d c6 18 28 3d
       0.07837268 0.25954422 0.10482109 0.04103925
000090 81 63 dc bb 0e 25 20 3d 66 bd 6c 3d 01 f2 eb bc
       -0.006725729 0.039097838 0.057797812 -0.02880192
0000a0 00 f9 73 3e fe 82 02 bd 5e ea c4 bc 86 6b fb 3e
       0.23825455 -0.031863205 -0.024037536 0.4910547
0000b0 ab 14 49 3d 11 88 c1 3d 40 65 81 3d d3 9d 17 3d
       0.049091976 0.09449781 0.0631814 0.037015747
0000c0 3a 53 c4 3d 3a c0 13 3d
       0.09586187 0.036071993

_model.layers.5.weight f4 [402, 50]
000000 1d 4d 19 3d 19 50 1b 3e 30 88 42 bc 1c ac fa 3d
       0.037427057 0.15167274 -0.01187329 0.122398585
000010 a0 7b 02 bd d0 83 7d 3d 1d 93 3c bd 2e 40 e5 3c
       -0.03185618 0.061893284 -0.046038736 0.027984705
000020 2c 33 ba bd f0 76 39 3e 50 b2 68 3e 98 a6 49 3b
       -0.090917915 0.18111777 0.22724271 0.0030769464
000030 1b 9a 47 be 69 87 73 bd 44 25 94 3b bf 83 f4 bd
       -0.1949238 -0.05945531 0.004521044 -0.11939191
000040 2a 09 33 bd bd 60 84 bd 0e 59 b3 3d d3 e5 40 bd
       -0.04370991 -0.06463764 0.0875722 -0.047094177
000050 a3 48 01 3d fa 8f 10 3d d5 d7 6a 3d 4c 7d a7 3c
       0.031563412 0.035293557 0.05733474 0.020445488
000060 ee e5 06 bd 80 29 bb bd 4f b8 9e bd 21 c5 77 bc
       -0.03293412 -0.09138775 -0.07749998 -0.015122683
000070 cb 2d ee 3d a8 68 bb bc d3 2d 1b 3e 22 4f fa 3d
       0.11629828 -0.022877052 0.151542 0.12222125
000080 a3 4b 49 3d 83 68 ff bd dc df e7 bc 73 43 0a 3e
       0.0491444 -0.12471106 -0.028304987 0.13502292
000090 f2 fa 96 bc 00 0d fa bd d7 88 e7 3d d8 0d ee 3d
       -0.018430207 -0.12209511 0.11305397 0.11623734
0000a0 55 53 a8 bc 40 3a 35 3d 44 b7 30 3d be 43 5c 3d
       -0.020547548 0.044245005 0.043143526 0.05377554
0000b0 f4 80 17 bd b3 4b 42 be 40 2b 19 bc be 12 4c bd
       -0.036988214 -0.1897419 -0.0093486905 -0.04982256
0000c0 55 c1 0e 3e 56 ad 02 be 46 1b 6a 3c cc 8b c2 3d
       0.13940938 -0.12761435 0.014288729 0.094993204
0000d0 30 24 07 3e 21 b7 7e 3d 46 c8 fe 3d 51 8f 59 3d
       0.13197398 0.062186364 0.12440543 0.053115193
0000e0 95 4f c8 3d 4c fa d4 3c 89 29 16 bb 3a 79 02 3e
       0.09780804 0.025998257 -0.002291294 0.12741557
0000f0 43 71 97 3d cf 27 47 3a d6 da 3a be 42 62 0c be
       0.0739465 0.00075971795 -0.18247542 -0.13709357
000100 de fc 89 bd 66 be e5 3d d9 86 12 bd 8f 3e 3e bd
       -0.06737684 0.11217956 -0.035773132 -0.04644638
000110 ef f4 c5 3d a7 75 08 bd 05 f6 09 bd e2 10 7a 3d
       0.09665858 -0.033315327 -0.033681888 0.061051257
000120 18 0a 73 3e 3a 50 19 3c fe 4b 06 3e 66 e1 f2 3d
       0.23734319 0.009357506 0.13114926 0.118593976
000130 4b 15 0e be 4e 15 f9 3d da fa 9c 3d 54 ff 5a bd
       -0.1387531 0.12162267 0.07665034 -0.053466156
000140 6d 6d 4a 3e 33 60 4f bd 0e 6a b1 3d 60 6e c0 bd
       0.19768305 -0.050628852 0.086628065 -0.09396052
000150 8f e8 c4 bd d3 3c 1f 3d 58 0a c3 bd e9 bb e4 bd
       -0.096146695 0.038876366 -0.09523457 -0.111686535
000160 0a b2 9e bd 6c 1b 3e 3e 31 c0 e0 bc f0 53 bd 3d
       -0.07748802 0.18565148 -0.027435394 0.092445254
000170 05 37 23 3c d3 1c 3d 3b 5d 42 05 bd 17 9d db bd
       0.009961848 0.0028856292 -0.032533992 -0.10723322
000180 bb d6 59 bd 1f f3 2c be d7 ca fd 3d a3 c6 a5 3d
       -0.0531833 -0.16889618 0.12392204 0.080945276
000190 3e 82 4f bd 1b 66 76 3c fc cf 2f 3c 78 13 84 3d
       -0.050661318 0.015038992 0.01073074 0.06449026
0001a0 7c 48 36 3d c1 18 d1 3d 57 5d 37 3d 7e b8 46 bd
       0.04450272 0.102097996 0.04476675 -0.04851579
0001b0 64 36 20 3d 21 c4 85 3e d9 9e e7 3b e5 73 b6 3d
       0.03911437 0.26126197 0.0070684967 0.08908824
0001c0 8f c9 5b be f0 c0 ab bd cd 22 93 bc 14 db 72 bd
       -0.21463607 -0.08386409 -0.01796093 -0.05929096
0001d0 90 f2 54 3e c4 13 f7 bd 17 c1 f7 3d 86 41 14 bd
       0.20795655 -0.12064317 0.12097376 -0.0361953
0001e0 09 0a 19 3d 5f 32 e5 3d f0 1f 9e 3d 22 a4 c2 bc
       0.037363086 0.11191248 0.07720935 -0.023759905
0001f0 8e dd 05 3e 31 be 97 3d 09 ac 12 bd cd f4 fc bb
       0.13072798 0.07409323 -0.035808597 -0.007719612
000200 ca 86 78 3d 97 e4 9d bc 1e 9a c0 3d 57 a9 1d bd
       0.06067542 -0.01927404 0.094043955 -0.038491573
000210 22 b7 f2 3d b4 cf e2 bd b5 45 c7 bc 52 d3 a6 bc
       0.11851336 -0.110747725 -0.024325231 -0.020364437
000220 6c ce 54 3d a3 9e 0a be ab ee dd 3d 0a 03 46 3e
       0.05195467 -0.13537078 0.10836538 0.19337097
000230 44 5c 42 bd 50 3f e5 bd 7e 1e 13 bc b4 a1 01 bb
       -0.047451273 -0.111937165 -0.008979438 -0.001978022
000240 4e 72 b2 3b a7 b2 e5 bd ad 87 03 be ef 4f b0 bd
       0.005445755 -0.11215716 -0.12844725 -0.08608996
000250 d1 3d 39 3e 3a af e1 3d bf 14 0f be cb ed 1c 3e
       0.18089987 0.1101975 -0.13972758 0.15325086
000260 fc 03 3c bc e6 18 ef 3c fa 5f 81 bc 14 f8 13 3b
       -0.011475559 0.029186677 -0.015792836 0.0022578286
000270 c8 f5 bc 3d a4 3b 15 3e f6 a9 93 bd 08 2a 7c 3d
       0.092265666 0.14573532 -0.07210152 0.06156352
000280 0f b6 66 3e fb be 12 bd 48 cf 6a be 9c 67 f2 3d
       0.22530387 -0.035826664 -0.22930634 0.11836168
000290 f2 26 0e be b9 93 ff 3d d9 3b 26 3d af f0 12 bd
       -0.13882044 0.12479348 0.04058442 -0.035874065
0002a0 2b 08 8a 3d 41 4d b4 bc 4c 44 a9 3d e9 0b 21 3e
       0.06739839 -0.022009494 0.0826498 0.157272
0002b0 74 76 2d 3d 2b 3d 93 bd 95 c8 1e bd f1 b1 96 3d
       0.042349294 -0.07189401 -0.03876551 0.073581584
0002c0 9c 4b bc bd f9 21 43 bd 4d b2 99 3c 7c 0f 3f bd
       -0.09194109 -0.04763982 0.018761778 -0.046645626
0002d0 63 5c d1 3d 15 e7 ac 3c 2d 21 8f 3d 45 e9 40 be
       0.102226995 0.021106282 0.0698875 -0.18838985
0002e0 02 d4 af 3d e2 95 06 bc 08 18 0e be c4 cd bc bd
       0.08585359 -0.008214446 -0.13876355 -0.09218934
0002f0 c0 88 13 3d 0c 11 9d 3e f0 6a f1 bc 73 67 42 3d
       0.036019087 0.30677068 -0.029469937 0.047461938
000300 08 1f d7 3c b4 2b 35 bd b8 1f 51 3c 9c 7a e0 bd
       0.026259914 -0.04423113 0.01276391 -0.10960886
000310 95 29 24 3d 56 ad c1 bd 32 b0 81 3d 3a 81 51 bc
       0.04007872 -0.09456889 0.06332435 -0.012787158
000320 03 f2 79 bd da e8 e9 3d d5 b4 7c 3d 21 b8 11 bb
       -0.061021816 0.11421366 0.061695892 -0.0022234994
000330 94 67 0f be 45 8c ba 3c 99 d4 c8 bd e0 f5 05 3d
       -0.14004356 0.022771964 -0.09806175 0.032705188
000340 7a 43 03 3e 60 3c 37 3e 91 f3 0c 3e 67 15 62 3d
       0.12818709 0.17894125 0.13764788 0.055196192
000350 7b d2 63 be 2e 7a 05 be e5 e3 d0 bd 91 af d2 3d
       -0.2224826 -0.13034889 -0.101997174 0.10287393
000360 2e 5c cd 3c 57 31 8c bd 95 ea fa bd 07 ec 44 38
       0.025068369 -0.06845348 -0.12251774 4.694986e-05
000370 ca 7b 00 3e 4f e7 be 3d f4 87 ca 3d f7 72 ce bc
       0.12547222 0.09321462 0.09889212 -0.025201304
000380 43 df a2 3d 56 1a 12 3d 5c b4 a6 bd c9 ab 05 bd
       0.0795274 0.035669647 -0.081398696 -0.03263453
000390 24 56 41 3c c8 c6 0e bd 9b 37 e9 3d b9 6a 6a 3d
       0.011800323 -0.03485754 0.11387559 0.057230685
0003a0 96 10 2d bd f6 54 58 be 41 cf 05 3e 4b 9a e8 3c
       -0.042252146 -0.2112616 0.13067342 0.028393885
0003b0 cb d1 d7 bd 8a 5c ad 3d 22 23 02 bd 1b 96 65 3e
       -0.10538062 0.08464916 -0.031771787 0.22420542
0003c0 eb e3 47 bd 91 cf 34 bc 99 c7 1b 3d e1 36 ed bc
       -0.048801344 -0.011035816 0.038032148 -0.028956832
0003d0 16 11 96 bc e5 9b 95 bd 4a c4 ae bd 25 08 cf bd
       -0.018318694 -0.07305125 -0.08533533 -0.10108975
0003e0 ba 31 aa 3d f7 19 3b bc 26 1b e5 bd 13 ab ae 3d
       0.08310266 -0.011419765 -0.11186819 0.085287236
0003f0 d9 e0 00 3e 8a 92 0d 3e 75 a5 e9 bd 32 a4 53 bc
       0.12585773 0.13825431 -0.114085115 -0.012917565
